checkpt/influence/0_0_fedl_global_500.pth (torch, 61495 bytes, 5 tensors)

layer_1.weight f4 [64, 197]
-0.015263677 -0.06828411 0.0724739 -0.05925886 -0.026458474 0.04017415 0.0667272 -0.026515882
0.03740606 0.020744938 -0.008425 -0.05907031 -0.040974144 -0.036846057 -0.03784967 -0.015614385
-0.03634586 -0.01352125 0.05511287 0.009857267 -0.03625443 0.026811255 -0.0067903437 0.0075519644
0.031168753 0.047878005 -0.035405904 0.0018015504 -0.02647853 0.06439115 0.06685319 -0.028838806
0.007561712 -0.021576162 -0.037700403 -0.035936337 0.007859758 -0.03676785 0.005924139 -0.009473803
-0.01656314 0.031713277 0.057034876 0.070992574 -0.008489662 0.056492776 0.080360234 0.03625366
0.025904378 0.0330384 0.054981817 0.06830783 0.034428492 -0.03469026 -0.005055885 0.04969872
-0.0046627363 -0.022946795 0.05359032 -0.042921305 0.04296041 0.03135692 0.07493721 0.0072921542
0.035159677 -0.033904668 -0.03960686 0.044020034 -0.023964228 -0.03583964 0.045115087 0.013667703
0.0077259922 -0.014366583 -0.040009867 -0.040756647 0.01261864 -0.056948766 -0.03433036 -0.04676255
-0.06454534 -0.03204682 0.038937412 0.069605134 -0.028049318 -0.0014689651 0.0145220915 -0.027550003
0.007755838 -0.019442271 0.048320748 -0.016599733 0.03416414 -0.012675253 0.01946989 0.027307339
-0.022372168 -0.012432254 -0.011302888 -0.05763165 -0.013243048 -0.03190251 -0.009612955 0.049335323
-0.022646876 0.057144765 -0.034205742 -0.040514067 0.05251687 -0.045662142 0.055185277 0.048258804
0.060085494 -0.019293714 -0.027086014 -0.089769505 -0.066235386 0.036339138 -0.038870063 -0.010507402
-0.030951757 -0.004090543 -0.059814066 0.030653965 0.0654626 0.0875647 -0.008141742 0.024730537
0.07551557 -0.026502132 -0.026035514 -0.03716104 0.055212036 -0.009792239 0.045984186 0.013005373
0.03772386 0.026169306 0.053302888 -0.06691323 0.03495795 0.0437426 0.05084183 0.07257171
0.06526504 0.055634476 -0.0044903457 -0.036191594 0.026777107 0.05821302 -0.013080371 -0.024656031
-0.023670308 0.01757633 0.0082744835 0.05789461 -0.07806947 -0.041121017 -0.05729042 -0.05672957
-0.008805736 0.0006965051 -0.04977389 -0.015349279 -0.04741508 -0.0026344701 0.05147121 0.002238916
0.059484415 0.0046112556 -7.650613e-05 -0.015962094 0.052141227 -0.02654258 -0.06318849 0.042807933
-0.013181133 -0.04919301 -0.05189824 0.0661825 0.011522134 -0.02101336 -0.035784513 -0.038448926
0.056675166 0.039705638 -0.025856774 -0.015672924 0.045720987 0.07436586 0.027653277 0.002639146
0.048827816 -0.009059213 -0.023184445 0.07071588 0.0074367505 0.004434511 0.016317103 0.011859987
0.0016742151 0.032073285 0.029780326 -0.06334585 0.01821591 -0.040224165 0.015215713 0.071845785
0.14017393 -0.043048806 0.051604737 -0.0104961675 0.032059137 0.0035202766 0.091050595 0.012542512
-0.04931957 -0.008840234 -0.00513199 -0.051621262 0.0058450466 -0.029489761 0.03438126 0.001622339
-0.06916613 0.04788653 -0.016423458 0.019668117 0.017798454 0.025966385 0.026534725 -0.0007489531
0.027062206 0.022702184 -0.049989372 0.02236334 0.06543379 -0.009814985 -0.033980224 0.036830574
-0.091235586 0.018472064 -0.003972565 -0.04405529 -0.062408675 -0.04579555 -0.063069336 0.00696905
0.008847253 -0.009516679 0.026713436 -0.07106187 0.026360437 -0.017915089 -0.0812902 0.039928507
00000000: 8014 7abc 8ad8 8bbd 326d 943d 6bb9 72bd
00000010: 71bf d8bc a68d 243d 45a8 883d d637 d9bc
00000020: 1937 193d 4af1 a93c 0309 0abc b6f3 71bd
00000030: 81d4 27bd e4eb 16bd 4108 1bbd 7ad3 7fbc
00000040: 66df 14bd 3c88 5dbc 08be 613d 6080 213c
00000050: 867f 14bd 47a3 db3c 8881 debb 7876 f73b
00000060: 9d55 ff3c ba1b 443d c805 11bd 0022 ec3a
00000070: 81e9 d8bc 82df 833d 53ea 883d 5c3f ecbc
00000080: 3dc8 f73b 7ec0 b0bc bd6b 1abd fb31 13bd
00000090: 37c6 003c e399 16bd 481f c23b 0338 1bbc
000000a0: 6caf 87bc c8e5 013d 679d 693d 8e64 913d
000000b0: 3918 0bbc f864 673d e893 a43d b87e 143d
000000c0: 6b35 d43c 4653 073d 9d34 613d fae4 8b3d
000000d0: e404 0d3d 6017 0ebd d6ab a5bb e390 4b3d
000000e0: dec9 98bb ebfa bbbc 8681 5b3d 40ce 2fbd
000000f0: 41f7 2f3d 1d70 003d ae78 993d 06f3 ee3b
00000100: 9803 103d 9fdf 0abd ce3a 22bd 5a4e 343d
00000110: a150 c4bc 96cc 12bd 99ca 383d 80ee 5f3c
00000120: 522a fd3b d161 6bbc 63e1 23bd 71f0 26bd
00000130: 6abe 4e3c 1c43 69bd fe9d 0cbd 168a 3fbd
00000140: 5930 84bd 8743 03bd d67c 1f3d 238d 8e3d
00000150: afc7 e5bc 4a8a c0ba 11ee 6d3c 8bb0 e1bc
00000160: af24 fe3b 6645 9fbc faeb 453d 2afc 87bc
00000170: b2ef 0b3d ddab 4fbc 527f 9f3c a4b3 df3c
00000180: d645 b7bc a7b0 4bbc c02f 39bc 2a0f 6cbd
00000190: 5ff9 58bc 35ac 02bd a87f 1dbc d613 4a3d
000001a0: f185 b9bc a110 6a3d 521b 0cbd 14f2 25bd
000001b0: ee1b 573d 3a08 3bbd f509 623d 06ab 453d
000001c0: 351c 763d da0d 9ebc 7de3 ddbc 13d9 b7bd
000001d0: 6ba6 87bd 59d8 143d 3736 1fbd 3d27 2cbc
000001e0: 8a8e fdbc f609 86bb 98ff 74bd 061e fb3c
000001f0: 4111 863d 1f55 b33d f164 05bc b297 ca3c
00000200: e8a7 9a3d 001b d9bc 6e48 d5bc 2d36 18bd
00000210: 0426 623d a16f 20bc ea59 3c3d 7d14 553c
00000220: 5684 1a3d 0361 d63c 2154 5a3d ce09 89bd
00000230: 1130 0f3d 712b 333d 863f 503d 7aa0 943d
00000240: ada9 853d fae0 633d c023 93bb a33d 14bd
00000250: aa5b db3c c770 6e3d 0d4f 56bc 72fb c9bc
00000260: 3ce8 c1bc 3cfc 8f3c b391 073c e622 6d3d
00000270: e3e2 9fbd 836e 28bd 5ca9 6abd 445d 68bd
00000280: ef45 10bc ab95 363a b5df 4bbd 8b7b 7bbc
00000290: 5136 42bd 13a7 2cbb 7ad3 523d c7ba 123b
000002a0: eea5 733d 041a 973b ea71 a0b8 f0c2 82bc
000002b0: 0a92 553d d36f d9bc f868 81bd 5f57 2f3d
000002c0: aef5 57bc 9c7e 49bd 4093 54bd b18a 873d
000002d0: 55c7 3c3c 3624 acbc c892 12bd 9f7c 1dbd
000002e0: 3824 683d 61a2 223d 96d1 d3bc 8164 80bc
000002f0: ee45 3b3d 214d 983d 2089 e23c 86f5 2c3b
00000300: adff 473d 186d 14bc 4eed bdbc 7dd3 903d
00000310: fcaf f33b 604f 913b 72ab 853c 6450 423c
00000320: 5671 db3a 475f 033d dff5 f33c 78bb 81bd
00000330: 8839 953c 18c2 24bd 534b 793c e223 933d
00000340: c189 0f3e f253 30bd 7d5f 533d 1ef8 2bbc
00000350: 7150 033d 71b4 663b bc78 ba3d 1c7f 4d3c
00000360: 5103 4abd a1d6 10bc 412a a8bb d170 53bd
00000370: ce87 bf3b 8394 f1bc 5dd3 0c3d aaa4 d43a
00000380: f9a6 8dbd ab24 443d 7d8a 86bc 081f a13c
00000390: 10ce 913c 75b7 d43c 5a5f d93c 6455 44ba
000003a0: 8fb1 dd3c eef9 b93c a8c1 4cbd 5333 b73c
000003b0: 2702 863d 08cf 20bc d92e 0bbd a8db 163d
000003c0: b9d9 babd ba52 973c 4a2c 82bb 5273 34bd
000003d0: 3da0 7fbd 1d94 3bbd 7f2a 81bd a15c e43b
000003e0: 12f4 103c d8eb 1bbc 23d6 da3c e388 91bd
000003f0: d8f1 d73c aac2 92bc 7a7b a6bd 138c 233d

layer_1.bias f4 [64]
0.07011697 -0.08923208 0.00542714 0.12507887 0.096901275 0.059304807 0.016286816 -0.05835613
0.071300566 0.05261363 -0.007518426 0.06385712 0.092343785 0.0013329803 0.00364025 0.013214168
-0.006970697 -0.06336876 0.0076863416 0.086390495 -0.020903131 0.03379383 -0.0840918 0.09819481
0.04518505 0.056341093 -0.014009797 0.0053341947 0.031624842 0.028217481 0.2960767 -0.061142832
0.034412984 -0.043434296 0.0042028213 0.060159825 0.10519796 0.041241683 -0.32077622 0.0038628506
0.095428444 0.13878112 -0.014166783 0.02586092 0.0437121 0.068929434 0.0049329097 0.067880474
0.104621276 0.02230907 0.06183353 0.16005197 0.067017 0.04232837 -0.11181452 0.12037598
0.109194405 -0.01125998 -0.0013258265 -0.0025464632 0.058153275 0.13091019 -0.03595602 0.24954286
00000000: 7c99 8f3d 4fbf b6bd 26d6 b13b ad14 003e
00000010: 2d74 c63d 99e9 723d ee6b 853c d606 6fbd
00000020: 0806 923d 6481 573d 215d f6bb 86c7 823d
00000030: bd1e bd3d 66b7 ae3a 4391 6e3b 3d80 583c
00000040: 726a e4bb 7bc7 81bd b5dd fb3b 80ed b03d
00000050: 0b3d abbc 666b 0a3d 5238 acbd 5c1a c93d
00000060: f613 393d ebc5 663d 5989 65bc 78ca ae3b
00000070: 0d89 013d 5928 e73c 5d97 973e e870 7abd
00000080: a1f4 0c3d 29e8 31bd d2b7 893b 266a 763d
00000090: 0772 d73d 0aed 283d c83c a4be e127 7d3b
000000a0: fd6f c33d a31c 0e3e cb1b 68bc 48da d33c
000000b0: 750b 333d e02a 8d3d 3fa4 a13b eb04 8b3d
000000c0: ae43 d63d 83c1 b63c 2845 7d3d aae4 233e
000000d0: 3540 893d 8360 2d3d 03ff e4bd af87 f63d
000000e0: 51a1 df3d c77b 38bc 5bc7 adba 90e2 26bb
000000f0: 2132 6e3d 520d 063e 9f46 13bd 2a88 7f3e

layer_2.weight f4 [32, 64]
-0.11182679 0.041112036 -0.0054601114 0.021251079 -0.04593321 -0.028886959 -0.121346176 -0.10412499
-0.038373336 0.1310635 -0.0743793 -0.019416265 0.005839767 0.118440844 -0.034833264 0.11241094
-0.104911186 0.050398547 -0.03977195 0.13941106 -0.0030795834 0.008440584 -0.08705155 -0.044253457
-0.04762047 -0.07847103 0.049069673 -0.013614145 -0.04046849 0.08876047 -0.089104414 -0.063908525
0.1650182 -0.061988715 0.058685727 -0.010880169 0.0019138865 0.09852451 0.23344637 -0.022935847
0.0655364 -0.10802926 -0.012164964 7.8082056e-05 0.08033269 -0.120125934 0.10389208 0.04308854
-0.05132221 0.084883496 -0.14317416 -0.071925685 0.03260016 -0.15342452 0.018916147 -0.061093885
-0.11895593 -0.05252892 -0.052941028 0.0708668 -0.027478743 0.049121592 0.07044573 -0.009483719
-0.067514084 0.1296818 0.0755782 -0.09493556 0.069186404 0.097041264 -0.06830155 -0.11448211
0.08964856 -0.010453522 0.06900433 0.077470995 -0.09939205 -0.073240675 -0.11244014 0.02537832
0.053671185 0.14137056 -0.0014053769 0.1035288 -0.092328 -0.0804107 -0.053055163 -0.098770015
0.06451276 0.10967056 0.048210643 0.17826557 -0.16891025 -0.009920643 -0.092518084 -0.04009933
0.07388657 -0.021013571 0.12516192 -0.11416668 -0.09438844 0.002545388 0.092342004 0.08437364
-0.025873793 0.18132728 0.02064173 -0.046394847 0.067039974 0.100679666 -0.09155632 -0.14091554
-0.050491083 0.079086944 -0.118123345 -0.049535815 -0.037270714 0.021639843 0.13718909 0.02851211
-0.08878565 0.117976144 0.03809122 0.07390403 -0.07308564 -0.044152312 0.05384584 -0.10274607
0.019267024 0.083473675 0.1307949 0.07548888 -0.052506536 -0.10969482 0.10761662 0.093464375
-0.07767867 -0.087573454 -0.06164682 -0.12356409 0.10474611 -0.041476306 0.098534025 0.10459802
-0.105282255 -0.028125245 -0.007683941 0.030904053 -0.02303352 -0.06654079 0.07514341 -0.0316241
0.101331 0.063727275 0.073977396 -0.010746072 0.040634774 0.075717404 0.1300346 0.098821454
-0.11098197 0.02005427 0.11892147 -0.03999615 0.019054176 -0.06686511 -0.037953243 0.05025537
0.035754107 -0.028179567 0.09491949 -0.11928065 0.09955205 0.10333683 0.0035847276 0.07556211
-0.05690054 0.053041592 0.09620511 -0.124139555 -0.12428353 0.08327175 -0.009380475 0.0011020169
0.13047522 0.007053392 -0.040979873 0.105522074 0.08936495 -0.12700252 0.08734422 0.010203759
-0.044395793 0.059468813 -0.12826319 -0.04076474 0.07804102 0.0726494 0.021270998 -0.10137452
-0.031119047 -0.016959256 -0.041590296 -0.038771387 -0.038084116 -0.13688764 0.013207786 0.121076696
-0.101801395 0.009607801 0.110023186 0.10953892 0.0054233507 -0.07954653 -0.04723096 -0.0049451687
0.06791803 -0.12122271 -0.064357646 0.03022935 0.071036056 0.028910248 0.16403055 0.06511801
-0.067416854 -0.05210268 0.025629837 -0.022209596 0.091088295 0.13541831 -0.13500401 -0.0967869
0.06040063 0.014459127 -0.059021246 -0.12569132 -0.012005371 -0.030643038 -0.0046958076 0.0851798
0.02249696 0.06582271 0.10892439 -0.020519879 0.018544575 0.0071517564 0.0043460294 0.06043604
0.11603477 0.082581945 -0.099583104 0.05598189 0.035005625 -0.060834583 0.034222435 0.06824498
00000000: 7205 e5bd 1865 283d bcea b2bb be16 ae3c
00000010: 7624 3cbd 58a4 ecbc 5884 f8bd 7c3f d5bd
00000020: 5c2d 1dbd 8335 063e 2d54 98bd dc0e 9fbc
00000030: 845b bf3b 1d91 f23d 53ad 0ebd b537 e63d
00000040: addb d6bd b56e 4e3d eae7 22bd c6c1 0e3e
00000050: d6d2 49bb 604a 0a3c 1548 b2bd 1d43 35bd
00000060: af0d 43bd 6bb5 a0bd 48fd 483d dd0d 5fbc
00000070: 4ac2 25bd 0dc8 b53d 607c b6bd 79e2 82bd
00000080: 88fa 283e e1e7 7dbd 7260 703d bd42 32bc
00000090: 60db fa3a 38c7 c93d 910c 6f3e f5e3 bbbc
000000a0: f337 863d 723e ddbd 8f4f 47bc fcbf a338
000000b0: 7785 a43d 9604 f6bd 5fc5 d43d 9c7d 303d
000000c0: 3d37 52bd 66d7 ad3d 3f9c 12be c64d 93bd
000000d0: bf87 053d 511b 1dbe 09f6 9a3c 953d 7abd
000000e0: 2b9f f3bd 9128 57bd b1d8 58bd 9d22 913d
000000f0: 1a1b e1bc b933 493d da45 903d 9a61 1bbc
00000100: d344 8abd 4ecb 043e bec8 9a3d 936d c2bd
00000110: 9ab1 8d3d 92bd c63d afe1 8bbd 9975 eabd
00000120: aa99 b73d 4045 2bbc 2452 8d3d 1da9 9e3d
00000130: 0f8e cbbd 35ff 95bd 0447 e6bd 32e6 cf3c
00000140: 51d6 5b3d 72c3 103e a034 b8ba e806 d43d
00000150: 7616 bdbd 5dae a4bd 5f50 59bd ef47 cabd
00000160: 441f 843d f59a e03d 8678 453d 408b 363e
00000170: cff6 2cbe 318a 22bc 1f7a bdbd 323f 24bd
00000180: d851 973d a724 acbc 722a 003e 38d0 e9bd
00000190: ba4e c1bd 86d0 263b ce1d bd3d 16cc ac3d
000001a0: 47f5 d3bc dcad 393e d818 a93c 8608 3ebd
000001b0: 414c 893d 2431 ce3d e181 bbbd 2a4c 10be
000001c0: bdcf 4ebd 56f8 a13d a7ea f1bd 11e6 4abd
000001d0: 2da9 18bd 0a46 b13c 4c7b 0c3e 3a92 e93c
000001e0: 40d5 b5bd 7a9d f13d 8a05 1c3d ff5a 973d
000001f0: edad 95bd 0ed9 34bd 758d 5c3d 886c d2bd
00000200: e1d5 9d3c 3ff4 aa3d 19ef 053e ea99 9a3d
00000210: 1811 57bd aea7 e0bd 1a66 dc3d 406a bf3d
00000220: ff15 9fbd b659 b3bd 6081 7cbd 2b0f fdbd
00000230: 2185 d63d 0fe3 29bd 35cc c93d 7d37 d63d
00000240: 399e d7bd ea66 e6bc 92c9 fbbb 7f2a fd3c
00000250: cbb0 bcbc 8a46 88bd cae4 993d 4688 01bd
00000260: a186 cf3d 7283 823d 7681 973d 4b10 30bc
00000270: a670 263d ba11 9b3d ca27 053e e762 ca3d
00000280: 844a e3bd da48 a43c 1a8d f33d 01d3 23bd
00000290: 8117 9c3c 93f0 88bd dc74 1bbd 93d8 4d3d
000002a0: e672 123d d6d8 e6bc 2665 c23d 6a49 f4bd
000002b0: f2e1 cb3d 43a2 d33d c0ed 6a3b 4fc0 9a3d
000002c0: 8a10 69bd 2442 593d 2f07 c53d e13c febd
000002d0: 5d88 febd 618a aa3d 90b0 19bc 8d71 903a
000002e0: 4c9b 053e 2420 e73b 83da 27bd f51b d83d
000002f0: f904 b73d f30c 02be 87e1 b23d ab2d 273c
00000300: 5dd8 35bd 9295 733d 6d57 03be eef8 26bd
00000310: f8d3 9f3d 35c9 943d 8440 ae3c 729d cfbd
00000320: 5fed febc 23ee 8abc 965a 2abd bfce 1ebd
00000330: 17fe 1bbd 462c 0cbe 7865 583c 0ff7 f73d
00000340: 407d d0bd 0a6a 1d3c d653 e13d f155 e03d
00000350: 5db6 b13b 4be9 a2bd 4075 41bd 150b a2bb
00000360: 9c18 8b3d 9d43 f8bd f1cd 83bd 8ba3 f73c
00000370: 5a7b 913d 2fd5 ec3c a0f7 273e 975c 853d
00000380: d911 8abd 9f69 55bd aaf5 d13c e6f0 b5bc
00000390: 808c ba3d 19ab 0a3e 7e3e 0abe 3638 c6bd
000003a0: a766 773d f9e5 6c3c 43c0 71bd 3ab5 00be
000003b0: 2db2 44bc 1c07 fbbc 4adf 99bb bf72 ae3d
000003c0: 8b4b b83c 0fce 863d c013 df3d 4e19 a8bc
000003d0: cbea 973c 4859 ea3b 2369 8e3b c88b 773d
000003e0: a3a3 ed3d b920 a93d 3af2 cbbd 444d 653d
000003f0: 0f62 0f3d af2d 79bd d32c 0c3d 06c4 8b3d

layer_2.bias f4 [32]
-0.13111724 -0.18517911 0.1253661 0.16076311 0.11320675 -0.029075146 0.091615446 0.08492786
0.09531526 0.0916993 -0.05257518 0.048613995 -0.054336246 0.1623352 0.023289623 -0.009782225
-0.004345803 -0.20752631 -0.067528605 0.22531706 0.1341966 -0.09692449 -0.014349753 0.006276406
0.10374654 -0.22357601 0.120834514 -0.09251775 0.034576125 -0.04589158 -0.05179369 -0.11289411
00000000: 9943 06be 989f 3dbe f95f 003e 169f 243e
00000010: f1d8 e73d 002f eebc e1a0 bb3d a8ee ad3d
00000020: a634 c33d d8cc bb3d 1259 57bd 781f 473d
00000030: af8f 5ebd 333b 263e e1c9 be3c a045 20bc
00000040: 3d67 8ebb c781 54be 704c 8abd 84b9 663e
00000050: d56a 093e 5980 c6bd 3a1b 6bbc 4faa cd3b
00000060: 1179 d43d 1cf1 64be 1678 f73d f279 bdbd
00000070: b29f 0d3d cff8 3bbd 9f25 54bd 0735 e7bd

layer_3.weight f4 [1, 32]
0.41431335 0.4494728 -0.13773489 -0.2663256 0.32065943 0.1281141 -0.27355835 0.40043205
0.84616053 0.27666524 -0.080531165 -0.34526488 -0.097926 -0.22666453 0.2603549 -0.17132828
-0.027632996 0.43064713 0.021875547 -0.46983328 0.19089699 0.61558425 0.2800624 0.14103615
0.020366162 0.24768735 -0.1372101 -0.0014468406 -0.21383536 0.8140679 0.084794596 0.30181864
00000000: e120 d43e 4d21 e63e 600a 0dbe d45b 88be
00000010: 792d a43e 5830 033e d70f 8cbe 6e05 cd3e
00000020: fa9d 583f 11a7 8d3e 86ed a4bd 8fc6 b0be
00000030: 6d8d c8bd bf1a 68be 3d4d 853e ae70 2fbe
00000040: 985e e2bc c87d dc3e 5934 b33c fd8d f0be
00000050: 807a 433e ee96 1d3f 5764 8f3e c86b 103e
00000060: f0d6 a63c c1a1 7d3e ce80 0cbe eaa3 bdba
00000070: a8f7 5abe c166 503f caa8 ad3d f987 9a3e
