checkpt/influence/0_1_fedl_global_500.pth (torch, 61495 bytes, 5 tensors)

layer_1.weight f4 [64, 197]
000000 de d2 f6 bc ee d9 a7 bc 57 83 2a 3c c9 c0 4d bb
       -0.030129846 -0.02048966 0.01040729 -0.0031395426
000010 2b a1 aa bc f0 c2 0f bd 73 63 c9 3c 42 de 43 bd
       -0.020828804 -0.035098016 0.024583554 -0.047819383
000020 c0 ba 24 3d 50 f7 0e bd 6b 81 10 bd 4c d2 c1 ba
       0.04021716 -0.034903824 -0.035279673 -0.0014787405
000030 4d cb c7 bc 01 04 33 3d fd 00 e2 bc 60 38 1f bb
       -0.024388934 0.04370499 -0.027588362 -0.0024295077
000040 b1 fd 10 3d 9f 8b a7 bd 8a 8b 6c bc 82 ae 67 bc
       0.03539819 -0.081809275 -0.014437566 -0.014140727
000050 84 53 89 3c 5d 96 90 3b d6 7d c3 3c 5d 55 af bd
       0.016763456 0.004412456 0.023863714 -0.08561204
000060 0f 9e 55 bd 83 80 e2 3b b8 66 4c bd 9e f4 30 3d
       -0.05215269 0.0069122924 -0.049902648 0.043202035
000070 47 4e e7 3c 64 c0 c9 bc 43 a6 c2 bd 93 90 d1 bd
       0.028235568 -0.024627872 -0.09504368 -0.102326535
000080 91 3f 29 bc 16 8b d9 bd 2d 14 27 bc 4a bc 7f bd
       -0.010330097 -0.10622232 -0.010197681 -0.062435426
000090 ac b5 10 bd 2d 12 ab 3d e2 dc c2 3d 57 b5 81 3d
       -0.035329506 0.08353076 0.09514786 0.06333416
0000a0 48 a1 19 3d 9b fe 96 bd fe 22 77 3d b1 83 f3 bc
       0.037507325 -0.07372781 0.060336106 -0.029725881
0000b0 9e 99 4a 3d ed 45 f3 bc e7 8e a6 3d 25 5c 6c bc
       0.049462907 -0.02969643 0.08132725 -0.014426266
0000c0 27 90 df bd 20 8a 47 3d 83 e2 97 bd d8 13 14 3d
       -0.10916167 0.04871571 -0.074162506 0.036151737
0000d0 a2 1a 75 bc f6 00 d4 bc fb 53 de 3d bb 35 a5 3c
       -0.014959963 -0.025879364 0.10855862 0.020167222
0000e0 a5 93 e1 bc e0 0e d5 bb 6d 49 3d 3c 9e 7b 69 3c
       -0.027536223 -0.0065020174 0.011553151 0.014250664
0000f0 99 e1 30 bd 36 7b e7 3d 80 0d c2 bc 8a 01 98 bc
       -0.043183897 0.113027975 -0.023688078 -0.018555421
000100 80 0a 8b 3a 8f ff 94 bd 03 b8 d5 3c 13 f1 23 bc
       0.0010607988 -0.072753064 0.02608872 -0.010006207
000110 b6 5b 5f bd b3 99 9b bd 42 9c a6 bc c2 84 bf 3c
       -0.05453082 -0.07597675 -0.020338181 0.023378734
000120 28 45 ac 3d 9e c8 62 bd 96 fa 92 bd e9 1f 00 3d
       0.08411628 -0.055367105 -0.07176702 0.031280432
000130 62 55 58 3b d6 06 1a bc 6e 09 ae bd 00 b2 2f 3c
       0.0033009876 -0.009401044 -0.08497892 0.010723591
000140 a5 64 0a 3c 11 a7 ab bc 25 08 d9 bd 78 82 1c 3c
       0.008446847 -0.020953687 -0.105972566 0.009552591
000150 51 22 e9 3c 07 f7 01 bd 6f fd 47 3d 3d 9a 1c bc
       0.028458746 -0.031729724 0.048825677 -0.009558258
000160 ff c6 06 3d a5 16 ec bb 4c 69 71 3c 2b 1e 28 3d
       0.03290462 -0.007204848 0.014734577 0.041044395
000170 1c cb 95 bb 98 aa 03 bd 1e 10 f1 3c 7b 4f 53 3d
       -0.0045713317 -0.032145113 0.02942663 0.05158947
000180 e5 fa aa 3c 3c d2 0c bd 24 87 d7 bc 7d 50 2c 3d
       0.020871589 -0.034380183 -0.026309557 0.042068947
000190 00 6a 21 bc 68 49 8e 3c db 8b a5 bb 68 57 33 3d
       -0.0098519325 0.017368987 -0.0050520725 0.04378453
0001a0 0d 63 a4 3c 58 b5 8a bd b0 00 a0 3c 68 b3 69 bd
       0.020066762 -0.0677287 0.019531578 -0.05705586
0001b0 01 af 2f 3d 66 3b 22 bd f3 27 2d bb 77 8f a7 bc
       0.042891506 -0.039607428 -0.0026421517 -0.020454152
0001c0 1a 7b 55 3d db 08 ee bc 12 57 1a bc 22 44 68 3c
       0.052119352 -0.029056957 -0.009420173 0.0141764
0001d0 28 90 23 bc 8d 7a ee bd 2d 43 7f bc 5f a6 48 3d
       -0.0099831 -0.116444685 -0.015579981 0.04898679
0001e0 ad 4e ff bc 48 2f e7 3d 67 26 ff bd 80 c4 c3 ba
       -0.031165445 0.11288315 -0.124584965 -0.0014935881
0001f0 c6 98 9f 3c e4 c4 0c be 82 7c 18 3d e5 c8 7e 3d
       0.019482028 -0.13746983 0.037228115 0.062203307
000200 0a 38 07 3d 6d 3b f5 ba de a9 39 bd f6 fc a9 bc
       0.033012427 -0.0018709727 -0.045328014 -0.020750504
000210 5e 62 70 bd 0f cd 99 bc 79 0f 49 3c 18 6a 83 bc
       -0.05868756 -0.018774537 0.012271755 -0.0160418
000220 00 ef 49 3b 54 f7 5c 3c 0e 59 35 bd 02 42 06 3d
       0.003081262 0.013486702 -0.044274382 0.032777794
000230 c8 bb 41 3d e1 fe 8b bd 62 3e 99 bb dd 20 8f 3d
       0.047298223 -0.06835724 -0.004676626 0.0698869
000240 cf 08 54 3d 53 f3 87 3c c0 4b ff ba 40 83 5a 3b
       0.051766213 0.016595518 -0.0019477531 0.0033342391
000250 c1 aa 93 3d 61 ec 19 bd 39 ca 4c bc 77 93 04 bd
       0.07210303 -0.037578944 -0.0124993855 -0.032367196
000260 1b d4 66 3d dd a1 a4 bd 80 1a 01 3e 9e 1d 58 bd
       0.056354623 -0.080386855 0.12607765 -0.05276262
000270 37 24 35 3c f3 6c 38 bd 95 78 90 bd 3b 3c 8e bd
       0.011055998 -0.045025777 -0.07054249 -0.06945082
000280 93 ce 2c bd 0f 9e 3c bc 98 4d bc bb 52 e8 0f 3e
       -0.042189192 -0.0115122935 -0.0057465546 0.14053467
000290 f4 f1 e3 3d ed ff 52 3c ae e1 27 3d b2 b2 86 3d
       0.11130133 0.0128784 0.04098671 0.06577052
0002a0 4c 39 3d 3d 8d 98 31 bd 83 bf f1 3d 93 cb 6c bd
       0.04619722 -0.043358374 0.11804106 -0.05781133
0002b0 60 d4 62 3d bd f0 b6 bd 49 68 99 bd 11 d7 16 3d
       0.055378318 -0.08932636 -0.07490594 0.036826197
0002c0 6a 7c 94 bd 92 06 90 bd a8 9d 06 3c 59 44 b2 bb
       -0.072502926 -0.07032503 0.008216299 -0.0054402766
0002d0 83 28 78 bd cf 42 8d bb 1d 25 af 3d c7 91 81 bd
       -0.06058551 -0.0043109427 0.08552001 -0.06326633
0002e0 11 54 5e 3c ae ff 08 3e 1f 65 0d bc ef 60 89 bd
       0.013569848 0.13378784 -0.008630066 -0.06707942
0002f0 bd 2d 06 3e a7 dd 6e bb 56 6e 5a 3d 39 d0 3d bc
       0.13103385 -0.0036448033 0.05332788 -0.011585289
000300 16 42 ea bc b6 87 3e bd a3 91 96 3d db c8 c2 bd
       -0.028595965 -0.046516143 0.07351997 -0.095109664
000310 25 24 14 be d5 7b 29 bd 53 1d 8f bc 93 28 62 bd
       -0.14466913 -0.04137786 -0.017470038 -0.055214476
000320 bb aa ec bb 6f ee f9 3c 02 4f 6c 3d 78 53 69 3d
       -0.007222501 0.030509202 0.057692535 0.056964368
000330 07 f5 ca bb e4 67 d1 ba d2 01 86 3c 9b 5e 78 3c
       -0.0061937603 -0.0015976396 0.01635829 0.015159274
000340 79 e0 14 bd 86 28 07 3d cd 79 c4 bb 90 9b 19 3d
       -0.036346886 0.03299763 -0.005995965 0.03750187
000350 02 a5 dc 3c a2 90 28 bc 55 bd a1 bc 47 db be bc
       0.02693415 -0.010288389 -0.0197436 -0.023297919
000360 19 89 83 3d 27 03 c3 3b b9 4d 80 3b ec aa 48 bd
       0.06422634 0.0059513035 0.0039155153 -0.04899113
000370 36 f9 d2 bc 98 83 f7 3c 3d 09 a1 3b 21 79 0b 3d
       -0.025753599 0.030214116 0.0049144314 0.034051064
000380 91 77 c6 bc 3c 2d a2 bc 89 5a 95 3c 79 4f 67 3c
       -0.024226936 -0.01979696 0.018231647 0.014118069
000390 00 77 3e 3c 53 b4 66 bc 00 c0 6c 3d 09 4a 9e 3d
       0.0116250515 -0.014081079 0.057800293 0.07728965
0003a0 88 31 1c bd 93 8c 82 3c 5b 1e 76 3c 9b 80 5a 3c
       -0.038133174 0.015936172 0.015021886 0.013336326
0003b0 a7 57 8d 3d 80 44 68 3c 76 12 9b bc 20 c2 5a 3d
       0.06901484 0.014176488 -0.018929701 0.05340779
0003c0 96 17 84 bd 87 d2 2c 3c d0 04 37 3c 9e 94 68 bd
       -0.06449811 0.0105482405 0.011170581 -0.056782357
0003d0 69 a5 47 bd 40 c2 8c bd bf e1 11 bd 16 ef 91 3d
       -0.04874173 -0.06872988 -0.03561568 0.0712568
0003e0 49 7f 42 bc bd 8f 44 3d a7 68 cb 3c 31 09 26 ba
       -0.011871167 0.047988642 0.024830176 -0.0006333767
0003f0 26 08 a2 3c c3 db 5d 3d ac 66 99 bd b4 fd ff bb
       0.019779276 0.05416466 -0.07490286 -0.007812226

layer_1.bias f4 [64]
000000 d3 3c 8f 3d c7 1a ee 3c bd 66 9a 3c 2d 0e f1 3d
       0.06994023 0.029065503 0.018847818 0.11770282
000010 ac 35 c7 3d f4 b7 2f 3d f4 0d 12 3d 9b 15 b9 bd
       0.09727034 0.04290004 0.035657838 -0.09037324
000020 bd b5 3b bc 93 7f d8 3d 35 74 8a 3e 2f 44 da bd
       -0.011456904 0.10571208 0.27041784 -0.10657536
000030 88 00 8e bd 3e 6b 2b 3d da 2d 0c 3c ee 76 a6 3d
       -0.06933695 0.04185032 0.008555854 0.08128153
000040 11 c3 02 bd 53 54 c6 3d 38 d7 1e be 98 36 36 3e
       -0.03192431 0.09684052 -0.15511787 0.17794263
000050 87 09 89 be 45 4f 88 3b a8 7e 0a bd d0 90 4e 3c
       -0.2676508 0.0041598403 -0.033812195 0.012607768
000060 5d ea c8 bc b1 57 70 3c 62 f0 f6 3d ae 11 9b 3c
       -0.024525816 0.014669345 0.12057568 0.018929329
000070 95 b4 17 3e fb 37 68 ba 02 0a 08 3e df 2b 2b 3d
       0.1481498 -0.00088584394 0.13285068 0.041789886
000080 83 f7 82 3d e3 92 cc 3c 4f 6f 30 3e ca 8c fd 3d
       0.06394865 0.024972385 0.17229961 0.12380369
000090 d4 41 95 3d 2c 36 d8 bc 31 15 41 3e d8 58 df bb
       0.07287946 -0.026393019 0.1885574 -0.006816011
0000a0 28 19 5a be ea 5b 5c 3d e8 d7 7d 3d be 5b 83 bd
       -0.21298659 0.053798594 0.061973482 -0.06413983
0000b0 74 5d ed bd cd f6 c9 bc 9b aa 74 3e 03 df fd bd
       -0.115900904 -0.024653817 0.23893206 -0.12396052
0000c0 f1 e3 7e 3d 28 d0 f0 bd 4a 68 3b 3e 6d ad c0 bd
       0.0622291 -0.11758453 0.18301502 -0.09408078
0000d0 d4 96 05 3e fb 9e cf 3c 85 79 18 3d 38 25 05 3e
       0.13045818 0.025344362 0.037225265 0.13002479
0000e0 58 c8 30 be 5d 43 65 bd af 5c 1a be 1c 6c 55 be
       -0.17263925 -0.055972446 -0.15074418 -0.20842022
0000f0 3d 9d 8c be 9d 69 f7 bd 85 2b f6 bd 45 fb ff bc
       -0.27463713 -0.12080691 -0.120200194 -0.031247744

layer_2.weight f4 [32, 64]
000000 7f c7 19 3c 28 73 5c 3c e0 95 4a 3d 5b 36 f5 bd
       0.0093859425 0.01345519 0.04945934 -0.11973258
000010 0b 93 d6 3d 83 9b df bd 55 ac 38 bd a9 8a 19 bc
       0.10477265 -0.109183334 -0.045086224 -0.009371438
000020 be 6b 27 3d 9e c4 b1 bc 22 1e 2a 3c 7e e3 ec bc
       0.040874235 -0.0217002 0.010383161 -0.02891707
000030 8d 5e f0 3d 94 19 31 be 07 3c ee 3d 2a fe b7 3d
       0.11736784 -0.17294914 0.11632543 0.08984025
000040 75 45 03 bc d9 20 17 3d 7e 0a 02 3e 92 c6 2e 3d
       -0.008012165 0.03689656 0.12699315 0.04266984
000050 18 4a 09 be 19 d0 1e 3c ca 91 e7 bd a0 b9 30 3e
       -0.13407171 0.009693169 -0.11307104 0.1725831
000060 0c a2 60 3d 02 19 17 3d 4d ec c8 3d 51 28 7a 3d
       0.05484204 0.036889084 0.09810696 0.061073605
000070 28 94 b7 3c 47 49 e6 3b 47 5c 32 3d d3 ff a5 3d
       0.022409514 0.0070277783 0.043545034 0.08105435
000080 64 a6 83 bc 1f 01 bb bd 94 aa e4 3c 73 f9 87 3d
       -0.016070552 -0.09131073 0.02791337 0.066393755
000090 33 e5 e8 3b d9 23 4c bd 2d 83 b3 3d cd 6f ac bd
       0.007107401 -0.049838874 0.08765254 -0.08419762
0000a0 a3 79 9a 3b a5 f0 bb bc 17 cc a0 3c 93 35 ef bd
       0.0047142073 -0.022941897 0.019628568 -0.1168014
0000b0 d8 02 53 bd f4 2e 33 bd 19 61 ec 3d 6d dd 15 be
       -0.051516384 -0.04374595 0.115419574 -0.14635248
0000c0 be 68 a4 3c c7 af 75 bd 67 28 6b 3b 38 0c c0 3b
       0.020069476 -0.059982087 0.0035882236 0.0058608316
0000d0 64 4f 4a bd 25 2b c3 3d 59 e1 b7 3d 03 32 ca bd
       -0.04939212 0.095297135 0.089785285 -0.0987282
0000e0 d8 b1 09 bd 38 6b 10 be 5b 7a 7d bd 11 d8 44 3d
       -0.03361687 -0.141034 -0.061884265 0.04805762
0000f0 1c de ac 3d d8 81 d5 3d 68 85 c8 bc 63 a5 c0 bb
       0.084408015 0.10425156 -0.024477676 -0.0058790906
000100 34 26 1e bd ca b6 7c 3d b6 22 f2 3c 4d a4 d4 bd
       -0.038610652 0.06169776 0.029557567 -0.103829004
000110 b8 4b df bc ec c9 08 be 3e b8 ca bb d7 3a 9b bc
       -0.027257785 -0.13358277 -0.006186514 -0.018948955
000120 b4 c8 57 3d 3e 13 ce bd d9 fc ed bc ad ae 6a bd
       0.05268164 -0.10062264 -0.029051231 -0.05729549
000130 ef 1e 51 3d 18 12 e2 bd 9e 2b cc bd ec a5 cb 3d
       0.05105489 -0.11038607 -0.09969257 0.099437565
000140 28 a6 e1 bb 00 ae 7e 3c de c1 f5 3d 98 d7 a7 bc
       -0.0068862624 0.0155444145 0.11999868 -0.020488545
000150 7b 16 92 3c 92 3a af 3c 25 53 0f be a8 4d 14 3c
       0.017832985 0.021390233 -0.13996561 0.009051718
000160 af f7 8b 3d 0a 68 cd bd 2d 5a d2 3c 6f cd b5 bd
       0.06834351 -0.100296095 0.025677765 -0.08877074
000170 67 63 7b 3d 8d 30 be 3d a8 0b 14 3e b1 70 10 bd
       0.061374094 0.09286604 0.14457572 -0.03526372
000180 1a 99 9d bd 18 eb 83 3d 4d 4e 29 3d 76 87 fd bd
       -0.076952174 0.06441325 0.04133444 -0.12379353
000190 20 ca 72 3c ad f3 83 3d d5 b0 01 3e e2 3c 30 be
       0.014818698 0.06442962 0.12665112 -0.17210725
0001a0 e2 39 0f 3e 63 28 06 bd 14 66 77 bd 58 5b 30 bd
       0.13986924 -0.03275336 -0.060400084 -0.043055862
0001b0 79 7a 06 be b6 06 1c 3d 0b 8e a6 3d ab da 9f bd
       -0.13132657 0.038092338 0.08132561 -0.078053795
0001c0 25 6c 77 3d 26 d2 9c 3c 38 03 32 bd 2d 60 81 bc
       0.06040587 0.019143175 -0.0434601 -0.01579293
0001d0 5a 3d 99 3d a3 35 a4 3b 55 b3 88 bd 47 39 2e bd
       0.07482405 0.005011277 -0.0667483 -0.042535093
0001e0 78 de 79 bd ad e4 ae 3d c2 05 69 bd 76 56 4e 3d
       -0.06100318 0.0853971 -0.056890257 0.050375424
0001f0 a1 d7 00 bd ad c4 b7 bb 6d 0e 87 3d d3 1b 56 3d
       -0.03145564 -0.0056081624 0.065945484 0.05227263
000200 d1 4d 02 3a 32 28 55 bc 18 9b 7a 3d 25 9c 0b be
       0.0004970702 -0.013010072 0.061183065 -0.13633783
000210 b3 b9 ee 3b 45 17 d1 3d 82 67 ba 3d d6 41 f2 3c
       0.0072853207 0.102095164 0.09101774 0.029572409
000220 9c b3 c2 bc f7 ee 07 bd 74 62 07 3d 6c 4b ea bc
       -0.023767285 -0.03318688 0.033052877 -0.028600417
000230 ba 56 b2 3d 5a 8f 20 3d f7 2d 1c bd 34 6c 7f bd
       0.08707948 0.03919921 -0.038129773 -0.06235905
000240 73 0f a2 3d ff 05 01 3e 93 c7 9f 3d 08 f4 29 bd
       0.07913103 0.12599944 0.07801738 -0.041492492
000250 d1 db 89 bc f5 7b 4f 3c c6 a3 c9 3d 5a 3d ce 3c
       -0.01682845 0.012663831 0.098456904 0.02517574
000260 79 26 9c bc 74 9e 4c bc 1b 2a 9a 3c de 15 db bd
       -0.019061314 -0.01248895 0.018818906 -0.1069753
000270 b9 5d 3f bd 23 fe 45 3d b1 74 98 3d 55 2c a9 3b
       -0.04672024 0.048338067 0.07444132 0.0051627555
000280 e9 d4 b8 bd 9b 41 63 3d 4d 0a 87 3d d3 60 7c 3d
       -0.090249844 0.055482488 0.065937616 0.061615776
000290 a3 06 7b 3d 67 b8 07 bd a8 f3 28 3d ff 42 82 3d
       0.061285626 -0.033134844 0.041247994 0.06360435
0002a0 f6 30 48 bc e0 7e 0d bc 91 d6 cd 3d 96 b9 38 bc
       -0.012218704 -0.008636206 0.10050691 -0.011274716
0002b0 18 b0 6e bd 9d 9f be 3d 2e ca cb 3d d1 46 fe bd
       -0.058273405 0.093077876 0.09950672 -0.12415851
0002c0 cd 30 f9 3d 0d 5c d7 bd ec b5 5b 3d 1f 07 48 3d
       0.12167511 -0.10515604 0.05364029 0.048834916
0002d0 23 43 07 3e 9b d3 d9 3d 4c 56 48 3d f8 2d b4 bd
       0.13209204 0.10636064 0.048910424 -0.0879783
0002e0 18 7c b3 3d 28 3d ea bd bf 8e 21 bd 27 e9 41 bd
       0.087639034 -0.11437446 -0.039442774 -0.047341492
0002f0 7d ee 8a 3d 89 df d4 3d c4 fb ce 3c 9b 0c ef bd
       0.06783769 0.103941984 0.025266536 -0.11672326
000300 d9 38 a6 bd c8 24 33 be 52 d5 27 3d 9e 98 3f 3d
       -0.081163116 -0.174945 0.040974922 0.046776406
000310 c7 a8 2d 3e 65 78 cd bd d3 77 12 bd 0f e9 72 bd
       0.16958915 -0.10032729 -0.035758805 -0.059304293
000320 08 6e 0e be 8c 31 20 bc cd 1d 25 bd 48 5e 7b bc
       -0.13909161 -0.009777438 -0.040311623 -0.015342303
000330 e8 02 c4 3d 0e f4 4d 3d 61 e8 3d bd b3 bf ac 3c
       0.09570867 0.050281577 -0.046364192 0.021087503
000340 23 cd d9 3d 3f ff 81 bd 87 b5 66 3d b6 35 70 3d
       0.1063483 -0.063475125 0.05632546 0.058644973
000350 ba e0 1e 3d 28 81 19 3d 18 b3 d4 3b 03 dc 0a be
       0.038788535 0.03747669 0.006491076 -0.1356049
000360 78 fc 9d 3d 55 fb 05 be 98 58 13 3d 8f 0c 62 3c
       0.0771417 -0.13084157 0.03597316 0.0137969395
000370 c3 5b 0b bd 25 d8 1f 3d c5 e9 40 3d d4 31 d9 3c
       -0.034023058 0.03902449 0.04709794 0.026513018
000380 cc e5 7e bd 4a 31 fd bd be bc 57 bd a7 d5 b4 39
       -0.06223087 -0.12362917 -0.052670233 0.0003449146
000390 40 14 37 3d f1 e0 95 3c a3 d4 d6 3d 7b e7 f5 3b
       0.044697046 0.018295737 0.10489776 0.0075044013
0003a0 b4 34 a6 bd 54 a5 35 bd 83 62 32 3d 8a fd d7 bd
       -0.08115521 -0.044347122 0.04355098 -0.105464056
0003b0 e5 3e f1 3d b2 9e 8a 3d 5a 47 c0 3d 4c 00 43 3d
       0.11779574 0.0676855 0.09388609 0.047607705
0003c0 b6 ab 89 bd f3 11 02 be 04 a6 0e 3e f2 95 b0 3c
       -0.067222044 -0.1270216 0.13930517 0.021555874
0003d0 2c 9a a4 3c 76 ed 20 3e 07 27 2b bc 5d 35 63 3d
       0.020093046 0.15715584 -0.010446317 0.055470813
0003e0 25 30 0c 3d c6 9d a0 bd cc 99 7a be 3f 65 4e bc
       0.0342256 -0.07842593 -0.24472731 -0.012597381
0003f0 34 dc 11 bd c7 cd 28 3d b9 de 77 3d 6d 80 1c 3e
       -0.035610393 0.04121187 0.06051514 0.15283366

layer_2.bias f4 [32]
000000 38 39 d8 3e c0 31 75 3e 13 d4 b4 3d dd f0 78 3e
       0.42231154 0.2394476 0.088295124 0.24310632
000010 02 6a e4 3d a2 57 7a 3d 43 51 16 3e af c2 14 bd
       0.11153032 0.06111873 0.14679436 -0.036318477
000020 68 a3 05 bd b4 62 7e be 06 39 d4 ba 58 f9 38 bc
       -0.03262654 -0.2484234 -0.0016191311 -0.011289917
000030 e8 5f 11 3e 45 5f 9b 3c 8a 19 42 3e 48 0a f2 3c
       0.14196742 0.018966326 0.18955055 0.029545918
000040 7a 24 94 be 33 39 27 3e e8 2b e3 3d a7 e2 32 3e
       -0.2893408 0.16330414 0.11092359 0.17469274
000050 05 ef 44 3e b6 df f5 be 72 9e 8f 3d 93 d5 45 bc
       0.19231804 -0.4802224 0.07012643 -0.012074846
000060 80 b9 75 bd 54 c0 65 3d 87 91 7a bd 82 da 1f bd
       -0.05999136 0.05609162 -0.061173942 -0.039026745
000070 f6 a1 f9 bd 09 59 07 3e 05 da 9b bd d8 5e e0 bd
       -0.12189095 0.13217558 -0.07609943 -0.1095559

layer_3.weight f4 [1, 32]
000000 d6 10 12 bf 17 61 ac be a6 29 93 3e 31 b4 d3 3e
       -0.5705694 -0.33667824 0.28742713 0.41348413
000010 5b cc 27 3e b4 5a e0 3d 19 a0 c5 3e 68 b1 94 be
       0.16386549 0.109548 0.38598707 -0.290416
000020 fd bf 83 bd 03 d4 08 3f 32 b8 0c 3e 39 b9 90 be
       -0.06433103 0.53448504 0.1374214 -0.28266314
000030 a0 fa 62 be 0d 3e 84 be a8 9f 20 be a5 92 9e 3e
       -0.22165918 -0.2582859 -0.15685904 0.30971256
000040 3b ed 64 3f 7a 19 b2 bd c5 63 df 3e c2 01 56 be
       0.89424485 -0.086962655 0.43630806 -0.20899108
000050 15 3b d3 be 61 2c 85 3f d3 d2 c3 3e 56 d4 74 be
       -0.41256014 1.0404168 0.38246784 -0.23909125
000060 98 2e 7b be 29 61 1e 3f a2 c1 e3 3e 91 f8 dc 3e
       -0.24529493 0.61867005 0.44483668 0.4315839
000070 78 ed c5 3f b3 00 a6 3e 5d ea 90 3d 3d d1 73 bc
       1.5463095 0.32422408 0.07075951 -0.014881429
