checkpt/influence/0_2_fedl_global_500.pth (torch, 61495 bytes, 5 tensors)

layer_1.weight f4 [64, 197]
00000000: 6b05 34bd cac1 82bd 6693 25bd 40aa 0dbd
00000010: 38e5 bc3c c7fe 893d 5860 65bc b673 28bc
00000020: 7a6d 9fbc c6f3 553d cfea cfbc 0cc6 d0bd
00000030: ae8d 40bc 22b9 a43c 1744 fbbd 3e85 6d3c
00000040: 42ab c13d 6ee8 9bbd d5fe 5e3d c272 bfbc
00000050: 1784 0dbc 1ed1 7dbb abe6 abbd c63b 523c
00000060: 2e38 a73b 3687 383d 7e4d 30bc 117b 633d
00000070: 2e62 8a3d 296f 803d 78be 45bd 2cd2 f5bb
00000080: 344e 77bd 6907 143d 3d09 4ebc de83 18bd
00000090: 7701 343d 1d6d cd3c 1b46 9ebd 1ef4 0b3d
000000a0: 8233 aebd 32d0 513c 915c 0c3c ae59 8e3b
000000b0: 9999 c0bc 1bab 7cbd 9567 97bc 2cf2 003d
000000c0: 31fc 5d3d 6670 9cbc 3aee 3b3d 75e8 10bd
000000d0: 5b4f 24bd ea96 80bc 020f c13c 1aca 67bd
000000e0: 7543 1fbd 9b9b 263d 2242 8d3d a356 99bc
000000f0: 1674 1b3d 65f8 7c3c 03eb 753d f2df 923d
00000100: 57e7 8d3d f496 1a3c cec6 46bb e037 d33b
00000110: a54c 123d b27b 51bd 136b 1c3d 057a 38bd
00000120: 7d5e 0b3d 62e8 e6bc ddf1 353d 224d 7a3d
00000130: 3105 263d 4b77 26bd b898 1f3c cb4b 873d
00000140: c5b2 083c 95d0 dd3c c767 c0bd cb7d 813d
00000150: 8fb5 06bd 62ca 1d3c 8f38 8b3d de8a 45bc
00000160: 316a 21bd c222 6b3d ccf4 cebd d2ba 2cbd
00000170: 430b 463d b24f ad3d 6880 2ebc 52d6 fabc
00000180: e238 763c 530a 21bc 1730 09bd 6200 d53d
00000190: 02f0 6f3d d781 463d dec4 36bc 49d5 dd3d
000001a0: f15d 14bd f44d d4bc 26f3 44bd c9e1 5a3d
000001b0: 54d3 91bd 388b 3dbd 3822 dd3c 3317 013c
000001c0: 1edf 173d 2185 1bbd d1d6 373c f59a a3bd
000001d0: ef5c 7a3d 4eb4 73bd f7b7 cb3d 0ec4 023c
000001e0: 7a47 5dbd d62d a13d c555 1c3d cf28 693d
000001f0: 0f79 d6bb e78a 063d 34a8 74bc 442a 0cbd
00000200: 374b dabd a09e d53c 7557 5c3d 1a1d 37bd
00000210: 3dac 503c b676 84bc c67f 87bd 3e9f 6b3d
00000220: 4f22 d6bc b832 86bd 1d8e 633d a29a 883d
00000230: 5290 9c3d 8f33 673d 7151 dabc 6ffa 2ebc
00000240: baa7 c4bd ae30 90bd b162 5d3c 474f 87bd
00000250: 353b b8bb 5752 8f3d 8ef7 bd3d 8e47 c9bc
00000260: aaac 313c ef0d 3b3c 1c54 0e3b a1bf b6bd
00000270: 226b a8bd d0fc af3d 43ab 4a3d c283 663d
00000280: c907 7e3a 1e01 5b3d e8a0 853d 5dbc 403c
00000290: 06f3 63bc fe56 8a3d c803 ef3c c043 ce3c
000002a0: 66e6 913d 6f29 d2bd 3df5 c7bc 1537 5bbd
000002b0: 1884 87bc bb5b eabc 2230 b73c c2dc 123d
000002c0: 35d1 09bd 9792 723d 08d5 0b3c 7d78 a5bd
000002d0: 107f b63d 7433 7f3d bc09 8d3c 381d 133c
000002e0: 4cc1 d6bc 154c 7a3d 7ac8 10bc 25ce 623d
000002f0: 0cb6 933b 4c16 7ebd 665e de3b 7122 493c
00000300: 6bed ccbc 6ecf 11bc 435b f5bc 2895 313d
00000310: ebbf b1bc c2f6 d23c 22eb 273c 40d7 edbc
00000320: 288b 56bd 8c55 1abd 1058 00bc 4502 093e
00000330: 4db7 3e3b 3810 a63d cb81 013d 0e02 22bc
00000340: 5585 c5bd eee2 66bd b2ad 7c3d 4c90 e0bc
00000350: 3ecb 4b3d 4f35 c33a f411 14bd f410 4d3b
00000360: e71c 02bd e62f c3bd da49 7d3d 920a 493d
00000370: 891d 723c ce15 a43d 7e10 e13c e576 78bb
00000380: 594b 86bd 4eb4 053d 37b9 c4bc 5e97 26bd
00000390: 8393 773d 442c b3bc f1a0 693d cfe9 9dbd
000003a0: d62c 92bd ba78 79bd 8fd8 e33d c623 a9bd
000003b0: 0b4b 353d 98b1 07bd 4e96 18bd 66d5 8cbd
000003c0: abd5 b23d d83f 8fbd 1bad b5bc e816 a3bd
000003d0: fef0 d63d e8a5 a63b 6e76 dd3b af3a 4b3d
000003e0: a89a c0bc a0d0 6f3d d282 24bd 325e b1bd
000003f0: 5d63 abbc 20c2 bc3a 277f aa3c 6896 763d
-0.04395048 -0.063846186 -0.040423773 -0.03458619 0.023058519 0.06738048 -0.014000021 -0.010281494
-0.019461382 0.052234434 -0.02538052 -0.101940244 -0.011752529 0.02010781 -0.122688465 0.014497099
0.09456493 -0.07612692 0.054442246 -0.02337015 -0.00863745 -0.003872938 -0.08393606 0.012831634
0.0051031327 0.045050822 -0.010760663 0.055537287 0.067570075 0.06271202 -0.04827735 -0.007501861
-0.060377315 0.03613988 -0.012575445 -0.037235133 0.04394671 0.025076443 -0.07728215 0.034168355
-0.08505918 0.012805985 0.008566991 0.0043441867 -0.023510741 -0.061686616 -0.018482009 0.031480953
0.054195587 -0.019096565 0.045881487 -0.03537794 -0.04011474 -0.015696961 0.023566727 -0.056589223
-0.03888269 0.04067574 0.068973795 -0.01871807 0.037952505 0.015440081 0.060038578 0.071716204
0.0692889 0.009435404 -0.00303309 0.00644587 0.035717625 -0.051143356 0.03818805 -0.045038242
0.034025658 -0.02818698 0.044420112 0.061108716 0.040532295 -0.04064111 0.009741001 0.06606253
0.008343403 0.027076999 -0.09394794 0.06322821 -0.03288799 0.009630771 0.06797897 -0.012057034
-0.039407913 0.057406195 -0.10105285 -0.042170353 0.048350584 0.08462466 -0.010650732 -0.030619774
0.01502821 -0.009829122 -0.033493128 0.10400464 0.0585785 0.04846367 -0.011155335 0.108316965
-0.036222402 -0.025916077 -0.048083447 0.05343798 -0.07120386 -0.046275347 0.026993856 0.007879066
0.037078016 -0.03796876 0.01122065 -0.0798854 0.061123785 -0.059498124 0.09947198 0.007981313
-0.054023243 0.07870071 0.038167734 0.056923684 -0.006545193 0.03284731 -0.014932681 -0.034219995
-0.10658877 0.026076615 0.053794343 -0.044705488 0.012736377 -0.016169887 -0.06616168 0.057524912
-0.026139406 -0.065526426 0.05555545 0.06670119 0.076447144 0.056445654 -0.026650162 -0.010679825
-0.09602304 -0.07040535 0.013512299 -0.06606918 -0.0056222924 0.06998127 0.09275733 -0.024570253
0.010844389 0.011416896 0.0021717614 -0.08923269 -0.08223559 0.08593142 0.049479734 0.056277998
0.0009690491 0.053467862 0.06524831 0.011763659 -0.013912922 0.06754874 0.029176608 0.02517879
0.07124023 -0.10261809 -0.02440893 -0.053519327 -0.01654248 -0.028608194 0.022361819 0.035855062
-0.03364678 0.05922183 0.008534677 -0.08079622 0.08910954 0.06230493 0.017216556 0.008979134
-0.026215218 0.061107714 -0.00883686 0.055372376 0.0045077857 -0.062032983 0.0067861555 0.012276278
-0.025015553 -0.008899553 -0.029950744 0.043355137 -0.021697959 0.025752429 0.010248931 -0.029033303
-0.052378803 -0.03767924 -0.007833496 0.13379772 0.0029100955 0.08108562 0.03161792 -0.009888185
-0.09644572 -0.05636876 0.061689086 -0.027412556 0.049754374 0.0014893207 -0.036149934 0.0031290622
-0.031765845 -0.0953062 0.06183801 0.049082346 0.01477755 0.080119714 0.027473684 -0.0037912664
-0.0655734 0.032642655 -0.024014099 -0.0406717 0.060443413 -0.021871693 0.05703825 -0.07710611
-0.07137458 -0.06090615 0.1112529 -0.08258776 0.04426102 -0.03312835 -0.037252717 -0.0687664
0.0873216 -0.06994599 -0.02217727 -0.079633534 0.10495184 0.0050856955 0.0067585027 0.049616512
-0.023511246 0.05854857 -0.040163822 -0.086605445 -0.020921404 0.0014401115 0.020812584 0.060202032

layer_1.bias f4 [64]
00000000: a61d f73d 9465 703e 46de 6dbd 60ad 313d
00000010: 7263 e8bd 3a77 87bd bdb1 e3bd a63b a6bc
00000020: e3da 87bc f804 123e e071 653d a068 73be
00000030: de22 32bd ae3d 183e c9b7 203c 7096 8c3c
00000040: 7897 833d eea9 0abe df59 17bb 29cf b5bc
00000050: c5ef 993d 4f06 1ebe 38c1 0c3e 4b97 023e
00000060: 6525 99bc 0f63 dcbd 86b0 07bd 8cf8 8dbe
00000070: 92da ac3d 6b6b 033e f1a0 1a3c 720d ff3c
00000080: 329b 013e cc4e 7fbc 3d67 1b3e 54dd 1c3e
00000090: 1e4b 5d3e feb2 053e 6988 233c 6fc1 2fbd
000000a0: 6d11 26bf c5ef 0cbe f052 82bd a3f1 273e
000000b0: 8cac c1bd 315a 603e 1e8b e83d 0848 80bd
000000c0: c356 35bd ba3b b33b c6b3 bf3d 6304 843e
000000d0: 43b8 753d e869 173e c5aa 9e3d ac38 983d
000000e0: e562 9bbe 69f8 efbe 5134 9cbd ce47 64bd
000000f0: baa6 cd3d f85a 9abd 77cd 7bbd 15e7 083d
0.12066202 0.23476249 -0.058073305 0.043378234 -0.11347093 -0.066145375 -0.11117885 -0.020292114
-0.016583866 0.14259708 0.056016803 -0.2377038 -0.043490283 0.14867279 0.009809443 0.017161578
0.06425375 -0.13541386 -0.0023094339 -0.022193508 0.075164355 -0.15432094 0.13745582 0.12753026
-0.018694589 -0.107610814 -0.03312733 -0.2772869 0.084401265 0.12833945 0.0094377855 0.03113434
0.12656859 -0.0155827515 0.15176101 0.15318805 0.21610686 0.13056561 0.009981253 -0.042909082
-0.6487034 -0.1376334 -0.06363475 0.16400771 -0.09456739 0.21909405 0.113546595 -0.06263739
-0.044272196 0.0054697664 0.09360461 0.25784597 0.05999018 0.14786494 0.077474155 0.07432684
-0.30348888 -0.4686921 -0.07627166 -0.05573254 0.10041566 -0.07536882 -0.061475243 0.033423502

layer_2.weight f4 [32, 64]
00000000: e421 07bd 94ea e8bd d52e d03d b7e8 71bd
00000010: 0e7e 99bd b870 7cbb eea3 d9bd daad 383c
00000020: aedf 32bd 9578 e7bd 779a 4abd 26c9 903d
00000030: 7e44 0fbc b489 993d fe34 243b cb14 613c
00000040: f590 30bd 9b3f 473b 685b 6cbd 1ea9 c33d
00000050: b98f c2bd ef3b be3d 093a 813d 065c af3d
00000060: 0164 b53d 8bab ae3d 4066 dabd 5114 5fbd
00000070: 0364 9a3c 0619 77bd f596 9bbd f186 cab9
00000080: 268b 183d dddc 36bc 0688 04be 2f67 e83c
00000090: 95be 5f3c 86eb 543d 696d 543d 15b3 7d3c
000000a0: 97dc ad3d d8bb 823c ee66 c73c 6e42 6b3a
000000b0: e25b 77bd 0321 b13d 551a ca3c 7dd1 dfbd
000000c0: 5fa4 bd3d 88cf 0bbe 16a8 243e 72c5 8ebd
000000d0: 0989 adbd 97bd be3c 5b6d 7dbd 2597 b8bd
000000e0: fb25 bb3d f77b 4ebd d478 9bbc ab75 7c3d
000000f0: 45d3 84bd 4d20 0fbe a22d cabd c35d 74bc
00000100: cbaa 0abb 8887 a73d 957e 513d 1d13 c8bd
00000110: 9e53 cfbd 2cf8 b5bb a621 46bd da61 c83c
00000120: c7ba 1cbd 8c1c e4bd f009 a1bd 911a 913a
00000130: d232 26bc 0b0f 95bd 1b1f a2bd 2898 443d
00000140: 68f4 c5bd a9be c3bd 6531 b23d a281 893d
00000150: 14c6 bb3c 1b44 1e3c a49c 8c3d 5a40 7cbd
00000160: 4634 42bd 7fc6 973b dd55 023c 83d1 db3c
00000170: c554 81bd 9573 c3bd 1183 3ebd baa4 643d
00000180: 1e10 00bc b85f b6bd f5e2 90bd bfe3 143d
00000190: 3a75 c63d ce04 a6bd 7db6 27bd 62ce 7e3d
000001a0: fa71 8c3b a504 debd 6798 3dbd 35b3 e8bd
000001b0: 9ebb 6a3d 0b48 98bd 0636 01be 3afe 44bd
000001c0: 7668 a13d 2fb8 9fbd 1853 a33d f62a bb3b
000001d0: a392 153d 18ba cebd 3dde dfbd 94fa 06bd
000001e0: ce92 b33d 5cb2 b6bd 4f12 83bd 1bc6 f2bd
000001f0: fe4e 803d b24b e6bd 5b49 c4bd a932 abbb
00000200: ee9e 963c 2ba7 d83b 780e 543d 1179 8a3d
00000210: ac5d 3ebc 9236 acbd ef0b 093e 2ea2 043d
00000220: e070 0cbe b5b6 0a3c abe8 0a3d 625e abbd
00000230: af6c b4bc 3e17 623d 43fe 7cbd b440 1dbc
00000240: 2ff5 ab3d 69d4 813c 1d51 e2bd 9897 323d
00000250: 94b7 35be 7511 12be 52dc 7a3c a5c9 85bd
00000260: 5437 99bd f8e5 97bc fddd e53d 59a3 ac3c
00000270: 6e36 573d b4ed 30bd 609e 0e3d f581 9c3b
00000280: de46 e63d 0fef 593c 51d5 d33c 3206 933d
00000290: af6b c1bd 3d65 f83c 124a e2bd 2238 313c
000002a0: abf1 ea3d 6b71 57bd b836 133e 3784 363d
000002b0: 898d b63c 20a4 d5bd 8e2f c03d 0e4d 49be
000002c0: 9e9d c33d b93c 93bd a582 593e 3ab3 8a3d
000002d0: e954 b53d de8a 99bd 354f b2bd 26cd 693d
000002e0: 0b90 3cbc 6c16 2f3e f7fb 813c b11e 3a3d
000002f0: a8f0 04bd fe3b 943d ccd6 8d3c 237f 26bd
00000300: 5ef8 ab3d 390f 203d 68bf 653c 7d3e 983d
00000310: d1e2 603d cb24 50bc d216 c7bd f55c 663d
00000320: b548 0b3d 5025 90bd 44fe 9abb f6a8 8abd
00000330: 8b31 0abe be3e 6d3c 12b0 87bd 4e8d 55bd
00000340: 4f10 103d 7a3f c1bd 8e6e 6f3d 6655 b3bc
00000350: ccfa c6bc b222 c0bd 3b8a 88bb 6b10 f03d
00000360: 741e a73d 0b4c f2bc 2898 dbbd 8b48 e5bd
00000370: db14 eabd e66b b3bc 2223 d13d f5d0 13be
00000380: 46aa a13d 1560 d83b cea1 933c f40f e63d
00000390: 0c13 ac3d 099a d73d e9a7 82bd 2c60 6bbd
000003a0: b698 1bbc 6d2e 9d3d 3a3f 243a dee3 993d
000003b0: e0c1 f63c 10a4 a83c f6eb 97bb dae5 be3d
000003c0: 9bee e0bd 1bb4 3dbd 5e07 c1bd 175e 023e
000003d0: 180e b03b e93b 163e acdf 983b 52eb 133c
000003e0: 9883 da3d bb1b 03be 9e94 86bd 8b54 973d
000003f0: 8f44 8dbd 5838 8b3d 89f1 72bc 1945 abbd
-0.032991305 -0.11372867 0.101651825 -0.059059825 -0.07494746 -0.0038519334 -0.1062697 0.011271918
-0.04367035 -0.11302296 -0.049463715 0.07069616 -0.008744357 0.07496968 0.0025056 0.013737868
-0.04310699 0.0030402902 -0.05770436 0.09553741 -0.09500069 0.09288775 0.063098975 0.08562474
0.08856965 0.08528813 -0.10664034 -0.054462735 0.018846517 -0.0603266 -0.07597152 -0.00038628982
0.037242077 -0.011161056 -0.12942514 0.028369514 0.013656278 0.051982425 0.051862154 0.015484591
0.0848934 0.015958712 0.024341073 0.00089744374 -0.06039036 0.086488746 0.02467076 -0.109286286
0.09259867 -0.13653386 0.16079745 -0.069712535 -0.08473403 0.023283763 -0.061871868 -0.090132035
0.091381036 -0.05041119 -0.018978514 0.061635654 -0.06485609 -0.13977166 -0.09871985 -0.014914933
-0.002115893 0.081801474 0.05114611 -0.097692706 -0.101233706 -0.005553266 -0.048371933 0.024460722
-0.038264062 -0.111382574 -0.078632236 0.001107054 -0.010143952 -0.0727826 -0.07916089 0.04799667
-0.096657574 -0.0955785 0.087008275 0.067141786 0.0229216 0.009659792 0.06865814 -0.061584808
-0.047413133 0.004631817 0.007955042 0.026833301 -0.06314997 -0.0954353 -0.046511713 0.055821158
-0.007816343 -0.08904976 -0.070745386 0.036350008 0.09690328 -0.08106385 -0.04094552 0.06220854
0.004286048 -0.108407296 -0.04628792 -0.11362306 0.057307832 -0.07435616 -0.12618265 -0.04809401
0.078812525 -0.07798802 0.07974833 0.0057119085 0.036516797 -0.10094088 -0.109310605 -0.032953814
0.08768235 -0.08920738 -0.063999765 -0.11854192 0.062650666 -0.112449065 -0.09584304 -0.005224545
0.01838633 0.006611725 0.05177161 0.06761373 -0.011619013 -0.08408846 0.13383459 0.03238123
-0.13714933 0.008466412 0.033913296 -0.083676115 -0.02202448 0.055197947 -0.06176592 -0.009597946
0.083963744 0.015848355 -0.110506274 0.043601602 -0.17745811 -0.14264472 0.0153113175 -0.06532601
-0.07481256 -0.018542275 0.112239815 0.021073984 0.052542143 -0.04319544 0.034819007 0.0047762343
0.112439856 0.013301625 0.025858553 0.07178916 -0.09444367 0.030321712 -0.11049284 0.010816606
0.11471876 -0.0525984 0.14376342 0.044559684 0.022284286 -0.10431695 0.0938407 -0.196583
0.095515475 -0.07189316 0.21241243 0.06772466 0.08854086 -0.0749719 -0.08706514 0.05708041
-0.011508952 0.17098397 0.015867217 0.045439426 -0.03245607 0.07238005 0.017314337 -0.04064859
0.08396982 0.039077017 0.014022686 0.07433794 0.05490381 -0.012704085 -0.097211495 0.056240994
0.034004886 -0.07038367 -0.004730018 -0.06770508 -0.13495462 0.014480291 -0.066253796 -0.05213671
0.035171803 -0.09435935 0.058455043 -0.021891307 -0.024289511 -0.093816176 -0.004166869 0.117218815
0.08160105 -0.029577276 -0.10722381 -0.11195477 -0.11429759 -0.021902036 0.10211779 -0.1443518
0.07893805 0.0066032507 0.01802149 0.112335116 0.084020704 0.10527427 -0.063796826 -0.057464764
-0.009496858 0.07674871 0.0006265525 0.07514165 0.030121744 0.020586044 -0.004636283 0.093211845
-0.109830104 -0.04631434 -0.09425233 0.12731205 0.005372774 0.14671291 0.0046653356 0.009028273
0.10669631 -0.12803547 -0.06571315 0.07389172 -0.06897842 0.06797856 -0.014828094 -0.08362789

layer_2.bias f4 [32]
00000000: bdf5 25bd b096 903d 1746 003d 2e60 a13e
00000010: 9a6f 03bd 4b6e cd3b 0314 59be 38c0 a53a
00000020: dd7b e0bc 3a46 b3bd af4f a93d 552b 373e
00000030: 7d1f ddbd b3bf c03d a67e 283e cbc6 343e
00000040: 4314 b5be 1167 f1bd 346a 6bbd 85e5 d53e
00000050: 033b 9c3d 93e6 9cbe fa4e adbd 5bee 1a3e
00000060: 5b62 b8bc 646c 9b3d 91d5 febd d457 6d3c
00000070: 2f3a 11be 2750 9ebd 3e7e 3dbd 374b ca3c
-0.040517557 0.07059991 0.031316843 0.31518692 -0.032088853 0.0062692515 -0.2119904 0.0012645787
-0.027402813 -0.08753629 0.082671516 0.17887624 -0.107970215 0.09411564 0.16454563 0.17653958
-0.3536702 -0.117872365 -0.05747433 0.41776672 0.07628443 -0.30644664 -0.08462329 0.15129988
-0.022507837 0.07589033 -0.12443078 0.014486272 -0.14182352 -0.077301316 -0.046262972 0.024694068

layer_3.weight f4 [1, 32]
00000000: 8b06 50be 1e72 813d b78a cdbe c6b1 f1be
00000010: 827c 973c 8cd9 a8be 8e94 a4be 67ac 2e3f
00000020: ece5 043f 5faf b73e da97 0cbe e58a f43e
00000030: bd1a 19be 6920 81be 94ff f9bc 5448 babe
00000040: bb7c 963f bede 25be 5809 4ebd 4090 f7be
00000050: d717 093f 6ff6 323f debe 44be f1ba 88be
00000060: c860 cc3f e9c7 02be 3401 893e bedd 5ebe
00000070: fe5f c4bd 33a7 943e 0317 6ebd d800 323f
-0.20314996 0.06320594 -0.40144894 -0.47205943 0.018491987 -0.32978475 -0.32144588 0.68231815
0.5191333 0.35875985 -0.13729802 0.47762218 -0.14951606 -0.2522004 -0.030517377 -0.36383307
1.1756815 -0.1619825 -0.05030188 -0.48352242 0.53552 0.6990728 -0.19213435 -0.26705125
1.5967035 -0.12771572 0.2675873 -0.21764275 -0.095886216 0.29033813 -0.058127414 0.6953254
