checkpt/influence/0_3_fedl_global_500.pth (torch, 61495 bytes, 5 tensors)

layer_1.weight f4 [64, 197]
000000 b7 fa 8c 3d c1 24 59 bd 04 aa 1c 3d 3a a9 ff bb
       0.068837576 -0.053013567 0.038248077 -0.007802156
000010 9e 0d 85 3d bf bf 33 3d 93 6f a8 bc c2 17 18 bc
       0.06496738 0.043884035 -0.020561015 -0.009283008
000020 dd 68 17 bd ab d4 63 3d 4e f3 7e bd 4e bc be 3c
       -0.03696524 0.055622738 -0.062243752 0.02328315
000030 eb 9f 48 3c c0 f4 1c 3d 78 df 80 bb 81 d4 3d bd
       0.012245159 0.03831935 -0.0039328896 -0.046345238
000040 94 0a 06 bd 76 c6 1c bd 71 12 4c 3d d1 dd 7e 3c
       -0.03272493 -0.038275205 0.049822275 0.015555815
000050 38 46 6f 3d b6 dd 27 bc 00 e4 67 3b a6 07 ef 3c
       0.058416575 -0.010245731 0.0035383701 0.029178452
000060 5f 94 c1 3c 53 f2 25 3d 12 c0 8d 3c c1 3d 13 bd
       0.02363032 0.0405143 0.0173035 -0.035947565
000070 0d ee dc bc 59 e0 45 bc 95 26 64 bc 29 7b 1b 3c
       -0.02696898 -0.012077414 -0.013925214 0.009489813
000080 96 2a 8f bc b1 cb 88 bc 05 c2 12 bc c3 aa af 3c
       -0.017476361 -0.01669869 -0.008957391 0.02144373
000090 40 15 d5 bb ca c3 ec bc 7a 1e 2a 3d 11 0f ab 3c
       -0.0065027773 -0.028901953 0.04153297 0.020881208
0000a0 23 26 3a 3c a6 2e 0c bd c7 82 03 3d 2d 79 1c 3d
       0.011361632 -0.034224175 0.03210714 0.0382015
0000b0 0f 93 28 bc 43 be 51 bd ad 3a 79 bd 81 89 4f bd
       -0.010288968 -0.05120684 -0.060846973 -0.050668243
0000c0 63 1a 87 bd 61 51 35 3d a4 99 6c 3b ad 72 30 bd
       -0.0659683 0.044267062 0.003610232 -0.043078113
0000d0 2b 2f 5d 3d ab c5 2c bd 9d f7 c0 3d 24 ca 77 bd
       0.05400006 -0.0421807 0.094222285 -0.06049551
0000e0 a4 90 29 bd 55 1d a3 3d b3 60 3a bd 58 b6 0e bd
       -0.041397706 0.07964579 -0.045502376 -0.034841865
0000f0 8b 20 87 bc 6e 59 30 3d 6e b4 85 bc 2f ce fe 3c
       -0.01649501 0.043054037 -0.016321387 0.031104175
000100 70 d9 87 3c 27 ed 0d 3d 56 94 7e ba 87 e8 03 3d
       0.016583174 0.034649994 -0.0009711435 0.032204177
000110 48 64 54 3d 13 93 30 3d 84 d1 0c ba ef c8 84 bd
       0.05185345 0.04310901 -0.00053717964 -0.064836375
000120 33 6c 98 3c 1f 6d 2a bd f6 89 b2 3c 5f 9a df 3c
       0.01860628 -0.041607972 0.0217943 0.02729529
000130 21 8b 82 3d 61 3b 2f 3b 16 3e ea 3b 5f 31 b4 bc
       0.06374193 0.0026738273 0.0071485145 -0.021996198
000140 d8 85 8c 3d 26 7c 87 3c 00 ed be 3c 07 80 90 bd
       0.06861466 0.01653869 0.02330637 -0.07055669
000150 91 b9 e5 bc 7e 4c 02 3c 71 3d 4f bd 79 28 d8 bc
       -0.028042587 0.0079528075 -0.050595704 -0.026386486
000160 40 a7 57 3c 47 06 23 3d 60 d6 84 3c 3a a7 8e bd
       0.013162434 0.03980091 0.016215503 -0.0696549
000170 cd c1 86 3c af c1 37 3d 3f 5f 6e bd 36 11 3e bb
       0.016449833 0.044862445 -0.058196303 -0.0029001958
000180 8f 6a f0 bc 22 e7 9a bd 4e e0 c8 bc da d3 19 bd
       -0.029347686 -0.07563616 -0.02452102 -0.037555553
000190 6f 47 cb 3c 53 5c 7d 3b bf f1 e1 bc 32 ce 40 3a
       0.024814336 0.0038659766 -0.027581094 0.0007354944
0001a0 d1 35 7c 3d cd 36 db bc 28 f4 48 bd a7 07 bb 3c
       0.06157476 -0.02675953 -0.04906097 0.022830797
0001b0 11 37 90 3d b5 a0 ba 3b 58 16 64 3c ad 48 a4 3c
       0.07041753 0.0056954273 0.013921343 0.020054186
0001c0 6f 9e 37 bd 11 21 ad 3d 26 83 11 3b 3d 4b a1 3b
       -0.04482883 0.084535725 0.0022203415 0.004922299
0001d0 31 7f 54 bd 58 cc 3b 3d cf b4 35 bd 0b f5 13 bb
       -0.05187911 0.045849174 -0.044361886 -0.0022576477
0001e0 98 6f 21 bd 8f 3d c9 bd 20 85 7d 3d 27 eb 84 bd
       -0.039413065 -0.098261945 0.061894536 -0.06490164
0001f0 9d db 86 3d fc 07 df bb a1 13 a9 3c 48 b9 be bc
       0.06584857 -0.0068063717 0.020639243 -0.023281708
000200 88 54 7b bb d9 d7 06 3d ed 09 3b 3d b6 6a 17 3d
       -0.0038349945 0.032920692 0.045663763 0.036967
000210 fc 96 e0 ba fd 45 35 3d d6 34 f7 3c d3 66 d7 3c
       -0.0017134841 0.0442562 0.030176561 0.026294148
000220 6d 17 a2 3d b9 1c 28 3d 9c 3b f9 bb 8b 07 f3 bc
       0.07914624 0.041043017 -0.007605983 -0.029666683
000230 36 14 71 3d 11 30 7d bd db 9b 27 bd 3f bd 11 3b
       0.058857165 -0.061813418 -0.04092012 0.0022238044
000240 92 03 a8 3d c6 69 68 bd f7 5a 82 3d a1 33 26 bd
       0.08203806 -0.0567415 0.063650064 -0.04057658
000250 6d 67 6e 3b ab a0 20 3d e5 33 9c bc e0 ac f6 3c
       0.0036377565 0.039215725 -0.019067714 0.03011173
000260 58 2d a5 bb 8f 85 9f bc fd 68 9a bb b1 69 14 bd
       -0.005040806 -0.019472865 -0.0047122226 -0.036233608
000270 ba 48 7c bd 70 03 10 3d 38 f2 b8 bc 67 d7 5f bc
       -0.061592795 0.03515953 -0.022576436 -0.013662196
000280 e8 dc 88 3d 67 af 9c bd ce 3c 56 bc 2f 33 29 3d
       0.066827595 -0.07650643 -0.01307602 0.041308578
000290 40 8d c2 bb 93 c6 5b 3c 03 1e e7 bc 04 35 6a 3d
       -0.0059372485 0.013414043 -0.028212553 0.057179466
0002a0 4b b8 c6 3b 14 9d 15 bd 08 08 cc bc c8 d0 40 3d
       0.00606445 -0.036526754 -0.024906173 0.04707411
0002b0 9c 0d 2e 3d bf e1 f2 bc 64 1a 7a 3a 6f a1 65 3c
       0.042493448 -0.02964866 0.00095406757 0.01401554
0002c0 81 6a 9a 3d e6 ec a9 bc 00 61 59 3d 40 3a fa 3c
       0.07539845 -0.020742845 0.053071022 0.030545354
0002d0 40 28 8b 3d 23 1c 32 bc 26 c5 3d bd a8 e2 0c bc
       0.067947865 -0.010870966 -0.046330594 -0.008598961
0002e0 07 85 cf 3c ae 7b 3e bd f6 90 a8 3d 61 ca cc bc
       0.025331987 -0.04650467 0.08230774 -0.024998846
0002f0 2e 13 62 3c 80 91 58 3d 0d a4 a3 3c 29 d1 0b 3d
       0.013798518 0.052873135 0.019975686 0.034135018
000300 bc 6a 2d 3c b8 7f 46 3c ef c1 a0 3c 43 0b ff 3c
       0.0105845295 0.012115411 0.019623725 0.0311333
000310 0b 1c 46 3d 21 14 c7 3c 89 7b a9 3c 03 8e 98 bc
       0.048366588 0.02430159 0.020688789 -0.018622404
000320 e5 84 00 bd 88 05 ac bc 21 04 7b 3c df 61 ac 3a
       -0.031376738 -0.020998731 0.015320809 0.0013151726
000330 c6 25 8b 3c fa 02 95 3c cf 8a 19 3d 55 59 a1 3d
       0.016985785 0.018189896 0.037485894 0.07878367
000340 32 e2 c6 3d bf e6 85 bc 13 27 45 3d 66 27 18 3d
       0.09711112 -0.01634538 0.048132967 0.03714695
000350 7a c9 b8 3c e6 21 28 bd cd b7 4d 3d c1 d1 b4 bc
       0.022557009 -0.041047953 0.050224114 -0.022072675
000360 af 42 4c 3d 04 b1 bc 3b 75 c0 e7 bb 51 85 7b bc
       0.049868282 0.0057584066 -0.007072503 -0.015351609
000370 4a cd a6 3b 7a e1 a3 bc 76 5f 9c bd 2e 21 4d bd
       0.0050903903 -0.020004977 -0.07635395 -0.05008047
000380 90 d8 0c bc 9d 81 63 bd ba 8d f6 bb f2 5a ea 3c
       -0.008596554 -0.05554353 -0.0075242193 0.02860782
000390 eb 0e e7 3c b9 3b 18 3d b8 38 4d 3b bf 8b 98 3d
       0.028205356 0.03716633 0.0031314325 0.074485295
0003a0 1a 06 39 bd 96 ac 5c bc 73 05 a8 3d 7f 4c c2 3c
       -0.045171835 -0.013468882 0.08204164 0.023718117
0003b0 c1 79 7f 3d f1 f0 41 bd 7c cd bb bb ca fe ff 3b
       0.062371973 -0.04734892 -0.0057312828 0.0078123556
0003c0 76 eb dd bc 9a a2 18 bc e7 8b 36 3d a5 5c 13 3d
       -0.027089816 -0.009316111 0.044567015 0.035977025
0003d0 10 78 24 3d 23 16 20 3d 66 fa 1a 3d 5e 20 25 bc
       0.040153563 0.03908361 0.037836455 -0.010078518
0003e0 90 2e 05 bc 06 8d 25 3d 60 1e 35 bd b2 99 39 3d
       -0.008128777 0.040417694 -0.04421842 0.04531259
0003f0 36 d8 24 3d 23 75 c9 3d fd b7 51 3d 8a cd 0c 3d
       0.040245257 0.09836795 0.051200856 0.034375705

layer_1.bias f4 [64]
000000 4f 22 69 bb e7 f8 83 3c 1a 5c d9 3d 91 d7 44 bd
       -0.0035573428 0.016109897 0.1061327 -0.048057143
000010 e6 2f 74 3d a8 79 29 3c 2e 1e de 3d e7 d5 a5 bc
       0.059615992 0.0103439465 0.108456 -0.020243598
000020 6a 22 87 bd f9 87 f2 3c ea 46 bb 3c 27 c5 59 bd
       -0.06598361 0.029605852 0.022860963 -0.053166535
000030 01 20 85 3d 13 dd 28 bd 53 61 34 3d 27 d2 fd 3d
       0.06500245 -0.041226458 0.044038128 0.12393599
000040 0b cb c6 3d 31 f0 02 3e 5d fc d0 3c d1 28 49 bd
       0.09706696 0.12786938 0.025510961 -0.04911119
000050 23 d6 d1 3d 09 80 82 3d 4e da 3b 3e 4a bc 6c 3d
       0.102459215 0.06372077 0.18344995 0.057796754
000060 0e 5b 13 3d 0b 3b c4 3d 76 ab 9f 3c 7f 0b 8f 3d
       0.03597551 0.09581574 0.019490939 0.069846146
000070 c0 64 60 bc f6 86 4a 3e 80 21 3b bd da 67 95 3d
       -0.013695896 0.19778046 -0.045686245 0.07295199
000080 54 95 8d 3d e7 53 3d 3b 15 84 13 bd bf c6 8e bd
       0.06913248 0.002888912 -0.036014635 -0.069715016
000090 ff 37 f1 bc 98 eb 98 3d 50 d0 91 3d 2e 69 77 3a
       -0.029445646 0.07466811 0.071198106 0.0009437975
0000a0 35 2a 52 3d d3 dc 3f 3d 91 74 f4 3c 5f 6a dd bc
       0.051309783 0.046841454 0.02984074 -0.02702826
0000b0 ed 84 35 3e ba bf ea 3d b1 fb 02 3e b4 95 15 3d
       0.17726488 0.1146235 0.12791325 0.03651972
0000c0 83 b0 dd bb 80 98 d6 bc f1 e3 bc 3b 3f e6 a9 3d
       -0.0067654266 -0.026195765 0.0057644774 0.08295869
0000d0 78 2a 8e be 00 5f 4d bc 64 bb f3 3d 8b a2 88 bd
       -0.27766776 -0.012534857 0.11900976 -0.066716276
0000e0 fe 42 0b be 72 4c ec 3c d6 1f e2 3c 40 40 cb 3d
       -0.13599774 0.028845046 0.027603071 0.09924364
0000f0 0d 73 ac 3d ea 30 13 3d 6f 98 38 3d 03 a7 8a 3d
       0.08420382 0.03593532 0.045067247 0.06770136

layer_2.weight f4 [32, 64]
000000 fd e2 88 3d ff 82 b9 3d ca 15 ae 3c 99 ee 0d 3b
       0.066839196 0.09058189 0.021250624 0.0021657108
000010 bc 3e 9a bd aa de d4 bd 0b b5 0f 3e e1 62 bd bd
       -0.07531497 -0.10394032 0.14033906 -0.09247375
000020 39 ec b9 3d 1c 21 b3 3d 3f 52 2b 3c c3 f3 d7 bd
       0.09078259 0.087465495 0.010456621 -0.10544541
000030 32 81 ee 3d b6 bc 20 bd 95 90 a8 bd 47 ff fb 3d
       0.11645736 -0.03924247 -0.08230702 0.1230455
000040 42 06 ab 3c 28 60 9f bd eb 3d bf bd 7f ef 2a bd
       0.020877007 -0.07782012 -0.09337982 -0.041732308
000050 d8 2b 00 be 79 a2 00 be ae df b3 bd 23 da a7 3d
       -0.12516725 -0.12561978 -0.08782898 0.08195903
000060 68 dc 85 bd af 4e b9 bc 01 21 0c bb 4f 10 9c bd
       -0.0653618 -0.022620527 -0.0021381977 -0.07620298
000070 78 3c c0 3d b5 06 fe 3d c0 e1 63 bd 32 f2 ba 3c
       0.093865335 0.12403623 -0.055635214 0.022820566
000080 21 9d a5 3d dd 15 b0 bd a1 c9 3b bd 81 d1 26 3d
       0.080866106 -0.0859792 -0.045846585 0.040727142
000090 a3 eb 5d bd d3 d1 dd bd dc e9 91 3d ea 4b dd bc
       -0.0541798 -0.108310364 0.07124683 -0.027013738
0000a0 28 bb c8 3b b6 11 f9 3b 53 b9 c9 bd 80 34 97 3d
       0.0061258264 0.0076009883 -0.09849801 0.073830605
0000b0 3d 19 70 bd 5f 6a c8 bd 73 3a dc bd d9 64 c0 bd
       -0.05861782 -0.09785914 -0.10753336 -0.09394235
0000c0 b1 39 30 bc 26 88 51 3c d1 ea 03 3e 8e bd 4b bd
       -0.010755942 0.012788808 0.12882544 -0.04974132
0000d0 39 e0 71 bd d8 73 13 bd 0a bd 08 3d 2b db c0 bd
       -0.059051726 -0.03599915 0.033383407 -0.09416803
0000e0 04 7b 14 bd 48 23 af 3c 4f b4 63 3d 1d 26 4d 3d
       -0.03625013 0.021379128 0.055591878 0.050085176
0000f0 ef d2 96 bd af 99 0a bc aa b8 c7 bc a3 45 ae ba
       -0.07364451 -0.008459493 -0.024380047 -0.00132959
000100 ea 90 c5 bd 11 8d dd 3d c7 fd cb bd 46 75 98 bd
       -0.09646781 0.10817922 -0.099605136 -0.07444243
000110 56 7c 4a 3d af be ae bd 40 70 d6 bd a5 ec 0e 3d
       0.049434982 -0.08532464 -0.10470629 0.03489365
000120 6a e0 68 3c 87 64 d4 3d 4b 1d af 3d 08 1b 86 bd
       0.014213661 0.103707366 0.08550509 -0.065481246
000130 83 09 17 bd 01 fd a0 3c 6b ac 8f 3c eb 1b b1 3c
       -0.036874305 0.019651892 0.01753827 0.021619758
000140 f5 45 bd 3d 96 7f 82 3d 3f 48 ea bb a4 f1 55 3d
       0.09241859 0.06371991 -0.0071497257 0.0522324
000150 c0 5d b4 3d 2b 89 06 be 4b 53 e2 bd b1 ff b4 bd
       0.08806944 -0.13138263 -0.11051043 -0.08837832
000160 f8 cf b8 3d fd 39 01 3e 6f e6 a3 3d ff e2 9d 3b
       0.09024042 0.12619777 0.08002936 0.00481832
000170 1c 18 dd 3d e6 3a 7c 3d 86 85 de 3d e3 8a cf bd
       0.10795614 0.061579607 0.10865311 -0.101339124
000180 03 be 6b 3d 68 de dd bc 8d dc b4 bd b2 f6 38 bc
       0.057554256 -0.02708359 -0.08831129 -0.0112892855
000190 bc a7 a0 3d 61 15 df bd 17 f1 ac 3d fa 3d b8 3d
       0.07844493 -0.108927496 0.08444422 0.08996196
0001a0 ba 18 28 bd 33 4e 24 bd fa f2 d8 3d e8 c2 30 bd
       -0.041039206 -0.04011364 0.10593219 -0.043154627
0001b0 4d 61 0a bd ce b9 c4 b9 c7 c3 4a bd 76 57 ac 3d
       -0.0337842 -0.00037522468 -0.049503114 0.08415119
0001c0 44 63 88 bc 98 6a 72 bd ed 3f 50 3d f8 ca 61 3d
       -0.016648896 -0.059183687 0.050842214 0.055125207
0001d0 19 4a b0 3d ef ab e3 bd 99 6e b3 3d ed 6a cf 3d
       0.08607883 -0.11116778 0.08761329 0.10127816
0001e0 a1 fa 57 bd 84 61 18 3d ab 17 f2 3d 7a 97 c6 bb
       -0.052729253 0.037202373 0.118209206 -0.006060538
0001f0 a7 47 0e 3e 91 aa c8 3c 55 3c ed bd 04 a2 b8 3c
       0.1389452 0.024495395 -0.11583773 0.022538193
000200 fd 5c b8 bd b1 3c 26 3d 58 79 cc 3c 4b ba 22 3e
       -0.09002111 0.040585224 0.024960205 0.15891378
000210 67 de 13 be b9 f1 71 3d 6f cb 55 bd 9c 22 bd 3d
       -0.14440309 0.059068415 -0.052195963 0.09235117
000220 fa 92 9a bd 45 1d 8b 3d 19 1f 75 bd ba 9d 9d bd
       -0.07547565 0.06792692 -0.05984411 -0.076960996
000230 2f ba ac bd fd 23 05 bd 96 19 b8 bd 55 b7 20 3d
       -0.08433949 -0.032505024 -0.08989255 0.03923734
000240 ce c8 c0 3d 64 67 e1 3d 03 f7 4f 3d e3 bc 77 3d
       0.094133005 0.11006048 0.050772678 0.06048287
000250 24 7e 98 3c 06 86 6b bd b3 57 d2 3c 6f cd cf 3d
       0.018614836 -0.05750086 0.025676584 0.10146605
000260 d1 ab 6d bd c5 78 28 3d 08 6d e2 3d 3d ec df bb
       -0.058025185 0.0411308 0.11055952 -0.0068335817
000270 cf 42 6e bc ba cc e9 bd 96 a7 bc 3d 97 52 0f 3e
       -0.014542296 -0.114160016 0.09211652 0.1399635
000280 91 51 17 3e 2d 91 ed bd d6 60 d3 3d b2 20 95 3d
       0.14777209 -0.11599956 0.10321204 0.07281627
000290 7f 5b fc 3d 67 95 b6 bd 22 76 a6 3d 93 6c 6a 3d
       0.12322139 -0.08915215 0.08128001 0.05723245
0002a0 c8 eb c9 bb cf ae 97 3d 6b ee 76 3d b6 29 aa bd
       -0.0061621405 0.07406389 0.060285967 -0.08308737
0002b0 1d 2e 85 3d 63 85 06 3e e1 33 11 3d 3d f4 78 3d
       0.06502936 0.1313682 0.035449866 0.0607798
0002c0 3c 0f 5a 3d 14 bb 86 bc b9 1c b6 3d 93 88 9b 3d
       0.053237185 -0.016446628 0.08892197 0.07594409
0002d0 1d d0 86 bd 63 f1 a1 3d 5d b8 6f bd 8b 22 b9 3d
       -0.06582663 0.07907369 -0.058525432 0.09039792
0002e0 c3 ca b7 3d 28 3b 8d 3d 1c 82 e9 3d aa fd 95 bd
       0.089742206 0.06896049 0.114017695 -0.07323773
0002f0 f5 ce 81 bd c4 67 fa bd 99 1e 41 bd 84 f5 86 bd
       -0.06338302 -0.12226823 -0.04714832 -0.06589797
000300 b9 46 d0 3d 27 43 86 bd 06 a3 c6 3d de c8 80 3c
       0.10169739 -0.06555777 0.09699063 0.015720781
000310 66 48 78 bd aa 64 cc 3d 99 83 37 bc e8 47 6d bd
       -0.06061592 0.09980138 -0.011200809 -0.057929903
000320 83 9a 22 bd 6d b3 83 3d 98 10 b0 bd a1 87 42 bc
       -0.039698135 0.06430707 -0.08596915 -0.011873157
000330 1f 17 91 bc 2a 4b ff bd f3 50 45 bd d5 8c c9 3d
       -0.01771122 -0.12465508 -0.048172902 0.09841315
000340 9c 0d 9c bd 24 3a d4 3d 66 4e 85 3a 3d 85 a6 bd
       -0.07619783 0.10362652 0.0010170459 -0.08130882
000350 59 24 36 bd 0a 4f a9 3c 0b 2c 05 bc d5 5e 07 3e
       -0.044468258 0.020667572 -0.008128176 0.1321977
000360 aa 1a 70 3d b3 a4 74 bd 2f 08 97 3d a1 57 dc bd
       0.05861918 -0.059727382 0.07374608 -0.107589014
000370 b3 f4 aa bd b8 fc 62 3d 47 8b 03 be 4e f9 a1 3d
       -0.08347454 0.055416793 -0.12846099 0.07908879
000380 5d 8f 9d 3c 01 74 94 3d 56 dc 8e 3d cf de ca 3d
       0.0192334 0.072486885 0.069756195 0.099057786
000390 92 a0 dc 3d c3 14 7f bc c8 f7 c2 bd a7 8e 34 3d
       0.10772814 -0.015568915 -0.09519917 0.044081356
0003a0 5d 5c cb 3c c7 0c 01 3d a0 04 7d bd b9 f3 a7 3d
       0.024824316 0.031506326 -0.06177199 0.08200783
0003b0 77 19 9c bd 4e 24 ee bd 38 a4 fa 3d 8b 09 96 bd
       -0.076220445 -0.11628018 0.122383535 -0.07326039
0003c0 28 e3 85 3d 03 ad dc 3d fd e7 1a bd 13 f6 aa bd
       0.06537467 0.10775187 -0.037818898 -0.08347716
0003d0 5e f0 04 bd 53 06 06 3e 1d 8d 8c 3d 6a 2c 72 bc
       -0.032455795 0.1308835 0.06862853 -0.014781097
0003e0 c1 7f 8c bd 19 f4 e6 bd b6 38 72 3a 2a 21 dc bd
       -0.068603046 -0.11277027 0.0009240018 -0.10748513
0003f0 33 2c 7b 3d a8 01 2e bd ea d8 2f 3c 88 0a 3d bd
       0.06132145 -0.04248205 0.010732869 -0.04615262

layer_2.bias f4 [32]
000000 42 a9 2d 3e 11 2d 60 3d 11 f2 be 3c 48 17 db bc
       0.16959098 0.05473048 0.023308786 -0.0267445
000010 2e e1 ba 3d e0 c5 0f bd 27 10 dc 3d f3 ff 04 bd
       0.09124981 -0.035100818 0.10745268 -0.032470655
000020 6d 56 79 3e 16 e1 ac 3d a1 f2 e1 3d 6e 7a 25 3e
       0.24349375 0.08441369 0.11032606 0.16159984
000030 fa 40 14 3e 07 85 c2 bd b5 a6 33 bd 4a 8e ad 3d
       0.14477912 -0.09498029 -0.043860156 0.08474405
000040 d8 85 44 3e 03 de e1 bc e7 d7 cb bc bf 05 8b bd
       0.19191682 -0.027571684 -0.024883224 -0.06788205
000050 72 82 07 bc 1f c3 64 be b3 8f dd bc f9 d4 3e bd
       -0.008270847 -0.22340058 -0.02704606 -0.046589825
000060 39 c9 3a 3d c1 09 72 3d 5f 65 44 bd c5 35 00 39
       0.045602057 0.059091333 -0.047948238 0.00012227062
000070 2d 4f 60 bd ce 48 e5 bd 5a c4 27 3e d6 a6 62 3e
       -0.054763008 -0.11195527 0.16383496 0.22133955

layer_3.weight f4 [1, 32]
000000 20 b0 94 bd 47 ce a3 be 16 f4 b1 3e 30 36 16 be
       -0.07260156 -0.31993315 0.34756535 -0.14669108
000010 a8 77 97 be ae 77 10 3f 8d 76 71 3e fd 10 67 3d
       -0.29583478 0.56432617 0.2358038 0.056412686
000020 06 3a 0f bf 0e 21 79 be 66 37 5f 3c 8e 86 75 3e
       -0.5594791 -0.24329016 0.013624048 0.2397711
000030 11 92 0f bd 44 02 e6 3d 13 c3 7c 3f 60 96 b5 bd
       -0.03505141 0.11230901 0.9873516 -0.088665724
000040 ef fb 63 be 54 fb 84 3e 78 bf 63 be c0 b3 35 be
       -0.22264074 0.25972998 -0.22241008 -0.1774435
000050 22 be a7 be c6 30 82 3f 6f 73 8c 3d b3 b5 21 3e
       -0.32762247 1.0171134 0.06857955 0.15791969
000060 5f 9b 3d 3e b3 14 7d 3e 9a 0a cc 3e 44 76 2f bc
       0.185163 0.24714927 0.39851838 -0.010709349
000070 0f 06 98 3e ee 62 88 3e 38 cb a5 be 7e 42 16 3e
       0.29692122 0.26637977 -0.32381606 0.14673802
