checkpt/influence/0_4_fedl_global_500.pth (torch, 61495 bytes, 5 tensors)

layer_1.weight f4 [64, 197]
-0.049203333 -0.026781777 0.049597956 -0.00798125 -0.02868172 -0.069349654 0.018422784 0.004111578
8.3650215e-05 0.036357094 0.019999247 -0.009536263 0.0016652825 -0.005249511 0.022928072 -0.01674849
-0.005235216 -0.028372971 0.03920596 0.016804641 -0.023878912 0.03765026 0.022713203 0.025031276
-0.049206115 -0.06199758 -0.018231763 0.0030087754 0.024136648 -0.007834138 0.019362263 0.008733315
0.024829185 0.058265436 0.012717472 0.033207353 -0.0144369425 0.020137811 0.0016248887 0.042662345
-0.044637974 -0.06604335 0.02303687 -0.096475236 -0.010411585 0.034249462 -0.0012986809 -0.028161656
0.018094659 0.048962034 0.046641313 -0.0064960713 -0.03702823 -0.077283986 -0.0004936717 -0.006822651
0.022676382 -0.051973686 0.030014494 -0.05538865 -0.04242798 0.029190874 -0.034094114 0.0456976
0.040095747 -0.0030997866 0.0042657377 -0.036343094 0.04620126 0.058257345 -0.009130535 0.0356704
-0.03669447 -0.038147036 0.06126102 0.014880761 0.009846931 -0.020306079 -0.044403393 0.03609461
0.008579622 -0.0061852816 -0.039762832 0.005160898 0.04596164 0.03778904 -0.05666768 -0.050280515
-0.026421925 -0.038943622 -0.04025727 0.0047781016 0.010318276 -0.04052451 0.008852182 -0.04933716
0.027139751 0.067568555 -0.059042044 -0.050092157 -0.020816354 -0.053322505 0.031372458 -0.022968981
-0.008844517 -0.014291352 0.067380324 0.04179892 -0.038929623 0.043827984 0.06578614 0.005746119
0.03247242 -0.08533181 -0.04141878 -0.03489023 -0.007873804 -0.053749803 -0.005375043 -0.005941881
-0.013427245 -0.035979412 0.032325502 -0.041249253 -0.061275836 -0.053731762 -0.009211313 -0.05721621
-0.0032352565 0.008691457 0.03177235 0.01575336 0.03963024 -0.02225005 0.021153716 -0.03135345
0.04153282 -0.06428539 -0.013738507 0.0037568808 -0.061348196 0.024749517 0.03075681 -0.025378093
-0.11736732 -0.03527937 -0.024687123 -0.009328959 0.018222764 0.009295063 -0.06433404 -0.0054137316
0.001905705 0.013616281 -0.016334457 0.0005471305 0.004863798 0.028565792 0.046215203 0.25134462
0.030709272 -0.018012756 -0.030616725 -0.025406376 0.01415729 0.0549655 0.036288284 -0.0055935187
-0.08035298 -0.01835929 0.066125944 -0.032038506 -0.052024573 0.010434011 -0.024001453 0.04423847
0.012584712 -0.02754446 0.0032643974 0.0034184947 -0.044740357 -0.065667436 0.07260662 -0.014345898
-0.016821863 -0.010191443 -0.06064081 0.032910768 -0.04875244 0.0071384027 -0.023895895 0.05155077
-0.031101497 -0.07533483 0.016617397 -0.047468375 0.012985892 -0.009474501 0.020833861 0.0042281793
-0.016174152 0.024888469 0.013733954 0.04232774 -0.021529268 0.064586 -0.06370322 0.003839772
0.06135117 -0.04526125 -0.066102855 0.041471634 -0.0225088 0.038856417 0.077199146 0.0020739422
0.058525268 -0.012777898 -0.014451749 0.039256044 -0.022440666 -0.06151558 0.06063496 0.045009892
-0.012882604 -0.03146175 0.006067768 0.03328752 -0.020119226 -0.006701825 -0.024527853 -0.075323366
-0.006919121 0.040089406 0.021673676 0.038597614 -0.029523937 -0.026909018 -0.0511843 -0.01700748
0.061981488 0.05680015 -0.037895203 -0.06316179 -0.05967388 -0.029353883 0.004781625 -0.04349581
-0.05947672 0.02821883 -0.022651162 -0.015308051 -0.0060350536 -0.07059423 -0.0128789 0.041418705
00000000: 6f89 49bd 7565 dbbc 3a27 4b3d cac3 02bc
00000010: edf5 eabc 3107 8ebd 61eb 963c 6bba 863b
00000020: 5e6d af38 2deb 143d 76d5 a33c fc3d 1cbc
00000030: 9c45 da3a 1704 acbb a7d3 bb3c 2134 89bc
00000040: 2d8c abbb 6f6e e8bc 6e96 203d e3a9 893c
00000050: b59d c3bc 2937 1a3d 0a11 ba3c 640e cd3c
00000060: 5a8c 49bd 2df1 7dbd c75a 95bc e02e 453b
00000070: 38ba c53c c25a 00bc 9c9d 9e3c 2e16 0f3c
00000080: 9366 cb3c bda7 6e3d f25c 503c 6f04 083d
00000090: ed88 6cbc 0df8 a43c 38fa d43a b6be 2e3d
000000a0: 4fd6 36bd bc41 87bd d1b7 bc3c cf94 c5bd
000000b0: 5a95 2abc 2a49 0c3d 8038 aaba 46b3 e6bc
000000c0: 403b 943c 6a8c 483d f60a 3f3d ffdc d4bb
000000d0: eaaa 17bd 1147 9ebd bf69 01ba 8b90 dfbb
000000e0: d2c3 b93c 5ce2 54bd f5e0 f53c 36df 62bd
000000f0: f6c8 2dbd b321 ef3c 45a6 0bbd 682d 3b3d
00000100: 703b 243d ca25 4bbb 9ac7 8b3b 7fdc 14bd
00000110: 883d 3d3d 419f 6e3d 3d98 15bc 201b 123d
00000120: f14c 16bd 1140 1cbd d6ec 7a3d 6fce 733c
00000130: 0655 213c ef58 a6bc 55e0 35bd f1d7 133d
00000140: 8b91 0c3c e7ad cabb 5ade 22bd c01c a93b
00000150: 4642 3c3d aec8 1a3d 5f1c 68bd f1f2 4dbd
00000160: cb72 d8bc 5983 1fbd cfe4 24bd 9f91 9c3b
00000170: fc0d 293c 07fd 25bd be08 113c c315 4abd
00000180: 2f54 de3c 6261 8a3d 12d6 71bd 6f2d 4dbd
00000190: 0f87 aabc b368 5abd 6880 003d 7229 bcbc
000001a0: 98e8 10bc 4626 6abc b2fe 893d 5835 2b3d
000001b0: ab74 1fbd f984 333d e2ba 863d f149 bc3b
000001c0: cd01 053d 72c2 aebd bda6 29bd 0fe9 0ebd
000001d0: 2101 01bc c128 5cbd 2121 b0bb 1cb4 c2bb
000001e0: f3fd 5bbc 265f 13bd bf67 043d faf4 28bd
000001f0: 5ffc 7abd d615 5cbd 0ceb 16bc 8b5b 6abd
00000200: 9906 54bb 9d66 0e3c b923 023d 310d 813c
00000210: 5253 223d bd45 b6bc 8f4a ad3c 7a6c 00bd
00000220: 511e 2a3d 0fa8 83bd 7a17 61bc 0036 763b
00000230: 3f48 7bbd 80bf ca3c b5f5 fb3c b8e5 cfbc
00000240: 475e f0bd 1a81 10bd a63c cabc 7dd8 18bc
00000250: e847 953c 524a 183c 91c1 83bd ac65 b1bb
00000260: d9c8 f93a d216 5f3c d7cf 85bc 4e6d 0f3a
00000270: 7f60 9f3b cf02 ea3c 274c 3d3d 3eb0 803e
00000280: 0392 fb3c 7d8f 93bc edcf fabc 0821 d0bc
00000290: faf3 673c 8123 613d 06a3 143d d649 b7bb
000002a0: 1a90 a4bd 3966 96bc 0a6d 873d cf3a 03bd
000002b0: b817 55bd 6af3 2a3c b29e c4bc 6633 353d
000002c0: 1c30 4e3c eba4 e1bc 80ef 553b d308 603b
000002d0: aa41 37bd a67c 86bd c8b2 943d 0f0b 6bbc
000002e0: 01ce 89bc 03fa 26bc 7f62 78bd 71cd 063d
000002f0: a3b0 47bd 43e9 e93b 53c1 c3bc e626 533d
00000300: 91c8 febc 2649 9abd 3521 883c 336e 42bd
00000310: c7c2 543c f03a 1bbc c6ab aa3c 8a8c 8a3b
00000320: a87f 84bc e7e2 cb3c 6104 613c da5f 2d3d
00000330: 265e b0bc aa45 843d d576 82bd afa4 7b3b
00000340: 5d4b 7b3d dc63 39bd ef60 87bd 29de 293d
00000350: 6064 b8bc e827 1f3d 961a 9e3d faea 073b
00000360: 31b8 6f3d 645a 51bc 07c7 6cbc f2ca 203d
00000370: 7dd5 b7bc c3f7 7bbd 5d5c 783d 4b5c 383d
00000380: 8f11 53bc 09de 00bd 21d4 c63b 7f58 083d
00000390: 13d1 a4bc fc9a dbbb a3ee c8bc 2343 9abd
000003a0: cbb9 e2bb ca34 243d fe8c b13c 8818 1e3d
000003b0: 2fdc f1bc 4d70 dcbc a1a6 51bd 4553 8bbc
000003c0: 4de0 7d3d 46a7 683d 0038 1bbd f85a 81bd
000003d0: 996c 74bd 8e77 f0bc 2daf 9c3b aa28 32bd
000003e0: dc9d 73bd 2d2b e73c ee8e b9bc 9fce 7abc
000003f0: b3c1 c5bb b593 90bd 0602 53bc a9a6 293d

layer_1.bias f4 [64]
-0.14590712 0.02172847 -0.05292516 0.057537835 0.25634232 -0.010940326 -0.04632298 -0.0026509794
0.12931548 -0.022670114 0.09278359 -0.03702136 0.0076549067 -0.09358257 -0.018875577 -0.043023333
-0.012483471 0.087899916 0.07354967 0.059692424 -0.01755878 0.0513867 0.10064297 -0.056873403
0.040120844 0.00030157642 -0.06856046 0.20983358 0.045779508 0.101487696 -0.00085262227 -0.16995257
-0.004668273 0.043840475 -0.01883849 -0.07409639 0.09885679 -0.05447041 0.008244381 0.07774383
0.16870922 -0.026610611 -0.012660283 0.03867043 0.16369891 -0.2370482 0.09134051 0.009460367
-0.023389367 -0.16893429 0.09694252 0.09209921 -0.035871338 0.018001702 -0.0019179255 0.11331389
0.023360472 0.19665134 0.17466192 0.109454714 0.021544356 0.05632713 -0.011284836 -0.045268998
00000000: ad68 15be e8ff b13c 0dc8 58bd cbac 6b3d
00000010: 4d3f 833e 0e3f 33bc 2abd 3dbd 0ebc 2dbb
00000020: 476b 043e adb6 b9bc 5305 be3d b6a3 17bd
00000030: 03d6 fa3b 38a8 bfbd f4a0 9abc 3c39 30bd
00000040: 7987 4cbc df04 b43d 36a1 963d 0b80 743d
00000050: 6ed7 8fbc dc7a 523d e71d ce3d 16f4 68bd
00000060: c155 243d e71c 9e39 6d69 8cbd 9dde 563e
00000070: 4b83 3b3d c8d8 cf3d 8382 5fba 0c08 2ebe
00000080: 50f8 98bb 1292 333d 2d53 9abc d9bf 97bd
00000090: 6e75 ca3d 5d1c 5fbd 7113 073c 2838 9f3d
000000a0: 1cc2 2c3e 7ffe d9bc 136d 4fbc e364 1e3d
000000b0: b0a0 273e c3bc 72be bc10 bb3d a8ff 1a3c
000000c0: 0f9b bfbc 1cfd 2cbe cd89 c63d 839e bc3d
000000d0: d3ed 12bd 4e78 933c e762 fbba 1d11 e83d
000000e0: 765e bf3c f85e 493e 93da 323e cb29 e03d
000000f0: ca7d b03c 47b7 663d 08e4 38bc fc6b 39bd

layer_2.weight f4 [32, 64]
0.1898916 0.16066465 0.12369361 -0.09056526 -0.15588458 -0.010162569 -0.09402452 0.14458089
-0.04516316 -0.07295807 0.07119107 0.011525148 0.037672028 0.07438548 0.12102382 0.089276
0.0633915 -0.033995464 -0.044981454 -0.12374198 -0.12014526 0.036073424 0.03656411 0.103087924
-0.03210427 -0.13900512 0.02149449 -0.060997352 0.035068247 -0.0861401 0.040754892 0.1129489
-0.01768789 -0.0753707 0.13125722 0.031926166 -0.019278493 -0.094392136 0.026586737 -0.058938812
-0.13167726 0.02811928 0.02079212 0.016550317 -0.13791269 -0.017129267 -0.08988521 -0.0822892
0.01994763 0.06827968 0.13749744 -0.06317441 -0.0633124 -0.123533376 -0.073127806 0.11212712
0.06414183 0.053047206 -0.074025996 -0.16794826 0.08480618 -0.0070389938 0.15294962 0.07396648
0.115089625 0.09626718 0.023634402 -0.022917219 -0.12603574 -0.014826072 -0.012789368 -0.0046407813
-0.07491802 -0.1105051 0.08528215 0.052459124 -0.011374294 0.05980057 -0.08307354 -0.08171454
-0.051555663 0.106175736 -0.0019297665 -0.038311705 -0.090488166 -0.03807804 0.052182343 0.094514705
-0.03296244 -0.12006955 -0.055717032 -0.08889184 0.023952989 -0.047329806 0.034256067 0.048670307
-0.055800594 0.0816224 -0.05734799 -0.058579322 -0.008703763 0.064146735 0.09355374 -0.039267555
-0.05719042 -0.0013468656 0.11093421 0.020896764 0.038480926 0.08248275 0.118660256 0.034862068
-0.05280545 0.10915248 -0.100662895 -0.02287444 -0.115238436 0.04742755 0.056278944 -0.011915273
-0.09214918 -0.07995402 0.016070908 0.061998364 0.030930977 0.012908552 0.1078587 0.0019127205
-0.13722953 -0.028814046 -0.06918093 -0.010816153 0.07291346 0.032642636 -0.064197935 -0.08631775
0.016731057 -0.10374888 -0.08973932 -0.02869555 0.07357821 -0.12555869 -0.012827168 -0.022815432
0.04335606 0.07392542 -0.047127064 -0.09075944 0.13196565 0.07525405 -0.09906469 -0.0596203
0.12665083 0.07498508 0.0796807 0.09020191 0.05280944 0.00583299 0.07612284 -0.0039590066
0.074650906 0.0603294 -0.107693404 -0.011700243 -0.019078044 0.109307125 0.0956193 -0.017913127
-0.056794178 0.0750279 0.0651439 -0.12652571 0.1437989 -0.123085625 -0.047135543 0.037547763
-0.04182762 -0.069633454 -0.07072061 -0.04189569 0.0399076 -0.07111361 0.02205109 -0.10466506
-0.06668832 -0.04445052 0.0864184 0.080833204 -0.044512272 0.080942556 0.058896303 -0.046735205
0.08592895 -0.016387941 -0.017612092 -0.09934168 -0.02149763 -0.08247307 -0.10804981 -0.105674736
0.012455492 -0.09398044 0.056936953 0.031137474 0.058623362 0.027591273 -0.043429296 -0.114287004
0.034248885 -0.07284398 0.103522904 0.11357096 0.051640168 -0.10673072 -0.030200632 -0.069630444
0.092636295 -0.11171741 -0.10181973 -0.049110867 -0.062086012 0.09374661 -0.061710898 0.01782644
0.111236885 -0.08893108 -0.098272346 -0.0955846 -0.097714774 0.023383748 -0.06990936 -0.019658698
0.069257356 -0.09572864 -0.023953743 0.0867775 0.09012904 -0.017529245 0.09830777 -0.12124756
0.08278031 0.024024162 0.09677663 0.07117721 -0.029656587 -0.03812484 -0.05712371 0.1312459
0.05263368 -0.11453734 0.020320099 0.12737776 -0.10241521 0.04862392 -0.10608922 -0.082334034
00000000: f272 423e 4685 243e 1353 fd3d 477a b9bd
00000010: 35a0 1fbe e780 26bc ed8f c0bd 030d 143e
00000020: 01fd 38bd 0a6b 95bd a0cc 913d f9d3 3c3c
00000030: fc4d 1a3d 6a57 983d 56db f73d 56d6 b63d
00000040: 67d3 813d d43e 0bbd 793e 38bd 6f6c fdbd
00000050: b80e f6bd bac1 133d 40c4 153d c31f d33d
00000060: c47f 03bd 5c57 0ebe 3615 b03c 5cd8 79bd
00000070: b9a3 0f3d 396a b0bd 9aee 263d c151 e73d
00000080: 32e6 90bc f45b 9abd 4b68 063e 03c5 023d
00000090: eeed 9dbc aa50 c1bd 6ecc d93c d369 71bd
000000a0: 67d6 06be 675a e63c 3c54 aa3c 8894 873c
000000b0: fc38 0dbe ad52 8cbc bd15 b8bd 3d87 a8bd
000000c0: 3669 a33c 38d6 8b3d 21cc 0c3e 9661 81bd
000000d0: eea9 81bd 11ff fcbd 08c4 95bd e7a2 e53d
000000e0: cb5c 833d 0748 593d f19a 97bd a1fa 2bbe
000000f0: ddae ad3d 5ca7 e6bb d39e 1c3e bd7b 973d
00000100: 1cb4 eb3d ba27 c53d ef9c c13c e4bc bbbc
00000110: 830f 01be 0ee9 72bc 7f8a 51bc b211 98bb
00000120: 9e6e 99bd 7f50 e2bd 68a8 ae3d 61df 563d
00000130: 3f5b 3abc 71f1 743d 7622 aabd f459 a7bd
00000140: 082c 53bd aa72 d93d 38f0 fcba bcec 1cbd
00000150: dc51 b9bd b8f7 1bbd 27bd 553d ed90 c13d
00000160: a003 07bd 06e7 f5bd 8b37 64bd ed0c b6bd
00000170: 0f39 c43c e6dc 41bd 1750 0c3d 845a 473d
00000180: 2a8f 64bd a529 a73d bae5 6abd dff0 6fbd
00000190: 3a9a 0ebc 5d5f 833d 1a99 bf3d 04d7 20bd
000001a0: 8040 6abd 4f89 b0ba 7a31 e33d b12f ab3c
000001b0: 2d9e 1d3d b7ec a83d 2604 f33d 87cb 0e3d
000001c0: 874a 58bd 568b df3d 5928 cebd 2d63 bbbc
000001d0: 2102 ecbd 6443 423d c084 663d 4738 43bc
000001e0: b6b8 bcbd efbe a3bd 23a7 833c fff1 7d3d
000001f0: f662 fd3c 647e 533c 06e5 dc3d 40b4 fa3a
00000200: e685 0cbe 6f0b ecbc bbae 8dbd 3c36 31bc
00000210: a753 953d 49b4 053d 357a 83bd 5cc7 b0bd
00000220: 920f 893c 4b7a d4bd 40c9 b7bd ee12 ebbc
00000230: 2cb0 963d 7592 00be 0b29 52bc 6ee7 babc
00000240: 2096 313d 3666 973d 4f08 41bd 16e0 b9bd
00000250: 0122 073e cc1e 9a3d 6ee2 cabd 6a34 74bd
00000260: c1b0 013e c791 993d a32f a33d c7bb b83d
00000270: b64e 583d ab22 bf3b 4be6 9b3d 8eba 81bb
00000280: 93e2 983d f61b 773d 5c8e dcbd 60b2 3fbc
00000290: 8f49 9cbc 6adc df3d 0dd4 c33d 8dbe 92bc
000002a0: 03a1 68bd 3aa8 993d 2a6a 853d f58f 01be
000002b0: 0540 133e 5114 fcbd 3311 41bd afcb 193d
000002c0: 7053 2bbd fc9b 8ebd f8d5 90bd d19a 2bbd
000002d0: 2776 233d 03a4 91bd 7da4 b43c a35a d6bd
000002e0: e393 88bd c011 36bd 21fc b03d e18b a53d
000002f0: 8052 36bd 36c5 a53d 403d 713d 6a6d 3fbd
00000300: 84fb af3d 0140 86bc 3c47 90bc a773 cbbd
00000310: cc1b b0bc a4e7 a8bd 3849 ddbd ff6b d8bd
00000320: 1f12 4c3c d178 c0bd b936 693d 0414 ff3c
00000330: 0d1f 703d 1807 e23c ebe2 31bd 4e0f eabd
00000340: 8f48 0c3d 392f 95bd d103 d43d e497 e83d
00000350: a484 533d a395 dabd 5167 f7bc 689a 8ebd
00000360: 19b8 bd3d 19cc e4bd dd86 d0bd 7a28 49bd
00000370: e74d 7ebd 39fe bf3d 91c4 7cbd c108 923c
00000380: 2ad0 e33d 8021 b6bd 0343 c9bd dcc1 c3bd
00000390: af1e c8bd 468f bf3c a32c 8fbd 470b a1bc
000003a0: cdd6 8d3d 610d c4bd a43a c4bc 67b8 b13d
000003b0: 9395 b83d 7e99 8fbc 9655 c93d a450 f8bd
000003c0: b988 a93d 52ce c43c d332 c63d 5bc5 913d
000003d0: 5ff2 f2bc cb28 1cbd 8dfa 69bd 5365 063e
000003e0: 6a96 573d 8e92 eabd 5676 a63c 516f 023e
000003f0: 11bf d1bd e029 473d 4e45 d9bd bf9e a8bd

layer_2.bias f4 [32]
-0.18606727 -0.090952024 0.14408746 -0.050457716 -0.20874014 0.1285043 0.17856067 0.19199213
0.05171748 0.28881636 -0.06768178 -0.034614652 -0.12580001 0.12848376 -0.10682075 -0.008950137
0.04376843 -0.06437986 0.10326209 -0.029303728 0.045815676 0.036069036 0.0064134365 0.10794072
-0.12114888 0.12861629 0.13412152 0.087587096 -0.080216356 0.1956693 -0.17966415 0.0078722695
00000000: 6b88 3ebe 0e45 babd aa8b 133e c0ac 4ebd
00000010: fabf 55be a296 033e 9cd8 363e 9699 443e
00000020: b5d5 533d bddf 933e bf9c 8abd 18c8 0dbd
00000030: b8d1 00be 3f91 033e d6c4 dabd 98a3 12bc
00000040: 8646 333d 97d9 83bd 137b d33d 5f0e f0bc
00000050: 38a9 3b3d 20bd 133d ce27 d23b 0610 dd3d
00000060: e71c f8bd fdb3 033e 2757 093e dd60 b33d
00000070: 7948 a4bd 885d 483e e1f9 37be b1fa 003c

layer_3.weight f4 [1, 32]
0.4723101 0.045630895 0.22536191 0.07501995 0.51076895 -0.052083492 -0.18917798 -0.39219275
-0.17127159 0.5361729 0.05901444 -0.23130204 0.007525351 0.3976865 0.915962 0.65144575
-0.13467069 -0.07405534 -0.1424553 0.12434949 -0.25092238 -0.2227851 -0.08753588 -0.26513648
-0.021545826 -0.46870956 0.74328697 -0.010877906 0.09058987 -0.30775312 0.28663298 -0.013618781
00000000: a1d2 f13e 76e7 3a3d 46c5 663e 0fa4 993d
00000010: c1c1 023f 8055 55bd dfb7 41be 7dcd c8be
00000020: d261 2fbe a142 093f 20b9 713d 71da 6cbe
00000030: 3897 f63b 919d cb3e 7c7c 6a3f 26c5 263f
00000040: 1de7 09be 53aa 97bd cddf 11be f2aa fe3d
00000050: e678 80be c721 64be 0346 b3bd f8bf 87be
00000060: df80 b0bc b3fa efbe 0e48 3e3f 3f39 32bc
00000070: 2f87 b93d d191 9dbe 8fc1 923e 4f21 5fbc
