checkpt/influence/0_5_fedl_global_500.pth (torch, 61495 bytes, 5 tensors)

layer_1.weight f4 [64, 197]
-0.011211485 -0.024489162 -0.0034494658 -0.0038652518 0.010588021 0.035181373 -0.017373871 -0.0019814381
-0.031388853 -0.0041206437 0.025921304 0.14151411 0.057958454 0.033584133 0.06286544 -0.06599904
0.06731365 0.07016345 -0.070371814 -0.0073607047 0.0075623547 0.0048937323 0.027073998 -0.004983002
-0.042428177 0.036843617 0.07017078 0.036758896 -0.023701167 0.021501565 0.010011998 0.0021868078
0.0070075123 0.0006350953 0.014256503 -0.07201592 -0.012115446 0.05272888 0.0025000682 0.065593295
-0.0011522995 0.034980647 -0.0519361 -0.18163538 -0.057968367 0.033608723 0.02202021 0.013075839
0.046331573 0.016441824 -0.0339886 -0.010821138 -0.0049855625 -0.08403432 -0.01697864 0.051534172
0.0020562974 0.003846306 0.0026450874 0.0017348147 -0.00014697842 0.019814303 0.027938308 -0.056802608
0.017597469 -0.034315504 -0.001973636 -0.02952956 -0.0016348986 -0.008095161 -0.018727768 -0.0118380785
-0.024775129 -0.031006636 -0.0093138525 -0.024832336 0.019349372 -0.061755825 0.03325858 0.018825563
0.042498063 0.025397096 0.08697761 0.03892487 -0.03360903 -0.019302111 0.033867475 -0.074165404
0.0036171302 -0.030101934 -0.053447958 -0.001455858 0.0024841388 0.06701582 -0.010921307 -0.011548227
-0.055548545 -0.074804425 0.03396692 0.032178245 0.042006575 0.043380596 0.04299065 0.030043602
-0.045385815 -0.01565642 0.044846036 -0.009964957 -0.06338078 0.042474188 0.0013042993 0.00036515947
0.06940487 0.023103202 -0.0500558 -0.07573779 0.03720971 0.032788277 0.026577253 -0.012154913
0.008173477 -0.047340345 -0.045879114 0.06590194 0.014048056 -0.037250265 -0.073033646 -0.028267827
-0.055765625 -0.016482232 0.056022488 0.019605624 0.025503267 -0.059669696 -0.012194724 0.01356162
-0.035727665 0.06534206 0.022244448 -0.036311053 0.04609731 -0.05792648 0.04656751 -0.0017605887
-0.007967047 -0.052205693 0.05187952 -0.049825307 0.0056159864 0.053855933 -0.068716764 -0.0031756028
0.00074436044 0.021282734 -0.08374133 0.006150589 -0.032585777 -0.085398376 -0.011427611 -0.04590584
0.028871536 -0.051065713 0.01243548 0.09551554 -0.08220808 -0.033751976 0.033176035 0.025287911
-0.04826839 0.03329 -0.0009703425 0.04964673 -0.036320873 -0.00475752 -0.036696944 -0.00028779358
-0.04467 -0.022825308 0.04878547 0.028199589 0.03050192 -0.083556555 -0.02897321 -0.046797834
0.094061084 0.024020312 0.004549773 -0.014244289 0.04471338 -0.011244136 0.041550886 -0.033112936
-0.08098044 0.031210344 0.016724551 0.061130036 0.061208285 0.05274826 0.020254016 -0.05220922
-0.041869313 0.042978063 0.060295943 -0.051207997 0.021507347 -0.007092087 -0.031191442 0.04881565
-0.022094712 0.044581942 -0.01633958 -0.020266863 0.0036894456 -0.008779245 0.04190151 0.02071658
0.005718723 0.01953393 0.039090827 0.027375462 0.022646267 0.00795554 -0.016281035 0.003798349
0.018965634 0.028681386 0.02322034 -0.05806653 -0.023637539 0.009929243 -0.03416279 0.08174603
-0.01693438 0.012562402 0.06578815 0.048299395 0.05771148 -0.041555174 0.019386953 -0.015877895
0.1969816 0.014184929 -0.041416597 -0.06863881 -0.032424014 -0.023599386 0.039479148 -0.018566653
0.022741372 -0.023668718 -0.03315196 0.1475267 0.060435854 -0.034451455 0.00913635 0.03744907
00000000: 60b0 37bc 7f9d c8bc 6f10 62bb 2a50 7dbb
00000010: 6179 2d3c 581a 103d a653 8ebc 04db 01bb
00000020: 9991 00bd 7706 87bb ea58 d43c 13e9 103e
00000030: d865 6d3d 848f 093d 99bf 803d 812a 87bd
00000040: bddb 893d dbb1 8f3d 191f 90bd 1132 f1bb
00000050: a1cd f73b 9a5b a03b 4aca dd3c 7348 a3bb
00000060: 2bc9 2dbd 55e9 163d b3b5 8f3d 7f90 163d
00000070: f328 c2bc 0d24 b03c 5d09 243c 8c50 0f3b
00000080: 469f e53b 867c 263a 1c94 693c 157d 93bd
00000090: dd7f 46bc 3dfa 573d 2fd8 233b c755 863d
000000a0: c108 97ba de47 0f3d f3ba 54bd a0fe 39be
000000b0: 3d70 6dbd 4da9 093d ba63 b43c 0b3c 563c
000000c0: 2dc6 3d3d 01b1 863c a137 0bbd 244b 31bc
000000d0: ee5d a3bb 301a acbd ca16 8bbc 7f15 533d
000000e0: f2c2 063b 4e12 7c3b 3459 2d3b b962 e33a
000000f0: 381e 1ab9 9b51 a23c e1de e43c daa9 68bd
00000100: 9128 903c 6a8e 0cbd 1e58 01bb fae7 f1bc
00000110: 184a d6ba 91a1 04bc fa6a 99bc 80f4 41bc
00000120: 36f5 cabc a101 febc 2199 18bc 2f6d cbbc
00000130: 9382 9e3c adf3 7cbd 263a 083d 1138 9a3c
00000140: 7312 2e3d 920d d03c 5121 b23d af6f 1f3d
00000150: 9fa9 09bd 761f 9ebc 9fb8 0a3d 08e4 97bd
00000160: 600d 6d3b 5598 f6bc 3fec 5abd 7dd2 beba
00000170: efcc 223b 973f 893d 48ef 32bc c634 3dbc
00000180: df86 63bd 1033 99bd e620 0b3d 56cd 033d
00000190: 160f 2c3d daaf 313d f716 303d 001e f63c
000001a0: 7ae6 39bd e441 80bc 7ab0 373d 0f44 23bc
000001b0: c8cd 81bd 6af9 2d3d 06f5 aa3a e072 bf39
000001c0: 2424 8e3d ed42 bd3c 4f07 4dbd 6a1c 9bbd
000001d0: 3569 183d 004d 063d 8ab8 d93c 6625 47bc
000001e0: 0cea 053c f3e7 41bd bdeb 3bbd 99f7 863d
000001f0: d129 663c bc93 18bd aa92 95bd ee91 e7bc
00000200: 7f6a 64bd bf05 87bc d677 653d f99b a03c
00000210: 3aec d03c 3668 74bd 61cc 47bc 8f31 5e3c
00000220: 2c57 12bd 0fd2 853d fd39 b63c e6ba 14bd
00000230: 88d0 3c3d 5144 6dbd 93bd 3e3d 8ec3 e6ba
00000240: 3888 02bc a3d5 55bd 9f7f 543d 9f15 4cbd
00000250: 4f06 b83b 0a98 5c3d 60bb 8cbd c61d 50bb
00000260: 2f21 433a 2159 ae3c 9380 abbd e18a c93b
00000270: aa78 05bd 58e5 aebd e03a 3bbc c307 3cbd
00000280: 0084 ec3c 482a 51bd 2fbe 4b3c a79d c33d
00000290: b65c a8bd 833f 0abd 98e3 073d 9828 cf3c
000002a0: 13b5 45bd 185b 083d 955e 7eba 5f5a 4b3d
000002b0: 32c5 14bd f8e4 9bbb 894f 16bd 00e3 96b9
000002c0: e4f7 36bd 24fc babc 46d3 473d d302 e73c
000002d0: 2adf f93c b31f abbd 3a59 edbc 16af 3fbd
000002e0: 19a3 c03d 3fc6 c43c 4316 953b e160 69bc
000002f0: 6125 373d 5339 38bc 4331 2a3d 6ea1 07bd
00000300: 13d9 a5bd d6ac ff3c ed01 893c 7d63 7a3d
00000310: 8ab5 7a3d 8f0e 583d c0eb a53c 56d9 55bd
00000320: 287f 2bbd c409 303d e1f8 763d 7abf 51bd
00000330: 2d30 b03c bd64 e8bb 3285 ffbc ebf2 473d
00000340: f8ff b4bc 8e9b 363d 95da 85bc b106 a6bc
00000350: a0ca 713b d3d6 0fbc eba0 2b3d d1b5 a93c
00000360: 2064 bb3b 9f05 a03c b41d 203d 8142 e03c
00000370: aa84 b93c f457 023c ce5f 85bc b9ed 783b
00000380: d15d 9b3c 3af5 ea3c 9538 be3c 2bd7 6dbd
00000390: 83a3 c1bc 43ae 223c 48ee 0bbd 766a a73d
000003a0: f8b9 8abc 88d2 4d3c f0bb 863d 96d5 453d
000003b0: df62 6c3d c235 2abd 63d1 9e3c 5c12 82bc
000003c0: 8bb5 493e e867 683c 73a4 29bd 8192 8cbd
000003d0: 0bcf 04bd 8053 c1bc e3b4 213d 1819 98bc
000003e0: 1d4c ba3c e6e4 c1bc 59ca 07bd 3d11 173e
000003f0: 968b 773d f81c 0dbd a1b0 153c 3264 193d

layer_1.bias f4 [64]
0.00072040973 0.051100545 0.14226098 0.0072719757 -0.028875371 -0.016474785 -0.036852386 -0.011364442
-0.01286266 -0.08136331 0.03582774 0.043302074 0.022356896 0.004781404 -0.032135993 0.0040818723
0.047950756 0.092045724 -0.046205107 -0.14945212 -0.04525014 -0.0049904846 0.09176543 -0.1151484
0.06956304 0.023602784 -0.008948411 -0.017988332 0.08172271 0.044641163 -0.004058621 0.091922514
0.03746926 -0.13040617 0.108297594 -0.0075915805 0.010117786 0.06359857 0.0061384076 0.0918405
0.0017618616 -0.016412312 0.11126613 0.02689922 0.070733 0.023617307 0.090312906 0.035054535
-0.017858528 0.013423205 -0.07767998 0.1278057 -0.00034563264 0.0030859665 0.01774154 0.07615077
-0.0037368315 0.13065721 0.019774895 -0.0063506626 0.028085357 0.10883723 0.072384275 0.03770084
00000000: e1d9 3c3a ce4e 513d ddac 113e c149 ee3b
00000010: 0b8c ecbc 21f6 86bc 87f2 16bd ed31 3abc
00000020: e8bd 52bc cfa1 a6bd 1cc0 123d 845d 313d
00000030: cf25 b73c 53ad 9c3b 08a1 03bd 3ac1 853b
00000040: 0368 443d 7882 bc3d 9141 3dbd fa09 19be
00000050: 3658 39bd 3887 a3bb 84ef bb3d edd2 ebbd
00000060: 1177 8e3d a05a c13c 5b9c 12bc 445c 93bc
00000070: 3c5e a73d a7d9 363d 2efe 84bb df41 bc3d
00000080: 5e79 193d 3289 05be 21cb dd3d cbc2 f8bb
00000090: 12c5 253c f83f 823d b224 c93b df16 bc3d
000000a0: 44ee e63a 1d73 86bc 7fdf e33d c15b dc3c
000000b0: 77dc 903d 1579 c13c f9f5 b83d 5895 0f3d
000000c0: 0c4c 92bc 01ed 5b3c ae16 9fbd 7fdf 023e
000000d0: 0736 b5b9 ed3d 4a3b b556 913c eff4 9b3d
000000e0: a1e5 74bb 01cb 053e f6fe a13c 3819 d0bb
000000f0: 4313 e63c 0ee6 de3d 353e 943d 326c 1a3d

layer_2.weight f4 [32, 64]
0.058481816 0.08923655 -0.06262343 -0.10800004 0.06465194 0.052470326 0.09534987 -0.094435774
-0.12373564 0.10169262 -0.13690811 -0.07968836 -0.15083696 -0.015299818 0.096827425 0.113017604
0.08042932 0.10254246 -0.054341916 -0.034476787 -0.054147877 0.04754506 -0.027404832 -0.048740122
0.07413114 -0.11922529 0.05993099 -0.045442767 0.056430407 0.08496016 0.08515161 -0.030527415
-0.04267972 0.05608008 0.087250896 0.10979877 -0.016671218 -0.008837555 -0.0819802 0.06889817
0.014555331 0.091354035 0.11811341 0.113680385 -0.0025513247 0.017365957 0.004686987 -0.06590322
-0.027808443 -0.060690112 -0.008718182 0.13393655 0.035975248 -0.09822886 0.12454332 0.053489972
0.14403085 0.10499077 0.1868272 -0.021950463 -0.047450326 0.048283838 0.0024716351 0.03318154
0.02096737 0.1319448 0.09568219 -0.054112975 0.093330756 -0.033740915 0.07418913 0.058169577
0.072467804 -0.11435861 0.098601736 0.09381422 -0.10428217 0.09187031 -0.03572283 0.081349
-0.06834411 -0.055015534 -0.07001752 -0.06158153 0.057184204 -0.048410416 -0.024365457 0.036455635
0.07153654 0.07699166 -0.10237625 -0.05721937 0.07798567 0.034329295 0.07738356 0.085802205
0.031196715 0.053965278 0.07583256 -0.0820558 0.009287382 -0.10296556 -0.053825244 0.12757988
0.072189614 0.114742815 0.10966449 0.036560904 -0.026976202 -0.08266177 -0.029763088 -0.0007676174
0.01433757 -0.034815967 0.038499717 0.081829414 -0.10855693 0.11730708 0.037361942 0.0127399
0.013047903 0.1021076 0.09680497 0.11455625 0.055500094 0.13540477 0.03798344 0.09061975
-0.10841886 -0.054021094 -0.10036784 -0.112290815 0.11397283 0.070874766 -0.04235584 -0.041526318
-0.04524602 -0.03376954 -0.101714075 -0.031782288 -0.064871594 -0.11256697 -0.09970441 0.119996496
0.048719205 -0.05287468 0.055742275 -0.04168948 -0.06917634 -0.019086858 -0.11725172 -0.064527124
-0.0138967205 -0.06177228 -0.102349855 -0.07307053 -0.08001344 0.096646786 -0.10282844 0.12208176
0.026271421 0.014767856 -0.10479753 -0.032875907 -0.022295222 -0.0406962 0.09377578 -0.016076392
0.0058206515 0.075929955 0.09127516 0.019211482 0.003711763 0.021139938 -0.031356733 -0.06051057
0.040043116 0.04773848 0.03154892 0.015849125 -0.12823182 -0.045341533 0.050650533 -0.11165637
0.09456502 -0.050578777 -0.036060426 0.1189683 0.077694654 0.02300675 0.055181663 0.108556725
-0.028542249 0.12064858 -0.11461589 0.009181477 -0.0050743483 0.047038596 0.059155993 -0.046433408
-0.0072245123 0.11698489 -0.01921927 0.1226273 0.13496172 0.095073886 0.05850478 -0.12426287
-0.09966926 0.09633656 -0.050414827 0.095329635 0.051722195 0.027707867 -0.040919703 0.004790175
-0.0566027 -0.08634816 0.08387013 -0.09729945 0.008717861 0.02980827 -0.041462388 0.010480565
-0.10592271 0.03383233 0.012412643 -0.014923158 -0.09518784 0.058527652 0.013177805 0.036920268
-0.088630095 0.07041538 0.0925458 0.15637995 -0.015591846 0.07979216 -0.022391949 -0.07051232
0.1461731 0.09911371 -0.08734242 0.11967095 -0.09054001 0.050742004 0.052103903 0.050093316
0.14520517 -0.085049346 -0.004336235 0.005991088 0.056291435 0.050015315 0.0071976916 -0.06217855
00000000: a18a 6f3d a7c1 b63d b640 80bd 202f ddbd
00000010: 3c68 843d 20eb 563d cb46 c33d 8b67 c1bd
00000020: 1c69 fdbd 3844 d03d a431 0cbe a733 a3bd
00000030: 0175 1abe 16ac 7abc 754d c63d c675 e73d
00000040: 21b8 a43d c801 d23d a195 5ebd 8837 0dbd
00000050: 2aca 5dbd 9cbe 423d 1980 e0bc b9a3 47bd
00000060: 11d2 973d 642c f4bd 337a 753d 3222 3abd
00000070: 9223 673d 98ff ad3d f863 ae3d a114 fabc
00000080: eed0 2ebd 3ab4 653d 99b0 b23d 2dde e03d
00000090: 1492 88bc 64cb 10bc 3ce5 a7bd 7c1a 8d3d
000000a0: 7c79 6e3c d317 bb3d 72e5 f13d 43d1 e83d
000000b0: 2034 27bb 0d43 8e3c 4c95 993b 44f8 86bd
000000c0: 88ce e3bc 3296 78bd b5d6 0ebc aa26 093e
000000d0: c85a 133d 362c c9bd 9110 ff3d 4d18 5b3d
000000e0: d37c 133e 6705 d73d a14f 3f3e 75d1 b3bc
000000f0: 465b 42bd 46c5 453d 28fb 213b 5ee9 073d
00000100: c3c3 ab3c 8a1c 073e 06f5 c33d 91a5 5dbd
00000110: 3224 bf3d ea33 0abd 78f0 973d 3943 6e3d
00000120: 006a 943d d934 eabd b5ef c93d ab21 c03d
00000130: e491 d5bd 8026 bc3d 1a52 12bd 4e9a a63d
00000140: fff7 8bbd f857 61bd 5865 8fbd ea3c 7cbd
00000150: fc39 6a3d 004a 46bd 119a c7bc 8152 153d
00000160: c081 923d cead 9d3d a4aa d1bd dc5e 6abd
00000170: f3b6 9f3d e09c 0c3d 467b 9e3d 11b9 af3d
00000180: 4190 ff3c b20a 5d3d 1a4e 9b3d df0c a8bd
00000190: 1a2a 183c 9cdf d2bd dc77 5cbd 4da4 023e
000001a0: 26d8 933d 48fe ea3d c797 e03d e3c0 153d
000001b0: 32fd dcbc 934a a9bd b8d1 f3bc ef39 49ba
000001c0: 21e8 6a3c 309b 0ebd e1b1 1d3d 2e96 a73d
000001d0: 1953 debd b23e f03d d608 193d 03bb 503c
000001e0: dfc6 553c ca1d d13d af41 c63d 789c ea3d
000001f0: 1154 633d 8ca7 0a3e 8694 1b3d d996 b93d
00000200: b50a debd 3945 5dbd a78d cdbd baf8 e5bd
00000210: 966a e93d ca26 913d 517d 2dbd 8017 2abd
00000220: e453 39bd ee51 0abd 784f d0bd 252e 02bd
00000230: 66db 84bd 8389 e6bd d331 ccbd b9c0 f53d
00000240: ca8d 473d 1f93 58bd 0352 643d 97c2 2abd
00000250: 53ac 8dbd 0b5c 9cbc ab21 f0bd cc26 84bd
00000260: 12af 63bc ee04 7dbd cd9c d1bd 01a6 95bd
00000270: 16de a3bd c0ee c53d b897 d2bd 0006 fa3d
00000280: 2a37 d73c e1f4 713c 16a0 d6bd e3a8 06bd
00000290: 78a4 b6bc 0fb1 26bd 840d c03d a3b2 83bc
000002a0: 2abb be3b 2a81 9b3d 79ee ba3d 6661 9d3c
000002b0: 0d41 733b aa2d ad3c eb6f 00bd eed9 77bd
000002c0: 4004 243d 6d89 433d 7139 013d 06d6 813c
000002d0: 344f 03be 0bb8 39bd ef76 4f3d 18ac e4bd
000002e0: 4eab c13d b12b 4fbd 19b4 13bd a7a5 f33d
000002f0: 601e 9f3d a778 bc3c 2b06 623d fd52 de3d
00000300: 6fd1 e9bc 9a16 f73d bcbb eabd e86d 163c
00000310: b846 a6bb 8bab 403d 8e4d 723d f530 3ebd
00000320: 9abb ecbb c695 ef3d bb71 9dbc 0624 fb3d
00000330: 6833 0a3e 19b6 c23d b5a2 6f3d 887d febd
00000340: 661f ccbd 1a4c c53d c77f 4ebd 2f3c c33d
00000350: a7da 533d 9cfb e23c 6b9b 27bd e6f6 9c3b
00000360: 3cd8 67bd 4ed7 b0bd 1ac4 ab3d ef44 c7bd
00000370: 5cd5 0e3c 7930 f43c 77d4 29bd adb6 2b3c
00000380: 01ee d8bd c593 0a3d 665e 4b3c 4380 74bc
00000390: d8f1 c2bd b1ba 6f3d b8e7 573c b539 173d
000003a0: b283 b5bd f035 903d a788 bd3d 1122 203e
000003b0: f174 7fbc 126a a33d 526f b7bc c368 90bd
000003c0: 67ae 153e 21fc ca3d 95e0 b2bd 0b16 f53d
000003d0: 0a6d b9bd d9d6 4f3d e76a 553d a62e 4d3d
000003e0: aab0 143e 5a2e aebd fa16 8ebb e450 c43b
000003f0: d991 663d dcdc 4c3d 9dda eb3b efae 7ebd

layer_2.bias f4 [32]
0.24795258 0.14425522 -0.10771277 -0.06273327 -0.119904235 0.0032321538 -0.06775402 -0.007330715
0.05650718 0.022688767 -0.055736568 0.102863334 0.19402201 0.0993926 0.18830511 0.03165684
-0.013340864 -0.09495611 -0.058111254 -0.2521697 0.05743847 0.029963885 0.030274384 0.08294413
-0.1078033 0.034564998 0.039135333 0.09226907 0.072264574 0.086214736 0.13548389 -0.065418385
00000000: 48e7 7d3e a4b7 133e 8398 dcbd 4d7a 80bd
00000010: 5a90 f5bd 8bd2 533b 9fc2 8abd 7f36 f0bb
00000020: 1374 673d cbdd b93c 074c 64bd 03aa d23d
00000030: b5ad 463e 598e cb3d 0ed3 403e 9aaa 013d
00000040: a493 5abc 5978 c2bd 1106 6ebd 631c 81be
00000050: 9a44 6b3d d276 f53c fc01 f83c 9dde a93d
00000060: fac7 dcbd 0794 0d3d 5f4c 203d 91f7 bc3d
00000070: 73ff 933d 5a91 b03d 4abc 0a3e 13fa 85bd

layer_3.weight f4 [1, 32]
-0.43541735 -0.30450913 -0.15664953 0.2701358 -0.015384827 0.06657405 -0.048454005 -0.14981897
-0.18661308 0.68295777 -0.1683205 -0.3836194 0.5579629 -0.25640848 0.14402997 0.18470718
0.21540853 0.28551295 -0.19692147 0.79723674 -0.061186273 0.23596928 0.025893046 -0.08780855
0.10625215 -0.096474916 -0.081953324 -0.39683226 -0.19855297 0.05829781 0.05563651 0.9539045
00000000: 06ef debe 9fe8 9bbe bc68 20be 3d4f 8a3e
00000010: a410 7cbc fa57 883d b577 46bd 256a 19be
00000020: 8017 3fbe 52d6 2e3f 365c 2cbe c369 c4be
00000030: a8d6 0e3f f947 83be 987c 133e e123 3d3e
00000040: 0e94 5c3e c12e 923e c8a5 49be b517 4c3f
00000050: 759e 7abd eea1 713e a71d d43c f8d4 b3bd
00000060: ba9a d93d a494 c5bd 25d7 a7bd 992d cbbe
00000070: 7851 4bbe afc9 6e3d 1ce3 633d 1633 743f
