checkpt/influence/2_1_fedl_global_500.pth (torch, 61495 bytes, 5 tensors)

layer_1.weight f4 [64, 197]
000000 1f 39 77 3d a6 01 d9 bc 13 13 bf 3c 9f 0f 01 3c
       0.06035721 -0.026490044 0.023324525 0.0078772595
000010 09 51 97 3d aa d5 36 bd 9d 03 ca bc c3 0e a6 3a
       0.07388503 -0.04463736 -0.024659926 0.0012669194
000020 41 27 25 3d 81 f2 a0 3c e7 ee 63 3d c1 7a 1c 3d
       0.04032064 0.019646885 0.055647757 0.038203005
000030 51 7d d8 3c 7d 60 ea ba bb 9f af 3b 61 88 13 3d
       0.026426943 -0.0017881539 0.0053596175 0.036018733
000040 1c 49 8c 3d 90 bc 4e 3d 5c 0e 85 3c 5f f6 36 bd
       0.06849882 0.050472796 0.016242199 -0.04466855
000050 00 b7 4c 3d 5e 4a 0a bd fa 7c 9f 3c 43 7a f0 bc
       0.04997921 -0.03376233 0.019468773 -0.029355174
000060 81 06 87 bc f9 e6 cd 3d 11 7d 21 bd df da 4f 3d
       -0.016482593 0.1005382 -0.039425913 0.05074584
000070 9f bb c5 3d c4 6f 84 3b f6 dc 19 3c f8 f5 01 3d
       0.096549265 0.004041644 0.00939106 0.031728715
000080 91 cd d2 3c d1 d7 50 bd 07 96 9d bd cf 46 56 3c
       0.025732787 -0.05098707 -0.07694631 0.0130784055
000090 b6 4f 88 bc e4 fa e7 3c ba 6c 69 3c 40 b7 bd bb
       -0.016639572 0.028317876 0.014247114 -0.0057896674
0000a0 a6 e5 5a bc 54 59 44 bd 33 cd bd 3b 1a 32 89 bd
       -0.0133604165 -0.047936752 0.005792284 -0.06699009
0000b0 c6 6d d4 bd e4 ed 99 3d ac ab 0f 3d 1a 7f 9b 3d
       -0.103725 0.07516077 0.03507583 0.07592602
0000c0 7a 61 57 3b 4d f9 15 3d 61 f1 c4 3d cf ca ae bc
       0.0032864497 0.036614705 0.09616352 -0.021336941
0000d0 9c 4f 96 3d 7d 6f c3 3d f1 e4 87 bd 3f ea 46 3c
       0.07339403 0.09542749 -0.06635464 0.01214081
0000e0 3f 73 0d 3d da c1 00 bd 70 0e cb bd f8 f3 b3 bc
       0.034533735 -0.03143487 -0.09914863 -0.02196692
0000f0 cd 04 c8 3d 84 ff 48 3d b6 07 e9 bd 55 c6 0d bb
       0.09766541 0.049071804 -0.11378424 -0.0021633108
000100 d1 10 64 3d 73 e8 0b bd 2a af f7 3b 11 3a 89 3d
       0.0556801 -0.034157228 0.007558723 0.067005284
000110 09 48 d1 bd 78 bc 08 bc fc 5c e8 bc 79 bd 0e bd
       -0.10218818 -0.008345716 -0.02836465 -0.034848664
000120 04 21 9b bd d1 6a 74 bc 5c 65 02 3d df 63 7d bd
       -0.075746566 -0.014918045 0.031834945 -0.061862823
000130 a9 e6 f9 3c 14 6f 72 bd 54 8f cf bd 48 70 14 bd
       0.030505495 -0.059187964 -0.101347595 -0.036239892
000140 f0 a0 01 be 4c e4 c8 3d d1 1c 09 3d df c5 fa 3c
       -0.12659049 0.09809169 0.033474747 0.03061193
000150 bf 3e 9e bc b4 0a 4b 3c 9f e4 50 3d 31 82 7c bd
       -0.019317029 0.012392689 0.05099928 -0.061647598
000160 31 ad 4f bd a1 a5 5d 3c a6 be 1b bd d4 0c 6e 3d
       -0.050702278 0.013528259 -0.038023613 0.058117703
000170 e9 9b 10 bd 20 7d 56 bd 57 32 49 bc 09 41 b1 3c
       -0.035304938 -0.052365422 -0.012280068 0.021637456
000180 50 66 81 bb 16 f8 1d 3e 59 2a c5 3c 2c 46 34 3a
       -0.003948964 0.15426669 0.024068044 0.00068769115
000190 51 4b 0c bd 54 10 74 ba 33 5f 09 bd ff 65 6a bd
       -0.034251515 -0.00093102944 -0.033538055 -0.057226177
0001a0 b1 4b 5f bd 81 7e d1 bb 9c c4 80 bd f5 9e ac 3c
       -0.054515544 -0.0063932543 -0.062875 0.02107189
0001b0 64 80 23 3d 02 48 98 bd 61 aa 42 3d 86 fe 81 3d
       0.039917365 -0.074356094 0.047525767 0.063473746
0001c0 f0 fa b0 bc e1 c3 2e bd d7 f7 ad 3a cf 78 05 3c
       -0.021604031 -0.042667273 0.0013272715 0.008146479
0001d0 b1 2f 65 3d f0 2a 8b 3d b4 7a 91 bd 2c 27 da 3d
       0.055953685 0.06795299 -0.07103482 0.10652003
0001e0 40 da 0e bd 92 8c 99 bd df 46 fe 3c 88 69 05 bc
       -0.03487611 -0.07497515 0.031039653 -0.008142836
0001f0 ff e8 78 bd ad 49 41 bd 38 9c 83 3d a6 b3 93 bc
       -0.060769077 -0.047189403 0.06426281 -0.018029999
000200 11 34 86 3d dc 0c 02 bc 1f 96 f4 3d 64 ec 38 bd
       0.065529 -0.007937636 0.11942696 -0.045147315
000210 9f ae 30 3c 17 c0 44 bd d7 fd 02 bc 2c cb 53 bd
       0.01078382 -0.048034754 -0.00799509 -0.05170743
000220 2d 08 ba bc f4 10 a7 bd 86 7f 61 3d aa c8 5e bd
       -0.022708977 -0.081575304 0.055053256 -0.054390587
000230 71 db d1 ba ff 73 5b 3d e7 90 96 3c 4c 1f f5 bc
       -0.0016010833 0.05357742 0.018379642 -0.02992215
000240 d2 7a 0e be 30 0c 7b bb b0 06 4f 3d 47 99 29 bc
       -0.1391404 -0.0038306825 0.050543487 -0.010351486
000250 64 7b 1d bd 76 ab 9b bd 43 72 b3 bc ef e2 02 3c
       -0.038447753 -0.07601063 -0.02190507 0.0079886755
000260 ec 2f 90 3d d0 d2 96 3d 87 3e 83 3e ac a5 ef bb
       0.0704039 0.07364428 0.25633642 -0.007313451
000270 86 0e cb 3c 5f bc e9 bc e3 5e e6 bd 0f 58 c4 bc
       0.024787199 -0.028532205 -0.11248567 -0.02396777
000280 33 d4 34 bd 34 f0 20 3d e1 3e 66 bd b1 79 9d bc
       -0.04414768 0.039291576 -0.05621231 -0.019223066
000290 46 f4 d4 bd 31 a0 52 bb 84 ca 8b bc 03 4f d4 ba
       -0.10398154 -0.0032138939 -0.01706434 -0.0016197864
0002a0 da b8 b1 3b c9 2f 29 3d 89 da 63 3c 29 85 22 bd
       0.0054236474 0.041305337 0.013907083 -0.039677773
0002b0 f4 4d d5 bd fb 3d a3 3d 44 74 60 3d df 4c 9d bc
       -0.10415259 0.07970806 0.05479838 -0.019201694
0002c0 b6 f1 fb bc 09 0c c9 3d 61 f6 83 bd e0 8d cb bc
       -0.030754905 0.09816749 -0.064434774 -0.024847925
0002d0 2a 0f ab 3c b9 87 70 bd 86 5a 84 bd 81 35 7b 3c
       0.020881254 -0.058723185 -0.064625785 0.015332581
0002e0 97 1e b9 3b 5d f3 20 3e 5c e4 97 3b 9f a1 45 3d
       0.0056493985 0.15717836 0.004635377 0.048249837
0002f0 7c 7f 96 3d d9 d9 24 3d 95 d9 0d bc 15 5b 04 3c
       0.073485345 0.04024682 -0.008657833 0.008078356
000300 f3 54 9d bc c9 41 98 bd c9 30 ce 3c b1 da 52 bd
       -0.019205546 -0.074344225 0.025169747 -0.05147809
000310 63 a5 ad bc 00 66 ca 3a c7 d0 0d 3d 4a af 6a bd
       -0.021197027 0.0015441775 0.034622934 -0.057296075
000320 f0 5f 67 3c 5d 04 7f bd 0f d9 73 3d b0 1f 3b 3c
       0.014121994 -0.06226002 0.059533175 0.011421129
000330 1e f2 9e 3c a6 04 a4 3c 1a e0 6b bc f7 73 70 3d
       0.01940256 0.020021748 -0.014396692 0.058704343
000340 56 23 8f bb 0c 85 85 bc ed ff 0c 3d 4c 28 b4 bd
       -0.004368226 -0.016298793 0.034423757 -0.087967485
000350 4f 92 26 3d 57 87 aa 3c af bb 89 3d 39 90 03 ba
       0.040666874 0.020816488 0.06725251 -0.0005018744
000360 9a ac a1 bc d7 97 15 3b 7c c2 90 bc cc 18 55 3c
       -0.019735623 0.00228261 -0.017670862 0.0130064
000370 93 23 6a 3d aa 40 b3 3d f4 84 86 3c b1 24 3d bd
       0.057162832 0.08752568 0.016420819 -0.04617757
000380 21 83 64 bd 09 1e 8c bd 07 33 2f 3d 51 45 ec 3a
       -0.055789117 -0.06841666 0.042773273 0.0018026029
000390 4f be aa bc 0c 23 64 3d 6d f7 da 3c 5d 14 1f 3d
       -0.0208427 0.055697486 0.02672931 0.03883778
0003a0 c9 6c 7f bd 9e ca 9b 3c dc 11 1a bd 61 e9 af 3a
       -0.062359605 0.019017514 -0.03761469 0.0013420993
0003b0 f1 07 7e bd 83 a5 3b bd 06 5e 32 3c 3a 27 4c bd
       -0.062019292 -0.04581214 0.010886675 -0.049842097
0003c0 8f f2 bf 3d b4 ca 82 bc 49 82 52 bd f1 05 08 bd
       0.09372436 -0.015965797 -0.05139378 -0.03320879
0003d0 07 d6 19 3d ec 23 56 3c 1c a4 23 3d 32 c7 15 3a
       0.037557628 0.013070088 0.03995143 0.00057135813
0003e0 a3 e9 4e bd b0 68 81 bd 39 d3 87 bd dd a6 aa 3d
       -0.050515782 -0.06318796 -0.066320844 0.08332608
0003f0 70 d0 74 bd 7c 14 2d bb 2f f0 ca bd f9 e0 a5 bb
       -0.059769094 -0.0026409915 -0.09909093 -0.005062219

layer_1.bias f4 [64]
000000 ad d4 54 3c 1c 5f 0c bd 2d 30 ab bd 4d 3f d3 3c
       0.012990159 -0.03427039 -0.08358798 0.02578702
000010 00 1b 05 3e 50 41 ff bb ac 2d a0 be c0 8b 02 bd
       0.12998581 -0.0077897683 -0.31284845 -0.031871557
000020 17 66 23 3e d7 b9 32 bc e1 1d 15 3d 0f 71 46 be
       0.15956913 -0.0109085655 0.036405448 -0.19379066
000030 8f ca 64 3d 29 a1 88 3e 65 4f 81 bb 77 01 af 3c
       0.055857237 0.26685455 -0.003946232 0.021363003
000040 93 4e 6e bd f9 e7 39 be 80 86 10 3e c4 bc 17 3e
       -0.058180403 -0.18154897 0.14113808 0.14818102
000050 e1 95 c0 bd b0 e7 cf bd 49 20 cc bd d4 72 0c bd
       -0.09403587 -0.10151613 -0.099670954 -0.034289196
000060 a7 54 0c 3b 56 99 af bb 8d e1 2c 3c 20 16 d0 3d
       0.0021412761 -0.0053588552 0.010551822 0.1016047
000070 27 5d 81 bd 43 62 06 be 6c 4a b4 be 54 5b 3f 3e
       -0.063165955 -0.13123421 -0.3521303 0.18687183
000080 af bf 08 3d 1c d5 37 3c c4 b2 9f 3c 54 b0 09 bc
       0.03338593 0.011220243 0.019494422 -0.008403856
000090 75 26 a4 3e 3c 37 d0 bd 21 07 c4 ba 5d 8f 37 bc
       0.3206059 -0.10166785 -0.0014955738 -0.011203614
0000a0 8d 6f 67 3e e6 8d e6 3d ac 84 a1 bd 39 3f de 3e
       0.22601147 0.11257534 -0.07886633 0.4340761
0000b0 e7 55 16 be 59 fe 8e bc 8a 47 7e 3d ed f5 45 3c
       -0.14681207 -0.017455267 0.062079944 0.012082559
0000c0 23 36 86 3d 83 da 12 be d7 1b 07 bd d3 84 6e 3e
       0.065532945 -0.14341168 -0.032985535 0.23292856
0000d0 e4 a2 b1 3d a1 fa 35 3d 07 31 b1 3c 27 98 1a bd
       0.08673647 0.04442847 0.021629823 -0.03774276
0000e0 cf 93 c6 3d ae 9f 0d be c4 ac 03 bc f0 86 3c bd
       0.09696161 -0.13830444 -0.008036796 -0.046027124
0000f0 4b 1f ad 3c ed f2 2f 3e d9 61 92 3d fd b6 1e bd
       0.021133086 0.17182513 0.07147569 -0.03874873

layer_2.weight f4 [32, 64]
000000 3a a1 7b 3d 25 d0 ac bd 3c bb 99 bd 33 b6 b0 bd
       0.061433055 -0.08438138 -0.07506415 -0.08628502
000010 c9 d7 ba bd b4 3c 06 be 3a 92 c6 bd 3a c8 0b 3e
       -0.09123189 -0.13109094 -0.09695859 0.13650599
000020 36 39 f0 3d 10 81 0d bd 69 75 8c 3d fa 96 af 3c
       0.11729662 -0.03454691 0.06858332 0.021434296
000030 b3 98 96 3d 79 c9 09 3d a3 79 b2 bd dd 87 f1 bc
       0.07353344 0.033639405 -0.087146066 -0.02948373
000040 f0 b1 d3 3d 0e 7d 1e 3e 96 13 52 3d b7 90 02 3e
       0.10336673 0.15477392 0.05128821 0.12750517
000050 4a 07 d7 3d fd e2 d1 bc 4d 1f ee bd 4f 27 c6 bd
       0.10499437 -0.025620932 -0.11627064 -0.09675466
000060 c4 e5 ac 3d 03 7a b7 bd af 9a ff 3d b1 3c c9 3c
       0.08442262 -0.08958819 0.124806754 0.024565073
000070 24 1f 3b bd 6c f5 bf 3d 0f da b2 bc 11 86 10 3d
       -0.045683995 0.093729824 -0.021832494 0.035284106
000080 69 92 67 bc 77 60 0c 3d cc 78 c2 bd fd be 03 bd
       -0.014134028 0.034271684 -0.094956964 -0.032164562
000090 43 77 7e 3d 81 72 ad 3d 96 b2 e4 bd 63 58 e2 3d
       0.062125456 0.084691055 -0.11166875 0.11052015
0000a0 d4 b3 ef 3d c0 03 6e bc ac 52 98 bd bf 3e ee bd
       0.11704221 -0.014527261 -0.074376434 -0.116330616
0000b0 30 1e f7 bd 76 54 e6 bc 83 46 b4 3c ff fe c3 3d
       -0.12066305 -0.028116446 0.022006279 0.09570121
0000c0 cf a0 ef 3d 4d 2b 0d be bd f8 41 ba aa b7 a1 3d
       0.11700594 -0.13786049 -0.00073994306 0.07896359
0000d0 cc 97 bf bd 08 5c 0a 3c 93 69 a9 3d 39 6a ad bd
       -0.09355125 0.0084447935 0.0827209 -0.08467526
0000e0 6f c5 9d bc 27 19 08 be c6 6c 6f bd 93 6c 99 3d
       -0.019259183 -0.13290845 -0.058453344 0.07491412
0000f0 e9 c7 dc 3d 7a 04 70 3d 54 e9 1e be d9 bc a7 bd
       0.10780317 0.05859802 -0.15518695 -0.08190317
000100 59 03 a1 bc fb 15 a3 3d 69 d5 e0 bd 70 18 d9 3d
       -0.019654917 0.07963177 -0.10978205 0.10600364
000110 09 80 f7 bd a6 73 54 3c 3f 80 dc bd aa b4 f4 3c
       -0.12084968 0.012967026 -0.107666485 0.029871304
000120 e3 e7 9b 3c 90 36 9b 3d 77 a3 aa 3c cf 99 91 bd
       0.01903147 0.07578766 0.0208299 -0.07109415
000130 c3 52 af 3d e9 2f 0c bd 43 48 98 bd e1 f5 d8 3c
       0.085607074 -0.03422538 -0.07435658 0.026484432
000140 9f 42 0e 3e 0c 60 72 3c f3 81 88 3d 46 3c c6 bc
       0.13892601 0.014793407 0.06665411 -0.024198662
000150 84 ee 90 bd 1c 33 4c 3c 7f fb 31 3d 4c 9b fc bd
       -0.07076743 0.012463357 0.043452736 -0.12334308
000160 2a fc da 3d a1 56 17 3c 44 72 eb 3c 17 91 bc bd
       0.10692628 0.009236963 0.02874101 -0.09207361
000170 4a 96 6a 3d 16 e4 8b bd 5d 7b ef bd fc 85 0f 3d
       0.057272233 -0.06830613 -0.116934516 0.035039887
000180 66 dc 84 bd b1 18 dc bd f7 0e 93 3d 47 eb 44 bd
       -0.0648735 -0.10746897 0.07180589 -0.04807594
000190 10 b2 cf bc 79 45 be 3c 8f cb 01 be a1 4d 79 3d
       -0.025353462 0.023226487 -0.12675308 0.06086505
0001a0 f8 c4 80 3d 0f 50 17 bd b7 fd b9 3c 65 95 b5 3d
       0.06287569 -0.036941584 0.022703988 0.08866385
0001b0 fc 76 5b bd 44 a0 a5 bb 73 fb ec 3c a2 64 11 3d
       -0.05358027 -0.0050545055 0.028928494 0.03549636
0001c0 6d c5 fc 3d 40 1e e7 bd fc bd aa 3d 4d d4 98 3d
       0.123423435 -0.112850666 0.08337018 0.07462368
0001d0 27 cf ef bd 1c 57 ad bd ca 93 98 bd bc 34 8f bd
       -0.11709433 -0.084638804 -0.074500635 -0.0699248
0001e0 f7 0d 44 bd c1 ef 84 bd 37 be ce 3d 31 29 21 bd
       -0.04786488 -0.06491042 0.10094874 -0.039345924
0001f0 d0 56 84 bd e1 ea b4 bd 56 dc 03 3e 18 ae b9 bd
       -0.06461871 -0.08833862 0.1287702 -0.09066409
000200 ea 56 d2 3c 60 74 c9 bd 51 8a 56 3e 7d e2 3a be
       0.02567621 -0.0983665 0.20951201 -0.18250461
000210 f6 38 ef bd 83 48 eb 3d 14 31 63 3e 4c 78 c1 3d
       -0.11680786 0.1148844 0.2218669 0.09446773
000220 69 82 08 be f4 73 c7 3d ac 74 6a 3c 2d 0f 0d 3e
       -0.13330998 0.09738913 0.014310043 0.1377532
000230 ba f5 34 3e e0 c8 be be c7 74 74 bc d7 05 3f be
       0.17671862 -0.3726263 -0.01492042 -0.18654571
000240 5b ee 2c be 37 7d 50 3e 9a 39 8c be 2f c8 2c be
       -0.168878 0.20360266 -0.27387697 -0.16873239
000250 50 45 b5 bd 7c 8b 6f 3e c6 32 35 3e 05 98 34 bd
       -0.08851111 0.23393053 0.1769515 -0.04409029
000260 c2 a0 28 3e a3 e6 9a 3d 41 ad 35 bd 94 5c 77 be
       0.16467574 0.07563522 -0.04435468 -0.2415641
000270 50 4d a0 bb cc 25 57 3e 59 65 6b 3e 6c 71 3f be
       -0.004892029 0.21010512 0.2298788 -0.18695611
000280 fa 03 0c be 9b dd 0f bd 6f 61 1d be 2e 86 04 be
       -0.13673392 -0.03512345 -0.15369199 -0.1294181
000290 b7 47 8c be 64 5a 92 bc 10 ca a5 3b 65 28 15 be
       -0.27398464 -0.017865367 0.005059488 -0.1456619
0002a0 d7 ce 11 be d4 4f ba bd 6c 94 57 3e 1a 59 31 be
       -0.1423906 -0.09097257 0.21052712 -0.17319146
0002b0 00 1a 97 3d 30 59 c5 ba 69 3c 64 be 52 c0 92 bd
       0.07378006 -0.0015056487 -0.2228867 -0.071655884
0002c0 f4 32 03 bc 23 24 80 3e 06 b1 1c 3e 23 32 56 be
       -0.008007754 0.2502757 0.15301904 -0.20917563
0002d0 e9 16 c6 bd f1 43 41 be a3 c9 cb bd 27 69 4c be
       -0.096723385 -0.18873574 -0.099505685 -0.19961987
0002e0 75 92 36 be f1 8f d3 3d 74 f3 25 3d c2 f8 19 be
       -0.17829306 0.10330189 0.040515378 -0.150363
0002f0 bf fa 48 be 9f b1 34 3c b6 b8 c5 3d 57 fc 2e 3e
       -0.19626902 0.011028676 0.096543714 0.17088448
000300 f6 bf 98 bd 82 71 b7 3d 33 f1 b5 3d ba bc b1 bd
       -0.07458489 0.08957197 0.08883896 -0.08678575
000310 e6 13 96 bd b0 2c c3 3d f1 7d 0a 3d 84 3e 13 bd
       -0.07328014 0.09530008 0.033811513 -0.03594829
000320 4c 5f b7 3d a9 1e 3c bd 0e 9d 23 3e a4 28 8b 3d
       0.08953723 -0.045927677 0.1597788 0.06794861
000330 a4 0f 0e 3e b0 a0 80 3b 70 ed 12 3e b7 63 e6 3d
       0.13873154 0.0039254054 0.14348388 0.11249488
000340 96 81 ec bd 0c a6 c1 3d 04 26 02 be 3c b3 0e be
       -0.11548154 0.09455499 -0.12709814 -0.1393556
000350 6f 08 ec bd ad c6 c7 3d 0a a1 72 bd 2d 3f 94 3d
       -0.11525046 0.09754691 -0.05923561 0.07238612
000360 a9 2c 8d 3c b6 5c 04 3d 52 d3 14 3e 73 73 f4 bb
       0.01723321 0.03231498 0.14533737 -0.0074600517
000370 dc 36 1b be 46 ff 4e bd 44 c0 be bd 46 16 d7 bb
       -0.15157646 -0.050536416 -0.093140155 -0.0065639345
000380 c7 35 46 bc 94 27 82 3d ec 9a cb bd f3 b3 13 be
       -0.012097782 0.06355205 -0.099416584 -0.14424114
000390 6c 68 82 bd d7 fd 69 3d 08 0c 1d be e3 32 af 3c
       -0.06367573 0.057126846 -0.15336621 0.02138657
0003a0 4f d4 76 3d e1 7f 21 bc e1 75 64 bc f1 dc 46 bc
       0.060261067 -0.009857149 -0.01394412 -0.0121376375
0003b0 43 6c ea bd 46 a0 7d bd 83 80 f5 3c c1 bf 13 bd
       -0.114464305 -0.061920427 0.029968506 -0.036071543
0003c0 3c b8 98 bd 67 47 a2 3d 89 aa a9 bd df 59 10 bd
       -0.07457015 0.07923775 -0.0828448 -0.035241958
0003d0 13 90 81 3d 13 d7 99 bb 0f 91 5f bd c4 71 90 bd
       0.06326308 -0.0046948283 -0.054581698 -0.07052949
0003e0 57 a6 3a bc 4c bf 2b 3e c1 c1 ab 3d 79 54 69 bd
       -0.011392198 0.16772193 0.08386565 -0.056965325
0003f0 25 5a 06 bb a7 28 4a 3d e0 9a e9 3c dc 17 ad 3c
       -0.0020500508 0.049355175 0.028516233 0.021129541

layer_2.bias f4 [32]
000000 57 6a e1 bc e9 bc 2f bd 84 84 18 bf b4 55 87 3d
       -0.027516527 -0.04290477 -0.595772 0.066081434
000010 39 1f ee bd 04 0e 39 3e 26 69 9f 39 2c 44 23 bb
       -0.11627049 0.18071753 0.00030405185 -0.002491246
000020 06 81 18 3d 79 06 f0 bc 86 74 8b bd 07 f2 bd 3d
       0.03723242 -0.029299961 -0.068093345 0.09274679
000030 9e bc 0a 3e 06 5c f7 bd 06 09 eb 3b e5 1e 06 be
       0.13548514 -0.12078099 0.0071727065 -0.13097723
000040 bf 33 eb 3e ce 24 12 3a 53 0f b3 3e 39 0f a0 bd
       0.45937917 0.00055749423 0.3497263 -0.078154035
000050 c9 43 44 3e d1 15 32 be 39 48 da 3d 97 f2 c3 bc
       0.19166483 -0.17391135 0.10658307 -0.023919387
000060 00 47 66 bd 85 73 86 3d 7c c2 91 3d ba 7a d9 3d
       -0.056220055 0.06565002 0.07117173 0.10619111
000070 3b 80 01 3e 63 e7 ca 3d 2c 49 bf 3d 67 04 08 bd
       0.12646572 0.09907415 0.09340128 -0.033207323

layer_3.weight f4 [1, 32]
000000 2c 41 97 be 46 f4 c4 bd 0a 4c 9e 3f 9f 87 09 bf
       -0.2954191 -0.09616904 1.2366955 -0.53722566
000010 13 10 d6 bd 90 59 d4 be 74 e4 f2 bb 13 83 7f 3e
       -0.10452285 -0.4147458 -0.0074124876 0.24952345
000020 36 9f 91 be 06 6a 2f bc 0c 32 c4 3f 6d 09 9d ba
       -0.2844178 -0.01070643 1.5327773 -0.0011980959
000030 cf 0d b6 3d 66 e2 67 3f b4 0a 0a 3f 62 88 81 3e
       0.088893525 0.9057983 0.5392258 0.25299364
000040 66 85 05 bf d0 e6 41 3e 67 8f 03 bf a0 82 64 3f
       -0.52156675 0.18935704 -0.5139069 0.8926182
000050 63 31 d7 be 09 5c c3 3e 49 44 17 3e ff 21 9b 3e
       -0.42029867 0.38156155 0.14772142 0.30299374
000060 e1 2c a9 be 09 0f cb 3d d7 2f aa 3e 4a 87 3c 3e
       -0.33042052 0.09914977 0.33239624 0.18410984
000070 66 8f fc 3e 63 22 d4 3c 03 71 0f 3e 40 23 fb 3d
       0.49328154 0.025895303 0.14007954 0.12262583
