checkpt/influence/2_3_fedl_global_500.pth (torch, 61495 bytes, 5 tensors)

layer_1.weight f4 [64, 197]
0	0xbbd88611	-0.006607779
1	0xbd3b8186	-0.04577782
2	0x3d358bbd	0.044322718
3	0x3ce970d6	0.028496187
4	0x3cfd689f	0.030933676
5	0xbd7579d1	-0.059930626
6	0x3cd9ef9c	0.026603512
7	0x3ba72318	0.005100619
8	0x3d2f2d6e	0.042767935
9	0xbd20473f	-0.039130446
10	0xbda46508	-0.08027083
11	0x3de71e47	0.11285072
12	0xba441520	-0.00074799545
13	0x3b920459	0.0044560847
14	0xbcbc43b3	-0.0229815
15	0xbd46f2e1	-0.04857147
16	0xbb520146	-0.0032044216
17	0x3e0099fe	0.12558743
18	0xbd7a2576	-0.06107088
19	0x3c9964bd	0.018724794
20	0xbbd0aa6b	-0.0063679717
21	0x3b2d479a	0.0026440383
22	0xbcf1b953	-0.029507315
23	0xbd6fbb12	-0.058528014
24	0x3d0c03a8	0.034183174
25	0x3b374f2f	0.002797078
26	0x3c012854	0.00788315
27	0xbd314ee1	-0.043288115
28	0xbd266f4b	-0.04063348
29	0xbc787599	-0.015164756
30	0x3d09eab4	0.033671096
31	0x3c5f06fc	0.013612505
32	0x3cc88ea6	0.024482083
33	0x3c766248	0.0150380805
34	0xbd982ec6	-0.07430796
35	0xbd2eae15	-0.042646486
36	0xbd18632d	-0.037203956
37	0xbd41a364	-0.047274962
38	0x3cdc920d	0.026925111
39	0x3b0f5c60	0.0021875128
40	0xbbb4dde1	-0.005519614
41	0x3b5ab5ef	0.00333726
42	0x3cff2ac4	0.031148322
43	0xbdb7dd00	-0.08977699
44	0xbd98bd30	-0.0745796
45	0xbd0b39af	-0.03399056
46	0x3caa4b53	0.02078787
47	0x3ca901c1	0.02063072
48	0xbd1042d1	-0.03521997
49	0xbd019027	-0.031631615
50	0x3c77b0b5	0.015117814
51	0x3ce3fdb2	0.027830932
52	0x3d4d83d6	0.050174557
53	0xbd7f60b3	-0.06234808
54	0xbdb27c6d	-0.087151386
55	0xbce12996	-0.02748565
56	0xbd48088b	-0.048836272
57	0xbcafeaad	-0.021474207
58	0x3ce0bf71	0.027435036
59	0x3cf2d61c	0.02964311
60	0xbd2895b9	-0.04115841
61	0x3dd747c4	0.10511735
62	0x3d6c35a8	0.057668358
63	0x3d3b9fe4	0.04580678
64	0xbd5215c0	-0.051290274
65	0x3cc66291	0.024216922
66	0x3d53686b	0.051613253
67	0xbc459f1f	-0.012061863
68	0x3d0ce01f	0.034393426
69	0x3cd01768	0.025401786
70	0x3ade3f7a	0.0016956173
71	0x3d3921ef	0.045198377
72	0xbc6750ed	-0.014118415
73	0x3d08ecdd	0.033429015
74	0xbd032001	-0.032012943
75	0x3c930fb8	0.017951831
76	0xbd162e2e	-0.036665134
77	0x3cc28e12	0.023749385
78	0xbc2abebc	-0.010421451
79	0x3d5e444f	0.054264363
80	0x3ca77891	0.020443233
81	0x3d4f12f1	0.050555173
82	0x3dfab033	0.122406386
83	0xbd676bef	-0.056499418
84	0xbca8f49a	-0.020624448
85	0xbd0a57c5	-0.03377511
86	0x3d108ca8	0.03529039
87	0x3ba7228b	0.0051005534
88	0xbd911cef	-0.07085597
89	0x3d8ee288	0.06976801
90	0x3cb83644	0.022486813
91	0x3b7f44d5	0.003895094
92	0xbd3589b1	-0.044320766
93	0xbd2f689f	-0.042824384
94	0xbc9cfb4c	-0.019162796
95	0xbcb25315	-0.021768132
96	0x3d500e5f	0.050794955
97	0x3c5262f9	0.01284098
98	0x3d56b35f	0.052417155
99	0x3b9041cf	0.0044023762
100	0x3d4505c1	0.04810119
101	0x3cfdd288	0.030984178
102	0xbd52a351	-0.051425282
103	0x3d6b7399	0.05748329
104	0x3c672440	0.014107764
105	0xbce1d7dd	-0.027568752
106	0x3cdefb16	0.027219336
107	0x3a90891d	0.0011027191
108	0xbbedd1da	-0.0072576823
109	0xbd16fd4a	-0.03686265
110	0xbda6643d	-0.08124588
111	0xbcb930b5	-0.022606233
112	0x3d401d48	0.046902925
113	0xbcfb92ba	-0.030709613
114	0x3c58c959	0.013231599
115	0x3bb02959	0.005376023
116	0x3d1eedbd	0.038800944
117	0xbc495f93	-0.012290853
118	0xba950de7	-0.0011371941
119	0xbbe9408a	-0.0071182894
120	0x3c40c2e7	0.011765218
121	0xbe09ea72	-0.1346834
122	0x3c467c06	0.01211453
123	0x3d82c489	0.06385142
124	0xbcd30a2f	-0.025761692
125	0x3cec0159	0.028809236
126	0x3c64a0f2	0.013954388
127	0x3d39b1ea	0.045335688
128	0xbcabe649	-0.020983832
129	0x3c960c08	0.018316284
130	0xbcf6e463	-0.0301382
131	0x3bebcf28	0.007196326
132	0x3d813f73	0.0631093
133	0xbd61e521	-0.055150155
134	0xbcc4c90b	-0.024021646
135	0x3c5d582b	0.01350979
136	0xbca3b2c4	-0.019982703
137	0x3cf55d48	0.029951707
138	0xbccda62a	-0.025103647
139	0xbc193cf7	-0.009352914
140	0xbd52fa71	-0.05150837
141	0x3cae6aa0	0.021291077
142	0xbaf5e711	-0.001876088
143	0x3d8f0a8d	0.06984434
144	0x3dbd401c	0.092407435
145	0xbd23127b	-0.039812546
146	0xbb42ba20	-0.002971299
147	0x3be67f60	0.0070342273
148	0x3ce881ee	0.028382268
149	0xbd04ae48	-0.03239277
150	0xbc99c783	-0.018771892
151	0xbdc20b4e	-0.094748124
152	0x3c27c0b4	0.010238815
153	0x3bea2c23	0.007146375
154	0xbb897cdd	-0.004195793
155	0x3d47da3d	0.048792113
156	0xbc145eca	-0.009055803
157	0xbd413b3d	-0.047175635
158	0x3cb74b98	0.022374913
159	0xbc7b0ecb	-0.015323351
160	0xbcbc724f	-0.023003725
161	0xbc9375d1	-0.018000515
162	0x3c8a1371	0.016854974
163	0x3d2f8b96	0.04285773
164	0xbcdad0dc	-0.02671092
165	0xbc605783	-0.013692739
166	0x3c11b0d3	0.008892256
167	0x3cc98d15	0.024603406
168	0x3d642ca4	0.055706635
169	0x3c42d71c	0.011892106
170	0x3cb69533	0.02228794
171	0xbd651fc0	-0.055938482
172	0xbc9c6d9a	-0.01909523
173	0xbd133ce1	-0.03594673
174	0xbd11b0ee	-0.035569124
175	0xbbbf8b80	-0.005845487
176	0x3b053d52	0.002033074
177	0xbc53d65f	-0.012929528
178	0x3d66c33a	0.056338526
179	0xbb85bc07	-0.0040812525
180	0xbaccd1b5	-0.0015626462
181	0x3d2abe68	0.04168549
182	0xbcd1b92f	-0.025600998
183	0x3cdbcb51	0.026830347
184	0x3c247893	0.010038513
185	0x3cc0df3d	0.023543948
186	0x3cbc8935	0.023014644
187	0xbb0875c0	-0.0020822138
188	0x3d50521a	0.05085955
189	0x3c8d2cfd	0.017233366
190	0xbcba9ec8	-0.02278079
191	0x3cd3d24a	0.02585711
192	0xbc49957d	-0.012303707
193	0xbd324eaa	-0.04353205
194	0xbbb45b72	-0.005504065
195	0xbd7d86aa	-0.061896004
196	0x3cb1bbb8	0.021695957
197	0x3ced36c6	0.028956782
198	0xbc6f95b9	-0.014623099
199	0xbcd74243	-0.026276713
200	0xbce16907	-0.027515901
201	0xbd14597f	-0.036218163
202	0xbd86b7d7	-0.065780334
203	0x3d2265d5	0.039647896
204	0xbd302b24	-0.043009892
205	0x3cb96333	0.02263031
206	0x3d91d14a	0.07119997
207	0x3d0fc746	0.03510215
208	0xbbd3dba1	-0.006465391
209	0xbd8ee633	-0.06977501
210	0x3d61556e	0.055013113
211	0xbd8c597f	-0.068530075
212	0x3d809f09	0.062803335
213	0xbc4d1cf9	-0.012519115
214	0xbd81f0d1	-0.0634476
215	0xbd183f76	-0.037169896
216	0x3c254a66	0.010088539
217	0x3d27cebd	0.040968645
218	0x3c93f523	0.018061226
219	0x3c8d6f39	0.01726495
220	0xbcec0393	-0.028810298
221	0x3cd9008a	0.026489515
222	0x3d5a8db1	0.053357784
223	0xbd11b51a	-0.035573103
224	0xbd8c6a89	-0.068562575
225	0x3c84a228	0.016190603
226	0xbcbe0aab	-0.023198446
227	0xbc010860	-0.007875532
228	0x3d49c640	0.04926133
229	0x3d1bb6e3	0.03801621
230	0x3bf6cf26	0.0075320182
231	0xbcda304e	-0.026634362
232	0x3d383d13	0.04498012
233	0x3c330c20	0.010928184
234	0x3a101c9b	0.00054974266
235	0xbd1ba886	-0.038002513
236	0x3cef6291	0.029221805
237	0x3d946dc3	0.07247498
238	0xbd69d1b6	-0.05708476
239	0xbd27117c	-0.04078816
240	0x3dc5c7a4	0.09657219
241	0xbd60c299	-0.054873083
242	0xbd2d6226	-0.04232993
243	0x3c94d5bf	0.018168328
244	0xbd040fc0	-0.032241583
245	0xbc332f4e	-0.010936571
246	0xbc264bbc	-0.010149892
247	0xbcada6e1	-0.021197738
248	0x3ca9110f	0.020638017
249	0xbcd1324e	-0.025536682
250	0x3d871b73	0.065970324
251	0xbda8ffdd	-0.08251927
252	0xbd6ddaa1	-0.05806983
253	0xbcbbcbc1	-0.022924306
254	0xbd0cddbb	-0.034391146
255	0x3d0d8456	0.034550034

layer_1.bias f4 [64]
0	0xbdfb3481	-0.12265874
1	0x3be4b76a	0.0069798725
2	0xbd515f9d	-0.051116575
3	0x3dfe51d9	0.12417955
4	0xbd8a00f9	-0.06738467
5	0x3d966a9a	0.073445514
6	0xbcf9e5e7	-0.030505134
7	0xbe0b0437	-0.13575827
8	0xbc068e91	-0.008212701
9	0xbcae71ca	-0.021294493
10	0x3be2cf23	0.0069216653
11	0x3d8bd0f6	0.068269655
12	0x3bc15ba1	0.0059008156
13	0x3d989659	0.074505515
14	0x3d48b4f5	0.0490007
15	0x3dfa6848	0.12226921
16	0xbe04896e	-0.1294305
17	0xbcfb00c1	-0.030640008
18	0x3d52bd4f	0.05145007
19	0x3de4646d	0.11151967
20	0x3b6cce38	0.0036133658
21	0x3dd94ebd	0.10610721
22	0x3e18c59c	0.14919132
23	0xbc30643c	-0.010766085
24	0x3d8a3095	0.067475475
25	0xbce04f0e	-0.027381446
26	0x3d841bbf	0.06450605
27	0x3c79f61c	0.015256431
28	0x3d10901f	0.035293695
29	0xbe1d535f	-0.15363835
30	0x3d814733	0.06312408
31	0xbde5fbc8	-0.11229664
32	0x3cd52d21	0.026022496
33	0x3cae26a7	0.021258665
34	0x3dbb3b4d	0.0914217
35	0x3df4ef2a	0.119596794
36	0x3e68137d	0.22663684
37	0xbd303543	-0.043019544
38	0x3dd32684	0.10310081
39	0x3e055ef6	0.13024506
40	0x3cc889b1	0.024479719
41	0x3d98f2c8	0.07468182
42	0xbc8642a4	-0.016389199
43	0xbd87ea64	-0.06636503
44	0xbcade99c	-0.021229558
45	0xbd31454c	-0.043278977
46	0x3cb27b6b	0.021787366
47	0x3d432f23	0.047652375
48	0x3bdde7fa	0.0067720385
49	0x3d565d78	0.052335232
50	0xbd16ad33	-0.03678627
51	0x3dbe225f	0.092838995
52	0xbcecc5c0	-0.028902888
53	0x3dc28f16	0.09499948
54	0xbd885175	-0.06656162
55	0xbc7d52d5	-0.015461643
56	0xbcd082b6	-0.025452953
57	0x3e1af82f	0.15133737
58	0x3cbe034d	0.023194933
59	0x3c8185ff	0.015810965
60	0xbc582e1c	-0.013194587
61	0x3da0b26a	0.0784653
62	0xbd613278	-0.05497977
63	0xbd2a351b	-0.04155455

layer_2.weight f4 [32, 64]
0	0xbd847756	-0.06468074
1	0x3dbc78f1	0.09202755
2	0xbcaca8c7	-0.021076573
3	0xbd5b9c16	-0.053615652
4	0xbcb8ec19	-0.022573518
5	0x3e26eb32	0.16300657
6	0x3e02f321	0.12788059
7	0x3b0b5dc6	0.002126561
8	0x3cc1cc72	0.023657057
9	0x3d2913b1	0.041278545
10	0x3de7aa9f	0.1131184
11	0xbd8c8b40	-0.06862497
12	0xbde8369a	-0.113385394
13	0xbd214504	-0.03937246
14	0xbdd852f1	-0.10562695
15	0xbdb3ac1f	-0.08773064
16	0xbce068fa	-0.027393807
17	0x3dcfb9ce	0.10142861
18	0x3dbe816f	0.09302031
19	0x3c8258bf	0.015911458
20	0x3b10973d	0.0022062801
21	0xbd1da3ef	-0.038486417
22	0x3d2ae66b	0.04172365
23	0xbdbd60f8	-0.09247011
24	0x3e03e225	0.12879236
25	0xbdaa6f10	-0.08321965
26	0x3daf15a8	0.085490525
27	0xbc8d40c6	-0.0172428
28	0x3dca204d	0.09869442
29	0xbd7fbe51	-0.06243736
30	0xbd1935d7	-0.03740486
31	0x3d578451	0.05261642
32	0xbc89c640	-0.016818166
33	0xbd7005f5	-0.05859943
34	0xbd3ed608	-0.046590835
35	0x3dfac655	0.1224486
36	0x3db1833c	0.08667609
37	0x3dfbb301	0.12290002
38	0x3d11c17a	0.035584904
39	0xbd4cb275	-0.049974877
40	0xbde65d88	-0.112483084
41	0x3c9e60e0	0.019333303
42	0xbdc5424b	-0.09631785
43	0x3d0b528f	0.03401428
44	0xbcea121a	-0.028573085
45	0xbdc47372	-0.09592332
46	0xbd918659	-0.07105703
47	0xbda667a3	-0.08125236
48	0xbd3d3d5f	-0.046201106
49	0xbd380c2e	-0.04493349
50	0x3d437c53	0.047725987
51	0xbb9633aa	-0.0045837956
52	0x3dec82d2	0.115483895
53	0x3d161966	0.036645316
54	0xbc9da6cf	-0.01924458
55	0xbdf66a79	-0.12032027
56	0xbc876a80	-0.016530275
57	0x3dc04603	0.09388354
58	0xbd8b1edd	-0.06792996
59	0xbe200b2f	-0.15629266
60	0xbcfde986	-0.030995142
61	0xbc469c03	-0.012122157
62	0xbd98f28f	-0.074681394
63	0xbdc085cf	-0.09400522
64	0xba9b983e	-0.0011870933
65	0xbd0b9b69	-0.034083758
66	0x3dd1ca9d	0.102437235
67	0xbe14077f	-0.14455985
68	0x3e0b3dd9	0.13597812
69	0x3e27c3a3	0.16383223
70	0xbd45fadf	-0.048334952
71	0x3d86aa9d	0.06575511
72	0x3d98e29d	0.07465098
73	0x3e0dcb3f	0.13847063
74	0xbdba92aa	-0.09110005
75	0xbcc1f1d1	-0.023674877
76	0x3df3ea6d	0.119099475
77	0xbd37f240	-0.044908762
78	0xbde1761f	-0.11008858
79	0xbde31778	-0.11088461
80	0x3de0b4c8	0.10971981
81	0x3df9e76e	0.12202345
82	0x3dc562f8	0.096380174
83	0xbc8671e8	-0.016411737
84	0xbd3bffe7	-0.045898344
85	0x3d243a48	0.040094644
86	0xbb82b9bc	-0.0039894264
87	0x3b948914	0.0045329425
88	0xbded49ea	-0.115863636
89	0x3e248a3a	0.16068354
90	0xbca3bf88	-0.01998879
91	0x3dd2eff1	0.102996714
92	0x3e0724dd	0.13197656
93	0x3dce201f	0.1006472
94	0xbd724a6e	-0.059153013
95	0xbd99a81d	-0.07502768
96	0x3dc8589d	0.09782527
97	0x3cde1b53	0.027112639
98	0x3d0d1eed	0.03445332
99	0x3d5e689c	0.054298982
100	0xbd7ab138	-0.061204165
101	0xbdd4bd76	-0.10387699
102	0xbdd602ef	-0.10449778
103	0xbd4fa2ff	-0.050692555
104	0xbd839235	-0.06424371
105	0xbd45fba4	-0.048335686
106	0xbe11ff1d	-0.14257474
107	0x3c02b076	0.007976642
108	0xbd334912	-0.043770857
109	0xbdc6afcf	-0.097015016
110	0x3d2ce811	0.042213503
111	0x3ce0fd43	0.027464515
112	0xbd819afd	-0.0632839
113	0xbd95308b	-0.072846495
114	0xbd864435	-0.06555978
115	0xbb85554a	-0.004069005
116	0x3e00633f	0.1253786
117	0xbd7e9315	-0.062151987
118	0xbda5afee	-0.080901965
119	0x3d498bea	0.049205698
120	0xbd36c1c3	-0.04461838
121	0xbd759d53	-0.05996449
122	0xbc95da48	-0.018292561
123	0x3d788220	0.060670972
124	0x3d601f88	0.05471757
125	0x3d19e79e	0.037574403
126	0x3e0736cf	0.13204502
127	0x3d13a5fa	0.03604696
128	0x3e15ad01	0.14616777
129	0x3c35ab98	0.011088274
130	0xbc2514ff	-0.010075807
131	0xbe216a52	-0.15763214
132	0x3db35abc	0.087575406
133	0xbcdcc978	-0.026951537
134	0xbda2fd9f	-0.07958531
135	0x3e30a713	0.17251234
136	0x3dc274b2	0.09494914
137	0x3d439b86	0.04775574
138	0xbdd1c31f	-0.102422945
139	0x3cfc2667	0.03078003
140	0x3d350eca	0.044203557
141	0xbdddc1c0	-0.108279705
142	0x3d8c1622	0.06840159
143	0xbdf4d653	-0.119549416
144	0x3d7b10d9	0.061295364
145	0x3da1d79f	0.079024546
146	0x3d2f04da	0.042729236
147	0xbd9051d3	-0.07046857
148	0x3b8c913f	0.0042897756
149	0x3e0e1587	0.138754
150	0xbe165860	-0.1468215
151	0x3cff2af5	0.031148413
152	0xbe7db00e	-0.24774191
153	0xbce68a9a	-0.028142262
154	0x3d0a814a	0.033814706
155	0x3d9066d9	0.07050867
156	0x3dcbf00b	0.09957894
157	0x3e11f923	0.14255194
158	0xbd420988	-0.04737237
159	0xbdac493c	-0.08412406
160	0x3c5d9815	0.013525029
161	0xbd9cf901	-0.07664681
162	0xbd405483	-0.046955597
163	0x3d16443d	0.03668617
164	0xbde523ff	-0.11188506
165	0x3c534de3	0.012896988
166	0xbdb7e779	-0.08979697
167	0xbd57c626	-0.052679203
168	0xbe0359ad	-0.12827177
169	0x3d3785c0	0.04480529
170	0x3de1c1a7	0.110232644
171	0x3d6b20fd	0.057404507
172	0x3cb5402f	0.022125332
173	0xbc964441	-0.018343093
174	0xbd986f14	-0.074430615
175	0xbd7d64dc	-0.061863765
176	0x3d70af06	0.058760665
177	0xbe15f47f	-0.14644049
178	0xbd86c066	-0.06579666
179	0xbe19125c	-0.1494841
180	0x3df0846f	0.1174401
181	0xbdab85dc	-0.08375141
182	0xbd1a58b8	-0.037682265
183	0xbd9fe0f2	-0.07806577
184	0xbd1f2e6d	-0.038862634
185	0xbd262dfc	-0.040571198
186	0x3e28ecf8	0.16496646
187	0x3e17fb91	0.14842059
188	0xbdb87fa6	-0.09008722
189	0x3d89e9b9	0.06734032
190	0x3e59f424	0.21284539
191	0xbdf05f72	-0.11736955
192	0x3da60d70	0.08108032
193	0x3db9e3a3	0.090766214
194	0xbd26cbc8	-0.040721685
195	0xbd79d423	-0.060993325
196	0x3c2f47ed	0.010698301
197	0x3dfc691a	0.12324734
198	0xbd5bcb26	-0.053660534
199	0xbdeb7364	-0.114966184
200	0x3dbfcce7	0.09365254
201	0xbc9a019d	-0.018799597
202	0x3dc075df	0.09397482
203	0xbda0d584	-0.07853225
204	0x3ce8ba80	0.028409243
205	0xbca058ff	-0.019573687
206	0x3c84d996	0.016217034
207	0xbdc4d68f	-0.09611236
208	0xbd6c39e8	-0.05767241
209	0x3ce28724	0.02765233
210	0xbd02fe05	-0.031980533
211	0xbd4f9ee7	-0.05068865
212	0x3d95f8b6	0.073228285
213	0xbcab8d42	-0.02094138
214	0x3dbb58cb	0.09147795
215	0x3d45f548	0.04832962
216	0xbd872aaa	-0.065999344
217	0x3dc3f136	0.09567492
218	0x3d36ca4e	0.044626527
219	0xbdd3af5d	-0.10336182
220	0xbd17888f	-0.036995467
221	0xbc3c853a	-0.011506373
222	0x3d8f6155	0.070009865
223	0xbda8050e	-0.08204089
224	0x3b33f7eb	0.0027461003
225	0x3dff6c80	0.124718666
226	0xbcf95808	-0.030437484
227	0xbb03ce0f	-0.0020111834
228	0xbbe8a7bd	-0.007100074
229	0x3de2e7a3	0.110793374
230	0xbd01c01d	-0.031677354
231	0x3d579e83	0.052641403
232	0x3d9f9492	0.077920094
233	0x3d827a70	0.06371009
234	0x3e1df6fc	0.15426248
235	0x3e17d708	0.14828122
236	0x3d4b4fd3	0.049636673
237	0xbd50f946	-0.051018976
238	0xbd2e43b8	-0.04254505
239	0xbd90c84b	-0.07069453
240	0x3d631cca	0.055447377
241	0xbd4daa0d	-0.050211
242	0x3dc98c41	0.098412044
243	0x3d2ca515	0.042149622
244	0xbd822a04	-0.0635567
245	0x3de588e1	0.11207748
246	0x3dd9127a	0.10599227
247	0x3e0dfbde	0.13865611
248	0x3de26a2e	0.110554084
249	0x3d5c4748	0.053778917
250	0xbe03dfa0	-0.12878275
251	0xbdd86552	-0.105662
252	0xbdb58853	-0.088638924
253	0xbd489839	-0.048973296
254	0xbdd11f6f	-0.102110736
255	0x3de0bf2b	0.109739624

layer_2.bias f4 [32]
0	0x3e4e024b	0.20118062
1	0xbd8bba06	-0.068225905
2	0xbe58e48a	-0.2118093
3	0x3d1c1fc5	0.038116235
4	0xbce2dd6d	-0.027693475
5	0xbb86285e	-0.0040941676
6	0x3dcc82e7	0.09985905
7	0x3de9a738	0.114088476
8	0xbdc938e7	-0.098253064
9	0x3dcb6161	0.09930683
10	0xbc93aa9c	-0.018025689
11	0x3c541144	0.01294357
12	0x3e47d344	0.19514185
13	0xbc3af48a	-0.011410842
14	0xbdbca8c6	-0.092118785
15	0x3e0811fa	0.13288108
16	0xbda481dd	-0.08032582
17	0x3ddf2863	0.10896375
18	0xbe0a0e03	-0.13481908
19	0xbe1d9391	-0.15388323
20	0x3d5771a4	0.05259861
21	0x3e642a75	0.22281821
22	0x3e0c6561	0.13710548
23	0xbdcdc991	-0.10048211
24	0x3dda208b	0.10650738
25	0xbd317f9d	-0.043334592
26	0x3c6ed14e	0.014576269
27	0x3e1eb2a1	0.15497829
28	0xbd7c38dd	-0.061577667
29	0x3da9e509	0.08295638
30	0x3cafadc7	0.021445168
31	0x3dd10075	0.10205165

layer_3.weight f4 [1, 32]
0	0xbea4e053	-0.32202396
1	0x3eca2931	0.39484552
2	0x3f1a3ace	0.6024598
3	0xbecb6280	-0.39723587
4	0x3f5c4187	0.86037487
5	0xbe46b067	-0.1940323
6	0xbc11462d	-0.008866829
7	0xbd30b6dc	-0.04314314
8	0x3e57f3cd	0.21089096
9	0x3e4b1ac0	0.19834423
10	0x3b629586	0.0034573986
11	0xbe1732f9	-0.14765538
12	0x3ee805df	0.4531698
13	0xbe9388ba	-0.28815252
14	0x3d9b9e72	0.075985804
15	0xbe0a7b67	-0.13523637
16	0x3f465c32	0.7748443
17	0xbef3e6d3	-0.47637042
18	0x3db6f9a0	0.08934331
19	0x3eec29df	0.46125695
20	0x3f2bac4a	0.6705977
21	0xbea339f9	-0.31880167
22	0xbe538a5f	-0.20658253
23	0xbdebfcc0	-0.115228176
24	0xbe5a2003	-0.21301274
25	0xbcea077c	-0.028568022
26	0x3dd2bb43	0.102896236
27	0x3f011d1e	0.50435054
28	0xbd6b6f03	-0.057478916
29	0x3e618b26	0.22025737
30	0x3d971d98	0.073786914
31	0x3d0eb31d	0.034838784
