checkpt/influence/3_5_fedl_global_500.pth (torch, 61495 bytes, 5 tensors)

layer_1.weight f4 [64, 197]
000000 df ab 3e bd 81 18 fd 3c f8 11 c0 3c 3d 11 a3 bc
       -0.046550628 0.030895473 0.023446068 -0.01990568
000010 4b 9a 46 3d 6f 3c 68 bd eb 80 07 bc 2a e0 80 3c
       0.04848699 -0.05669826 -0.0082704825 0.01573189
000020 c8 93 48 bd 18 97 82 bd 78 e0 5f bd 78 ae 59 bd
       -0.04896906 -0.06376475 -0.05465743 -0.053144902
000030 b5 41 b9 3c 1d 74 88 bd ba bf 48 3d b1 2c 1e 3d
       0.02261434 -0.06662772 0.04901097 0.03861684
000040 f9 8c 1c bd 6a 8a 47 bd 12 6a 52 3d a3 bb 0f bd
       -0.03822038 -0.048715986 0.051370688 -0.035091054
000050 05 32 06 3c 86 fd 11 3d c8 29 8e bc c3 c3 24 3d
       0.0081906365 0.03564217 -0.017353907 0.040225755
000060 5d 7d f5 bc 60 1b 86 bd 53 f2 e1 3c 3f 99 58 bd
       -0.029967004 -0.0654819 0.02758137 -0.052880522
000070 71 44 fa 3c 3a 7a 3e 3c af 9d 8a bc aa d0 96 bc
       0.030550214 0.011625821 -0.016920893 -0.018410046
000080 ba bb 2a 3d 87 e9 70 bd 75 5b 63 3c 83 85 1d 3d
       0.041682936 -0.05881646 0.0138767855 0.038457405
000090 f3 ff 07 3c e7 8a 40 bc c0 c0 25 bd 60 d8 ea 3c
       0.008300769 -0.011751867 -0.040467024 0.028667629
0000a0 99 f8 5f bc c2 c7 af 3c 8d 09 4a 3c 66 cd 35 bd
       -0.01367011 0.021457557 0.012331379 -0.044385336
0000b0 01 b1 03 bb a1 91 84 3b 84 28 03 bd b3 f7 76 bc
       -0.0020094516 0.0040456806 -0.03202106 -0.0150737045
0000c0 5c 29 f3 bc ba 7b 1d bb ee 16 87 bd d5 69 86 3c
       -0.029682808 -0.0024030046 -0.0659617 0.016407887
0000d0 06 e9 0d bd 95 3e 73 bd a6 16 8e 3d d0 d3 31 3d
       -0.034646057 -0.059385855 0.069379136 0.04341489
0000e0 11 cd 25 3d 6e e4 9e ba 7d 95 8c bd d1 7c 34 3d
       0.04047877 -0.0012122521 -0.0686445 0.044064347
0000f0 38 bb f8 bb b8 f5 27 bd df 77 56 bd 4b e3 32 3c
       -0.0075906776 -0.04100582 -0.05236041 0.010918449
000100 50 00 1f bd cf da 08 bd 1a 2e 1a bd 16 1d ca bc
       -0.038818657 -0.033411797 -0.037641622 -0.024672072
000110 3d 09 87 bd 69 ab 0e 3d e0 0b 3a 3a 9f 1d 51 bd
       -0.06593559 0.03483144 0.00070971064 -0.05105364
000120 0b 71 dc 3c df 15 dd bc 4f 11 c8 bc 11 68 13 bd
       0.026909372 -0.026987968 -0.024422316 -0.035987917
000130 e1 30 10 bc 2e 96 66 3c 0d 82 22 3d 6f f3 67 bd
       -0.008800716 0.014073892 0.039674807 -0.05662864
000140 0e be 33 3d d4 02 98 bd 7c 75 95 bb ba f0 23 bc
       0.043882422 -0.074224144 -0.0045611244 -0.010006124
000150 10 24 0e bc 1a 33 43 3d 4f 18 79 bd 28 ec 6e bd
       -0.00867559 0.047656156 -0.060814198 -0.058330685
000160 71 19 5a 3d 52 79 0d bd f2 79 39 3d 06 ea 82 bd
       0.05324692 -0.03453953 0.04528231 -0.06392293
000170 55 8b 42 3d 92 d8 6b 3d 36 73 51 bd b1 2e f3 bc
       0.04749616 0.057579584 -0.051135264 -0.02968535
000180 11 cc 5e 3c 48 af 33 bd 1c 56 ef bc aa 22 5e 3d
       0.013598458 -0.043868333 -0.029215865 0.054232277
000190 2f 98 59 bd 61 50 a1 bd c6 84 f7 39 99 44 86 bd
       -0.05312365 -0.07876659 0.00047210435 -0.06556053
0001a0 9a c3 47 3d 0b 01 c5 3b b2 1e 5b 3d 24 bb 37 bb
       0.048770525 0.006012087 0.05349607 -0.0028035128
0001b0 07 06 10 3d 60 c7 3b 3d 6e 25 e6 3c 2f 77 25 bd
       0.035161998 0.045844436 0.02809402 -0.040396865
0001c0 9d 19 4a 3c 61 db 48 3d dc 12 7d 3d 16 94 0c be
       0.012335208 0.04903734 0.061785564 -0.13728365
0001d0 dc a9 e4 3c e6 2f 40 3c 68 ad 97 3d 9c bc 92 3d
       0.027913027 0.01173017 0.074061215 0.07164881
0001e0 eb 47 ce 3b 7d 9a 30 bd 86 33 78 3c ef 88 33 3d
       0.0062951944 -0.04311608 0.015149003 0.043831762
0001f0 80 3f cc bb 39 0b 5d bd c3 d0 2d 3d 58 04 ba 3c
       -0.0062331557 -0.05396578 0.04243542 0.02270715
000200 a1 c7 da 3c 32 04 13 3d cd 1f a1 3c 1c 98 80 ba
       0.026706519 0.035892673 0.019668484 -0.0009810957
000210 e1 db 77 3d 13 87 1a 3d 3d 04 16 bd 51 57 d4 3c
       0.060512427 0.037726473 -0.036625136 0.025920542
000220 f1 73 dd bc 56 99 95 3d d8 f0 12 bd 9a b5 32 3c
       -0.027032824 0.07304637 -0.035874218 0.010907555
000230 99 83 47 3d 10 dc 02 3c b8 e1 6b 3d 00 c9 cb bc
       0.048709486 0.007987037 0.05758831 -0.024876118
000240 c8 6d 6a 3d 78 3e b6 3c 23 3c 15 bd e1 69 73 3d
       0.0572336 0.022246584 -0.036434304 0.059427146
000250 fa 6f 43 3d 2d a2 51 bd 27 c3 48 3d 7f 4d 0d bd
       0.04771421 -0.051180054 0.049014237 -0.034497734
000260 95 32 13 3d b9 0e 00 bc e8 a2 40 bc 43 46 0b bd
       0.03593691 -0.00781601 -0.01175759 -0.034002554
000270 6a 71 1a 3d 06 de 54 bc 33 7c 94 bd 4a d1 89 bd
       0.037705816 -0.012992388 -0.072502516 -0.06729372
000280 d8 aa 40 3d 65 6b 01 3d d7 1f 97 3d 03 51 4f 3d
       0.04703793 0.03159656 0.0737912 0.05061437
000290 a1 8d e4 bc df 04 e6 bc 44 88 42 3d 2b 64 b6 3c
       -0.027899565 -0.028078495 0.047493234 0.02226456
0002a0 24 12 fc bc 52 dd e5 3c 27 de 48 3a b1 a5 af bc
       -0.030770369 0.028059635 0.0007662498 -0.021441313
0002b0 5a 96 f4 bb 1c b3 34 3d 7d 12 43 3d 55 fe cf bc
       -0.0074642124 0.044116125 0.047625054 -0.02538983
0002c0 56 e8 2a 3d ae ad 8b 3c 21 a5 2d bd 53 7a 56 3c
       0.04172548 0.01705059 -0.042393807 0.013090688
0002d0 6d b0 81 3c 71 34 46 3c 2c 4e 0f 3b 41 cd 87 bd
       0.015831197 0.012097464 0.0021866662 -0.06630946
0002e0 17 94 86 bd 07 e9 9f 3d d5 6c a0 3d d5 00 50 3d
       -0.06571215 0.07808118 0.07833258 0.050782043
0002f0 23 6a 80 bc 35 c4 e4 3b f6 22 9d 3c c6 b1 5d 3a
       -0.01567561 0.0069813975 0.01918171 0.0008456971
000300 6f 9c e4 3c 33 13 2b bc ce aa 1e bd ef d6 19 bd
       0.027906625 -0.010441589 -0.03873711 -0.037558492
000310 a8 be 35 bd 4f 24 57 3d c1 2f 49 bd fa ec 12 bc
       -0.044371277 0.05252486 -0.049117807 -0.008967632
000320 ae 51 d7 3c 60 1a e9 bc cf 69 23 3d 04 6b 1f 3d
       0.026284065 -0.02845496 0.03989583 0.038920417
000330 f5 00 1e 3d 27 c2 68 bd d1 17 80 bd 9d 60 a8 3d
       0.03857513 -0.056825783 -0.062545426 0.082215525
000340 dc 8e 24 3c 79 68 30 bc cf 95 28 bd 3d a9 4a bd
       0.010043826 -0.010767096 -0.041158494 -0.049477804
000350 da 3e 45 bd a7 da 6e bc 0d 61 ae 3d 24 78 85 bc
       -0.048155643 -0.014578498 0.08514605 -0.01629264
000360 2f 17 68 3d 5f ec 8f 3b 1f ce b6 bc 3f 02 18 bd
       0.056662735 0.0043921913 -0.022315083 -0.037111517
000370 79 96 31 bd 2f e7 08 bd 4a 82 2f bd 71 64 ad bc
       -0.043356393 -0.0334236 -0.042848863 -0.021166058
000380 00 d0 81 37 52 39 31 bd 2a 41 a8 ba 6b 46 53 3b
       1.5474856e-05 -0.043267556 -0.0012836803 0.0032238017
000390 fc b1 8c bc 11 ae 26 bc 28 4c 06 bd 28 fd 8e bd
       -0.017174713 -0.010173337 -0.032787472 -0.069818795
0003a0 ef cd 05 3d 1f dd 00 3d 57 68 83 3d a3 30 1d bd
       0.032667097 0.031460878 0.064163856 -0.03837646
0003b0 51 a0 fc 3b 07 0f 73 bd bd c7 35 3d 16 9d 41 3d
       0.007709541 -0.059340503 0.04437994 0.04726895
0003c0 48 cb 3e 3d 61 6c 1e 3d 58 b4 f6 bc cf dd 01 bd
       0.046580583 0.038677577 -0.030115291 -0.031705674
0003d0 b6 69 14 3d 98 da ab 3b 0a c0 af 3b 7c a5 9d 3c
       0.036233626 0.0052445643 0.005363469 0.019243948
0003e0 6a 7a 38 bd e3 f0 7e 3d 76 74 a4 bc 93 ef 1b bd
       -0.04503862 0.062241446 -0.020075064 -0.038070273
0003f0 a8 43 39 bb b5 95 b3 bc 66 55 31 3d 31 2a 2b bd
       -0.0028269086 -0.021921972 0.043294333 -0.041788284

layer_1.bias f4 [64]
000000 ea 3f d6 3d d9 23 a1 bd 62 4e 09 3d f9 c2 22 3c
       0.104614094 -0.078681655 0.033522017 0.00993418
000010 0a 0a b2 bd 81 d3 a0 3c 1d 82 a6 3d 2f 6d 8d bd
       -0.08693321 0.019632103 0.08130286 -0.06905591
000020 72 43 79 3d f9 75 9c bc e4 38 c9 3d 12 a7 ac bd
       0.060855336 -0.019099222 0.09825304 -0.08430304
000030 6f c7 4b bd ba ee d1 3d 2e 46 27 bd 9c c1 1f 3e
       -0.04975074 0.102506116 -0.040838413 0.156012
000040 18 3d 09 bd 87 d3 b7 bd 61 c7 cc 3d 71 4d d3 3d
       -0.03350553 -0.089758925 0.09998966 0.10317505
000050 e3 fa 34 bc b8 07 a9 3d 11 3d fe bc 80 b5 00 3d
       -0.011046144 0.08253425 -0.031034978 0.031423092
000060 af ea d6 3d 03 36 73 be 40 fb ac bc f5 3e 21 3d
       0.10493981 -0.23751073 -0.0211159 0.03936668
000070 e3 b0 84 3d ef 00 95 3d 9d 1c 38 3d aa 41 a0 3c
       0.06479051 0.07275569 0.044949163 0.019562561
000080 76 c6 d3 3d 19 f9 49 bd 5c c6 bf 3d 2d 98 0b bd
       0.10340588 -0.049309824 0.09364006 -0.034080673
000090 e8 41 15 bd e4 4d 8a bb d6 3d 1e be aa 03 05 bd
       -0.036439806 -0.004220711 -0.15453276 -0.032474197
0000a0 c0 c7 85 3c 06 4b fd bc 18 78 b4 bc d2 27 fb 3d
       0.0163306 -0.030919563 -0.022029921 0.122634545
0000b0 ca db c2 3c 0e 7c 61 bd 11 04 ba 3d 5f 00 2b 3d
       0.023786444 -0.05504995 0.09082807 0.0417484
0000c0 c8 53 25 3c f5 cb df 3d 16 1c ec 3d 76 f4 45 3d
       0.010090776 0.109275736 0.115287945 0.04832884
0000d0 51 92 45 3e a6 0b 81 3d f3 83 04 be d5 65 a7 3d
       0.19294097 0.0630105 -0.1294096 0.0817372
0000e0 26 bd 7d 3d 4e e0 86 b7 72 c6 c8 3d b6 93 29 be
       0.061947964 -1.6078495e-05 0.098034754 -0.16560254
0000f0 71 8a 0a 3a ea 56 9d 3b ce 9a b9 3d 53 b5 b9 3b
       0.00052849116 0.0048016207 0.0906273 0.0056673675

layer_2.weight f4 [32, 64]
000000 78 a7 56 bd 3f 48 0a bd 9a 21 ef 3b d3 93 6c bd
       -0.052405804 -0.033760305 0.007297707 -0.057758164
000010 bd 86 cc bd 4f 8a 8b 3d 3e 64 17 bd b1 c4 e0 bd
       -0.09986637 0.0681349 -0.036960833 -0.10975016
000020 ea 60 42 3d 0a 30 10 bd cc 84 aa bd 76 85 f1 bd
       0.047455706 -0.035202064 -0.0832611 -0.11793034
000030 51 16 d1 bd 78 7b 28 3d 12 fa 8b 3d 3f 72 c7 3d
       -0.10209335 0.041133374 0.068348065 0.097385876
000040 92 e0 db 3d 2d 63 c3 bd 2e 72 40 3c 5d 61 ea 3c
       0.10736193 -0.09540401 0.011745973 0.02861088
000050 d9 97 ef bc 6d 77 6e 3d 19 be 55 3d fa b9 6b 3d
       -0.029247211 0.058219362 0.052183244 0.057550408
000060 58 ae d7 3d 4e 40 4c bc 76 57 b1 bc bc 97 fb bd
       0.105313 -0.012466503 -0.02164815 -0.122848004
000070 ce a2 de bc f8 4e ce bd 73 eb 7b 3d 3a f9 98 3d
       -0.02717724 -0.10073656 0.06150384 0.07469411
000080 9f 10 a1 3d 71 30 91 bd aa c8 58 bc e1 a6 bb bd
       0.07864498 -0.070893176 -0.013231436 -0.09162689
000090 ad b0 a6 bd a2 69 2c bc 64 64 d0 3d ea 70 c3 3d
       -0.08139167 -0.010523232 0.10175398 0.09543021
0000a0 75 8e 4c bc 8f a0 84 bd d2 0b 12 3d 75 68 39 3c
       -0.012485136 -0.064759366 0.035655804 0.011316408
0000b0 e7 ed b5 bd 35 a2 ba bd 66 e7 8d bd 43 e3 b0 bd
       -0.08883267 -0.0911297 -0.069289014 -0.08637097
0000c0 f3 a6 d1 3d da 4b bb bd 36 3d 44 3c 2f bf aa 3d
       0.10236921 -0.09145327 0.011977484 0.083372466
0000d0 a2 f9 1a bd c2 40 08 bc 47 5b ee 3c ec 9a ad 3d
       -0.037835725 -0.008316221 0.029096259 0.08476815
0000e0 51 c6 0b 3c 00 11 4f 3c e6 59 d5 3b 51 df 7e 3d
       0.008531169 0.01263833 0.006510961 0.06222469
0000f0 5f ab 54 3b db c7 9e 3d da 0f d5 bb f9 a9 a7 bc
       0.0032450778 0.07752963 -0.006502134 -0.020466791
000100 0d 85 05 be bc ef 03 3e 7a 2e 1b bd ab 3c 51 3e
       -0.13039036 0.1288442 -0.03788612 0.20433299
000110 b1 33 6c 3e 63 95 9e 3d 41 63 ec bd 75 37 ca bd
       0.23066594 0.07743337 -0.11542369 -0.09873859
000120 a1 39 6c 3d 13 c8 c7 3c a4 50 51 be c4 e0 6c 3c
       0.057672147 0.024387395 -0.20440918 0.014457885
000130 75 b0 d3 bc 2a 31 49 bd 2b e8 bb bd ce c2 5d bd
       -0.025840977 -0.049119152 -0.09175142 -0.05414086
000140 07 b4 30 bd 2b f0 13 3e 6a a4 12 be d6 84 3b be
       -0.043140437 0.14447086 -0.14320531 -0.18312392
000150 59 3f 55 bd 39 f9 89 bd e7 75 f3 3b 41 72 6d bd
       -0.052062366 -0.067369886 0.0074298265 -0.05797029
000160 7f 76 05 be f2 70 66 3e e1 bc f2 3d 7f da 6f 3d
       -0.13033484 0.22504023 0.11852432 0.058557983
000170 5f 73 29 3d 55 09 69 bd 00 f1 de bd b2 5e 75 3e
       0.041369792 -0.056893665 -0.10885811 0.23961905
000180 71 49 22 be 8d 04 af 3d 1f 69 f1 bc 92 50 cb 3d
       -0.15848328 0.0854579 -0.029469071 0.09927477
000190 16 1e ac bc cb 78 29 3e 61 d6 72 3d 99 ac bc 3d
       -0.02101044 0.16549985 0.05928648 0.09212608
0001a0 b8 59 2c be c8 e8 9f bd 44 4c 6a be 58 c0 0a bd
       -0.168311 -0.078080714 -0.22880656 -0.03387484
0001b0 9a 70 82 3d d2 db e8 3d 67 8b 95 bd c0 82 48 3d
       0.06369133 0.113700524 -0.073019795 0.048952818
0001c0 bd 06 77 3d 2a c4 30 bd 33 e4 a8 3d 3c 2e 2c 3e
       0.06030916 -0.043155827 0.082466505 0.16814512
0001d0 f2 64 e8 bd 6e 59 17 bd 1c 8f 75 bb 59 43 0a be
       -0.11347379 -0.03695052 -0.0037469333 -0.13502254
0001e0 cb 7e 3f 3e ff e3 7e bd bd 97 aa 3d 86 6b 4c 3e
       0.18700711 -0.062229153 0.08329723 0.19962892
0001f0 32 42 79 3d 86 fd 01 3e df 50 40 be 8f 92 09 be
       0.060854144 0.12694368 -0.1878085 -0.13434814
000200 58 3d e8 3d bf c8 bc 3d df 64 cb 3d 0d 94 b6 3d
       0.113398254 0.09217977 0.09931349 0.08914957
000210 15 a2 2c 3d f5 e3 b0 3c 61 96 ab bd 23 76 a5 bd
       0.04214676 0.021593073 -0.08378292 -0.080791734
000220 51 f9 a7 3d 6b 20 ae bd 54 07 90 3d 3d 4f e9 3d
       0.0820185 -0.08502277 0.07032648 0.11392067
000230 d8 1f 29 bc f5 06 9b bd 5f 0c da 3d da f6 19 3c
       -0.010322534 -0.07569686 0.10646891 0.009397233
000240 11 07 9f 3d ea 0d 74 bd b3 6d 45 3d 41 c9 cd bc
       0.0776502 -0.059583582 0.04820032 -0.02512038
000250 f5 b0 dc bd 44 21 74 3d da f9 dd 3d 6e c0 b1 bc
       -0.107759394 0.059602037 0.10838671 -0.021698203
000260 24 dd be 3d 04 9f a6 bd 6e 1e e3 3b 16 d0 b4 bc
       0.09319523 -0.081357986 0.0069311177 -0.02207188
000270 36 c4 97 bc 1d 2e 82 bc b2 77 31 3c bb 60 a4 3d
       -0.018526178 -0.01589113 0.01083176 0.080262624
000280 b9 0a 9e 3c 32 59 d0 bd 1a 07 9d bd df b7 bf 3d
       0.019292222 -0.10173263 -0.0766737 0.093612425
000290 55 9a d6 bd f3 86 04 3d e5 ef 2b 3c 5b 03 00 bd
       -0.10478655 0.03235526 0.010494207 -0.0312532
0002a0 68 15 69 bd ea 25 8d 3d a6 ce 00 3e 93 4a d5 bd
       -0.05690518 0.06891997 0.1257883 -0.104146145
0002b0 27 0e c5 3d fd e5 98 3d fa 2d 87 bd 7c 8f 01 bd
       0.0962184 0.07465742 -0.06600566 -0.031630978
0002c0 07 7a ea 3d 80 f7 f1 3b 3c e5 ad bd f2 6d 51 bd
       0.11449056 0.0073842406 -0.084909886 -0.051130243
0002d0 5a ee 09 3c a7 a7 9b 3d b5 2f 64 bd bf 61 d1 bd
       0.008418644 0.076003365 -0.05570956 -0.10223722
0002e0 b9 b6 9e bd 76 42 2a bd a3 1e 29 3d 2f 75 f3 3d
       -0.07749695 -0.04156729 0.041288983 0.11887585
0002f0 16 ff 20 3d 47 73 cc bd fa 3d b3 bb fa 13 fc 3a
       0.03930577 -0.09982925 -0.0054700347 0.0019232028
000300 96 38 34 bc 4e ef b1 3d 7a ef b0 3c f2 2b dd 3d
       -0.010999819 0.08688222 0.021598566 0.107993975
000310 6d dc 93 3d 1f fd 7a 3d 1d 3e 88 3d ca 95 02 3e
       0.07219777 0.06127655 0.06652472 0.12752452
000320 f9 fb 58 3d f3 69 30 3d c1 16 16 be 06 b7 ed 3d
       0.052974675 0.04306979 -0.14657117 0.116071746
000330 3c 64 fb bd 1c 38 4d 3c 56 dc 5d 3d 83 39 ab bd
       -0.122749776 0.012525585 0.054165207 -0.08360579
000340 88 1f e7 bd 49 fa ad 3d 91 ef bb bc 39 97 61 bd
       -0.11285311 0.08495004 -0.022941383 -0.055075858
000350 e2 68 91 bd ff 93 c2 3d b3 2b a9 bc f9 65 ac bd
       -0.07100083 0.09500884 -0.02065072 -0.08417887
000360 ce 24 91 3d df a1 e4 bb 66 12 3e 3c e6 87 83 bd
       0.07087098 -0.0069773044 0.011601066 -0.06422405
000370 38 5a bd bd af 17 5e bb af 7b f8 bd d3 28 89 bd
       -0.092457235 -0.0033888628 -0.12132966 -0.0669724
000380 a8 90 d4 3d 1f e0 c1 bd f8 cd bc bd 8f d6 b1 bd
       0.103791535 -0.09466576 -0.09218973 -0.08683502
000390 4b 8a d2 bc 59 fd f2 3d 53 89 c0 3d fd 8f e5 bd
       -0.025700709 0.118647285 0.094011925 -0.11209104
0003a0 32 5d bf 3d 4b 2d e9 3d 64 81 ee bc df a3 c4 bd
       0.093439475 0.11385592 -0.029114433 -0.096015684
0003b0 b6 c6 38 bd 39 f3 02 3d dd 47 08 be 0e e9 14 3d
       -0.04511138 0.031970236 -0.13308664 0.03635507
0003c0 35 f9 ab 3d 83 75 2d 3d 72 67 70 3d 5f 88 60 3d
       0.08397142 0.042348396 0.058692403 0.054817554
0003d0 a1 8b 4e bb da f7 f9 3d 0e c1 e9 3d 8b 84 e6 bd
       -0.003151633 0.12205477 0.114137754 -0.11255749
0003e0 a6 6a 4c 3d 6f 77 04 3d 86 3b df 3c 92 f7 f9 3d
       0.049906395 0.032340463 0.027250063 0.122054234
0003f0 46 f4 47 bd e7 45 1e bd 4e 09 60 bd 2f f8 92 3c
       -0.04881694 -0.038640883 -0.054696374 0.017940609

layer_2.bias f4 [32]
000000 ff 4f fc bc ef 37 fa bd aa 0d e9 3d 1d 81 ae bd
       -0.030799864 -0.122177 0.11379559 -0.0852072
000010 c1 cf 81 bd ce 29 0a bd af 72 8d bd 43 1d 25 3e
       -0.06338454 -0.033731274 -0.0690664 0.16124444
000020 52 8e e5 3d 99 ea d6 3d dc 53 72 bd b9 0c fb 3d
       0.11208786 0.10493965 -0.059162006 0.12258286
000030 06 23 2b bc d1 3f c7 bd ab 38 da 3c ed 94 a2 bc
       -0.010445362 -0.09728969 0.02663835 -0.019846404
000040 fa 5a 4c 3e b0 d4 2a be 87 91 ab bd d8 9a 8a 3d
       0.1995658 -0.16682696 -0.083773665 0.06767815
000050 dc 6d 73 3e 07 ab 5b 3d 7b 5f 1f 3d 15 38 a4 3c
       0.23772377 0.0536299 0.038909417 0.020046273
000060 b1 03 ac bd 84 e8 8c 3d ae 7b 94 bd 96 47 21 3e
       -0.083991416 0.06880286 -0.072501525 0.15749964
000070 c6 52 40 3e a1 03 75 3c 40 32 a3 bc ea ed 8e bd
       0.18781576 0.0149544785 -0.019921422 -0.06978972

layer_3.weight f4 [1, 32]
000000 93 9a 09 3e 78 f0 5c 3f bf 6f 0f be 2d a2 42 3e
       0.13437872 0.86304426 -0.14007472 0.19007178
000010 32 fa c8 bb a3 75 3d be 5c 0a 37 be 5f 07 e3 be
       -0.006133341 -0.18501906 -0.17875046 -0.4434156
000020 72 9f 57 3b 43 21 b0 be 93 b6 7f bd ce 3c 8c 3e
       0.0032901433 -0.34400377 -0.062429976 0.2739014
000030 e8 b3 e3 3e 28 b9 27 3e c3 e8 2e 3f 40 06 b9 3e
       0.44473195 0.16379225 0.68323916 0.3613758
000040 dd 2d d3 be e7 4c 56 3f 86 2f 78 3e ea 62 62 be
       -0.41245928 0.83711094 0.24236879 -0.22108045
000050 43 c1 e1 be f2 e5 bf 3e 4e 08 81 be dc a4 c1 3e
       -0.4409276 0.37480122 -0.25201648 0.3782109
000060 0a 21 4c bd cb fe 14 3e b8 bd bd 3d 92 0d d6 3e
       -0.049836196 0.14550321 0.092647016 0.41807228
000070 01 5f cb be f2 fc 52 be 64 0f df 3e 3a 7b 28 3d
       -0.3972092 -0.20604303 0.4356643 0.041133143
