checkpt/_128_fedl_global.pth (torch, 61015 bytes, 5 tensors)

layer_1.weight f4 [64, 197]
0.018228734 -0.06866004 0.042634364 0.06320723 0.033679545 -0.043080684 -0.048963446 0.046109486
-0.06997775 0.048954297 -0.036806148 -0.013139933 -0.00015518801 0.007403509 -0.005620439 -0.004715152
-0.0049196505 -0.06865033 0.05574103 -0.06784848 0.059515238 -0.06502602 -0.06439015 -0.02336213
0.062006477 0.0365506 0.030928642 0.018230423 -0.06862464 -0.042453527 0.06644568 -0.004611231
0.05730645 0.03367883 -0.06304867 0.001838631 -0.018618573 -0.013705569 -0.055544976 -0.053756874
-0.02769622 0.04226786 -0.06737103 -0.047519162 -0.021050178 -0.015513373 0.048771694 0.016487965
0.0038246422 0.036949266 -0.062395275 0.015109651 0.016987028 0.051528376 0.027203986 -0.010443206
0.059949193 -0.007392368 -0.024000568 0.07033623 -0.062145412 -0.054283276 0.046726376 0.059146702
0.06406399 0.043620605 -0.039606858 0.026901573 -0.0009145043 0.00411501 -0.051420216 0.026610583
0.064037666 0.02404976 -0.01900852 -0.014432044 0.054172296 0.028280998 0.059960913 0.013103996
-0.052323002 -0.02557812 -0.059737403 -0.055890564 0.018861229 -0.0632298 -0.046445247 -0.015516953
0.068223976 -0.020866625 0.017545596 -0.027141273 0.019940384 -0.06619764 5.526133e-05 0.0053251465
0.026956795 0.04807419 -0.009768511 -0.06577589 0.017507488 0.009795106 -0.04709491 -0.0043801274
-0.007707417 -0.042988557 -0.039414767 0.041061122 0.04628249 0.036571752 0.016810719 -0.04701656
0.072603785 -0.02321876 -0.026656104 0.02445435 0.053678054 0.016109122 -0.044781744 -0.017787863
0.03184685 -0.01239751 -0.07003676 -0.04930399 -0.00982489 0.07130379 -0.024441103 0.0012528584
0.006437179 0.01107613 0.05733381 -0.043622643 -0.01257627 0.015339316 -0.025146767 0.0522656
-0.06107959 -0.055959698 0.03846385 -0.036587954 0.040039293 0.0426231 0.05062468 0.0105198445
-0.028492242 0.06343618 0.014653489 -0.05314626 -0.029882377 -0.055787746 0.006782116 -0.052247625
-0.018534845 -0.033795774 0.032913078 -0.04725033 -0.010668931 -0.005350956 0.05451739 0.003414439
0.027777625 0.031517435 0.0077051525 0.046185568 0.059874102 -0.024972046 0.064136185 0.024067046
0.011770827 -0.033188086 -0.053174246 -0.05183431 0.054638784 0.04654019 -0.0055806153 0.024607273
-0.06923309 0.007618466 0.05988485 0.06516164 -0.050176457 -0.010323294 0.05614684 -0.047719005
-0.046733756 0.041352376 0.029727817 0.028936682 0.02299316 -0.029311225 0.0095812045 0.035823483
0.053709656 0.030920127 -0.05170415 -0.013897076 -0.048209887 -0.07054155 -0.058341425 -0.016001211
-0.050471622 0.046237215 -0.03663117 0.033139806 -0.0142134065 0.068251595 0.04098208 0.027971385
-0.001474802 0.06374743 -0.042979658 -0.021615505 0.055827077 0.0012409342 -0.018385507 0.06546894
-0.032107513 -0.052148283 -0.068113856 0.07073143 -0.012497219 0.05398226 -0.0061632567 -0.042331547
-0.030025633 -0.032038454 -0.027345441 -0.01912793 -0.03268252 -0.050682712 0.021329282 0.0239312
-0.050000932 0.0021331287 0.020091409 0.065633476 0.03900534 -0.01151593 -0.030691365 0.0695348
0.034745116 0.060325805 -0.054926295 0.04655986 -0.046742182 0.058230106 9.197383e-05 0.04186632
0.03371099 -0.037723474 0.054638445 -0.030324861 -0.017227365 0.019771365 -0.033420265 0.0062269135
00000000: 6d54 953c a39d 8cbd 5fa1 2e3d cb72 813d
00000010: 90f3 093d 5f75 30bd e58d 48bd 4ddd 3c3d
00000020: 7f50 8fbd 4d84 483d 0bc2 16bd e048 57bc
00000030: f7b9 22b9 2399 f23b a92b b8bb 9081 9abb
00000040: 0535 a1bb 8b98 8cbd b550 643d 25f4 8abd
00000050: 40c6 733d 5d2c 85bd fcde 83bd f061 bfbc
00000060: 81fa 7d3d 15b6 153d 105e fd3c f857 953c
00000070: 138b 8cbd c0e3 2dbd ac14 883d cf19 97bb
00000080: 2bba 6a3d d0f2 093d a91f 81bd 38fe f03a
00000090: fa85 98bc 538d 60bc 2183 63bd 2b30 5cbd
000000a0: 2fe3 e2bc 1021 2d3d d3f9 89bd 74a3 42bd
000000b0: 6c71 acbc cd2b 7ebc d4c4 473d c511 873c
000000c0: d9a6 7a3b 1d58 173d 3092 7fbd 788e 773c
000000d0: 6128 8b3c 6b0f 533d e5da de3c fb19 2bbc
000000e0: 498d 753d ad3b f2bb d79c c4bc 710c 903d
000000f0: 308c 7ebd 2458 5ebd 2864 3f3d d043 723d
00000100: fb33 833d 85ab 323d cd3a 22bd b060 dc3c
00000110: 58bb 6fba 35d7 863b 019e 52bd 70fe d93c
00000120: 2e26 833d 0104 c53c c1b7 9bbc 6174 6cbc
00000130: c5e3 5d3d 8dad e73c 9399 753d 25b2 563c
00000140: a550 56bd 3589 d1bc 35af 74bd 81ed 64bd
00000150: dd82 9a3c a07e 81bd 5f3d 3ebd d13a 7ebc
00000160: 03b9 8b3d 7cf0 aabc c8bb 8f3c 6057 debc
00000170: 045a a33c a192 87bd 67c8 6738 917e ae3b
00000180: 7fd4 dc3c 71e9 443d 1b0c 20bc 83b5 86bd
00000190: dd6b 8f3c a77b 203c 98e6 40bd 2c87 8fbb
000001a0: 808e fcbb c514 30bd 6171 21bd b52f 283d
000001b0: b592 3d3d 43cc 153d a2b6 893c 7094 40bd
000001c0: 4bb1 943d 4535 bebc e75d dabc 7d54 c83c
000001d0: 85dd 5b3d 47f7 833c 106d 37bd dab7 91bc
000001e0: d871 023d ed1e 4bbc 6f6f 8fbd fbf2 49bd
000001f0: 93f8 20bc b907 923d b538 c8bc f436 a43a
00000200: f9ee d23b a878 353c dbd6 6a3d a8ad 32bd
00000210: b30c 4ebc c151 7b3c 9800 cebc 7414 563d
00000220: 982e 7abd ff35 65bd 458c 1d3d 40dd 15bd
00000230: 3e00 243d 8f95 2e3d d35b 4f3d 6d5b 2c3c
00000240: 9068 e9bc d4ea 813d 3015 703c e5af 59bd
00000250: e3cb f4bc b181 64bd 833c de3b 9b01 56bd
00000260: 63d6 97bc 706d 0abd ddcf 063d 9089 41bd
00000270: bdcc 2ebc 1357 afbb a04d 5f3d c8c4 5f3b
00000280: e78d e33c 6d18 013d 817b fc3b 142d 3d3d
00000290: 8c3e 753d 2d92 ccbc d559 833d 4128 c53c
000002a0: 6dda 403c 3bf0 07bd 3dcd 59bd 3750 54bd
000002b0: ebcc 5f3d eda0 3e3d 98dd b6bb 3195 c93c
000002c0: 14ca 8dbd 53a4 f93b d149 753d 7773 853d
000002d0: d485 4dbd 0923 29bc 3bfa 653d 0175 43bd
000002e0: e56b 3fbd 1c61 293d c087 f33c 9f0c ed3c
000002f0: 275c bc3c 181e f0bc 7cfa 1c3c a5bb 123d
00000300: a8fe 5b3d 354c fd3c bbc7 53bd 90b0 63bc
00000310: bb77 45bd 1778 90bd 6bf7 6ebd f914 83bc
00000320: 55bb 4ebd 3c63 3d3d 910a 16bd 9bbd 073d
00000330: 59df 68bc 7ec7 8b3d d3dc 273d 3f24 e53c
00000340: 254e c1ba 038e 823d 700b 30bd 0013 b1bc
00000350: efaa 643d d8a6 a23a 349d 96bc 9414 863d
00000360: 2b83 03bd 7099 55bd 477f 8bbd a4db 903d
00000370: 23c1 4cbc 811c 5d3d 25f5 c9bb d863 2dbd
00000380: 51f8 f5bc c13a 03bd 8c03 e0bc 2db2 9cbc
00000390: 1bde 05bd ad98 4fbd bfba ae3c 5d0b c43c
000003a0: c7cd 4cbd f6cb 0b3b bd96 a43c d86a 863d
000003b0: 10c4 1f3d 50ad 3cbc 756c fbbc 4368 8e3d
000003c0: e550 0e3d 3118 773d 65fa 60bd 8db5 3e3d
000003d0: bb74 3fbd b182 6e3d 13e2 c038 057c 2b3d
000003e0: 8914 0a3d ee83 1abd 90cc 5f3d d86b f8bc
000003f0: 6720 8dbc 8ff7 a13c b0e3 08bd 230b cc3b

layer_1.bias f4 [64]
-0.04919024 -0.016341053 0.036988948 0.03428519 0.061980575 0.05934776 -0.028646069 0.009656321
0.0048053036 0.060335178 0.042836513 0.03321064 0.076755054 0.013350057 0.04820424 -0.00079832715
0.028376559 -0.06611631 -0.036089625 0.039330203 0.027649557 0.011646961 0.026088545 -0.03938528
-0.051900536 0.055904772 -0.008174169 0.035290267 -0.0499848 0.046730906 0.026276767 0.042535912
0.0339386 0.01370062 -0.05636653 0.0608421 0.011923612 -0.007484525 0.047384277 -0.013009771
0.0820247 0.054234926 0.0031373743 0.04859889 0.06821377 0.040222593 -0.02303133 0.013042755
-0.059528466 0.02715434 0.06387303 0.027990276 0.04966329 0.00678451 -0.04511593 -0.022744432
0.0009125415 0.05685754 0.0095353685 -0.054200117 0.025916653 -0.038705256 -0.032599684 0.055266563
00000000: b57b 49bd acdd 85bc b981 173d a16e 0c3d
00000010: 58df 7d3d a316 733d 29ab eabc 8c35 1e3c
00000020: cf75 9d3b 0522 773d 5775 2f3d e107 083d
00000030: c131 9d3d 33ba 5a3c cf71 453d d446 51ba
00000040: f575 e83c fd67 87bd b7d2 13bd b518 213d
00000050: 5381 e23c e5d2 3e3c a5b7 d53c 7652 21bd
00000060: a895 54bd 67fc 643d f3ec 05bc 878c 103d
00000070: ddbc 4cbd e868 3f3d 6042 d73c 233a 2e3d
00000080: 3403 0b3d 9178 603c 97e0 66bd 9135 793d
00000090: 415b 433c bf40 f5bb 0416 423d ef26 55bc
000000a0: 91fc a73d 7125 5e3d 689c 4d3b a10f 473d
000000b0: a9b3 8b3d 72c0 243d 33ac bcbc 48b1 553c
000000c0: 1fd4 73bd c772 de3c ddcf 823d dd4b e53c
000000d0: bc6b 4b3d 9850 de3b 7bcb 38bd 8852 babc
000000e0: a037 6f3a 74e3 683d 3c3a 1c3c f100 5ebd
000000f0: 294f d43c 6789 1ebd 3f87 05bd 315f 623d

layer_2.weight f4 [32, 64]
0.025663031 0.08633 -0.05330481 0.020019185 0.02139237 0.022973238 0.00014500899 0.09596866
-0.0206248 0.07920212 -0.067391805 0.12085966 -0.07890529 0.056519646 -0.06251832 0.11781151
-0.04364885 -0.11380286 -0.10479123 0.10056579 -0.061567146 -0.041727584 -0.11943076 0.03743795
-0.07401309 -0.046184767 0.12222606 0.10150727 0.09184509 0.057781536 -0.10100191 -0.08524539
0.053251024 0.025926223 0.1115854 -0.05858056 0.079422474 -0.1124115 0.11559407 -0.019668521
-0.011078333 0.055921484 -0.10251322 -0.016899249 0.030468589 -0.0665995 -0.020874128 0.05505446
-0.12345452 0.07855406 0.063814215 0.12407724 0.07610378 -0.10506935 -0.08683002 -0.07871045
0.068349816 -0.011463646 0.088671885 -0.0069082095 -0.10662288 -0.11299026 0.12563105 -0.10280302
-0.1023036 -0.11151433 0.08478328 0.10899719 -0.05941232 -0.055120725 0.17711556 -0.052900646
-0.036281448 -0.028297534 -0.021405796 0.043235138 -0.07483816 0.02326704 -0.102392554 0.065225504
0.02307628 0.070898086 0.002649512 -0.038471695 0.07463938 -0.023701822 -0.06093362 -0.11435166
0.074756235 -0.0845325 0.05687623 0.019090945 0.07638011 -0.1110877 -0.0008655449 0.09414462
0.13469265 0.09361734 -0.04122776 -0.050210964 0.01843051 -0.09711844 0.10663226 -0.03962181
0.08536819 -0.048630487 0.08330346 -0.0937194 -0.024552623 0.022236794 0.10460425 -0.094481446
0.098450355 -0.019245153 0.04444438 -0.06662475 -0.06903564 -0.032513842 0.073421665 -0.017927961
0.011427179 -0.041105814 -0.10969732 -0.04768462 -0.06595702 0.06297793 0.0053492594 -0.013641528
-0.07895852 0.042333204 0.018649824 -0.0039188634 -0.053952496 -0.046251267 -0.028378688 -0.008083284
0.056731194 -0.10971782 -0.02355797 -0.112083256 -0.075980075 0.03622658 0.010303427 0.019628914
-0.03857485 0.105165064 -0.09147587 0.04179791 -0.08324435 0.090009294 -0.10903058 0.03890031
-0.055986848 -0.06124107 -0.0586194 -0.06752301 0.10207195 -0.043297395 -0.028501034 -0.027618596
-0.030104985 0.018732121 0.00050664245 -0.08422267 -0.04385997 -0.032055438 -0.0655139 -0.11776519
-0.03319117 0.10713723 0.07227051 -0.10382826 0.103215404 0.062378656 0.094888605 0.050023913
-0.11297353 0.10978407 -0.012173437 0.03700354 -0.009807133 0.094132625 0.102521874 -0.12159637
0.112501085 0.019874664 -0.13152218 0.11921664 0.098874666 0.01340749 -0.11906338 0.098998666
0.055138845 -0.04428509 0.017940946 -0.077575095 -0.124651015 -0.03499557 0.1177336 -0.0495546
-0.057421003 -0.030682383 0.0665234 0.073948294 0.0047579817 -0.096146844 -0.059300136 -0.006322826
0.09182801 -0.08897979 0.1245014 0.123629846 -0.10082612 -0.00039859768 0.022514513 -0.037479747
0.13247718 -0.05488421 0.07956553 -0.014645192 0.04088686 0.0056881025 0.08798337 -0.06076013
-0.01059822 0.08808308 0.07743823 0.12648983 -0.0363595 -0.037453633 0.0039560734 0.02830589
-0.010671522 -0.027257571 0.04554899 0.11049392 -0.049069386 0.12937605 0.011826053 -0.07500767
-0.09059658 0.0717841 -0.08263445 0.03253125 -0.07411369 -0.002624024 0.024516413 0.071867146
-0.02619502 0.06298305 -0.11049831 -0.04554394 0.10522317 0.02185072 -0.0887113 0.03455299
00000000: 473b d23c c8cd b03d 2556 5abd 46ff a33c
00000010: 0d3f af3c 5f32 bc3c 8e0d 1839 388b c43d
00000020: 57f5 a8bc b934 a23d b704 8abd 4585 f73d
00000030: 1999 a1bd 2581 673d 9b09 80bd 2947 f13d
00000040: 23c9 32bd 7911 e9bd c99c d6bd 70f5 cd3d
00000050: d52d 7cbd 8bea 2abd 1d98 f4bd 8958 193d
00000060: 2d94 97bd 3d2c 3dbd a851 fa3d 0be3 cf3d
00000070: 4719 bc3d 55ac 6c3d 17da cebd 2395 aebd
00000080: bf1d 5a3d 3b63 d43c e386 e43d 2bf2 6fbd
00000090: 40a8 a23d 0038 e6bd 95bc ec3d e11f a1bc
000000a0: e581 35bc ed0d 653d 73f2 d1bd 4b70 8abc
000000b0: 4399 f93c 5265 88bd 3800 abbc c980 613d
000000c0: b9d5 fcbd f3e0 a03d 07b1 823d 351c fe3d
000000d0: 4cdc 9b3d 992e d7bd f0d3 b1bd f232 a1bd
000000e0: fdfa 8b3d 04d2 3bbc 9b99 b53d 435e e2bb
000000f0: 195d dabd 7067 e7bd 6da5 003e 648a d2bd
00000100: 8d84 d1bd a061 e4bd dba2 ad3d eb39 df3d
00000110: 555a 73bd 45c6 61bd c85d 353e 59ae 58bd
00000120: db9b 14bd 3bd0 e7bc 355b afbc 5417 313d
00000130: c044 99bd 859a be3c 30b3 d1bd f394 853d
00000140: 770a bd3c 0433 913d 6fa3 2d3b 7f94 1dbd
00000150: 88dc 983d 532a c2bc 8895 79bd 3431 eabd
00000160: cc19 993d 601f adbd 0df7 683d 9d64 9c3c
00000170: 2d6d 9c3d f381 e3bd bce5 62ba e5ce c03d
00000180: dfec 093e 73ba bf3d 71de 28bd 03aa 4dbd
00000190: 95fb 963c 08e6 c6bd 0462 da3d 7b4a 22bd
000001a0: 85d5 ae3d c330 47bd 019b aa3d f5ef bfbd
000001b0: 9522 c9bc f029 b63c c13a d63d 7d7f c1bd
000001c0: 57a0 c93d 03a8 9dbc 4f0b 363d 8f72 88bd
000001d0: 8f62 8dbd 3c2d 05bd 195e 963d a9dd 92bc
000001e0: 1039 3b3c 925e 28bd fda8 e0bd f350 43bd
000001f0: 7914 87bd 93fa 803d d748 af3b b780 5fbc
00000200: 01b5 a1bd 9565 2d3d 84c7 983c cf69 80bb
00000210: 4bfd 5cbd f871 3dbd 6c7a e8bc c06f 04bc
00000220: f85e 683d bdb3 e0bd a5fc c0bc e88b e5bd
00000230: 719b 9bbd 5362 143d b5cf 283c d1cc a03c
00000240: a900 1ebd c860 d73d b357 bbbd 4934 2b3d
00000250: 047c aabd cb56 b83d 6d4b dfbd ee55 1f3d
00000260: 7752 65bd ebd7 7abd e51a 70bd 8149 8abd
00000270: 190b d13d 9c58 31bd 007b e9bc 6540 e2bc
00000280: bb9e f6bc 1b74 993c 33d0 043a ef7c acbd
00000290: 83a6 33bd 904c 03bd 272c 86bd e02e f1bd
000002a0: 77f3 07bd c46a db3d 9002 943d e9a3 d4bd
000002b0: 9962 d33d c380 7f3d f554 c23d e0e5 4c3d
000002c0: ab5e e7bd 78d6 e03d 1873 47bc 0691 173d
000002d0: 19ae 20bc 9bc8 c03d fdf6 d13d 8507 f9bd
000002e0: f866 e63d 31d0 a23c c0ad 06be db27 f43d
000002f0: cd7e ca3d 17ab 5b3c 80d7 f3bd d0bf ca3d
00000300: 45d9 613d 4864 35bd e4f8 923c b1df 9ebd
00000310: 0849 ffbd 8457 0fbd 501e f13d c4f9 4abd
00000320: 4932 6bbd 9f59 fbbc 6c3d 883d 3472 973d
00000330: d8e8 9b3b a3e8 c4bd b3e4 72bd b52f cfbb
00000340: 5310 bc3d 093b b6bd 97fa fe3d a531 fd3d
00000350: ed7d cebd e0fa d0b9 5b70 b83c 5d84 19bd
00000360: 19a8 073e 44ce 60bd 41f3 a23d 63f2 6fbc
00000370: fb78 273d 4363 ba3b a030 b43d 9ddf 78bd
00000380: 28a4 2dbc e764 b43d ef97 9e3d 8d86 013e
00000390: b3ed 14bd fb68 19bd f3a1 813b c1e1 e73c
000003a0: 9bd7 2ebc 454b dfbc 9491 3a3d a34a e23d
000003b0: fbfc 48bd 287b 043e 10c2 413c 9f9d 99bd
000003c0: b38a b9bd 8b03 933d 403c a9bd 7d3f 053d
000003d0: ebc8 97bd d1f7 2bbb a5d6 c83c 152f 933d
000003e0: f096 d6bc 42fd 803d f04c e2bd 488c 3abd
000003f0: 3f7f d73d 4800 b33c 45ae b5bd 7087 0d3d

layer_2.bias f4 [32]
0.08230869 0.019579262 0.109615475 -0.10905764 0.06868774 0.10893139 0.10357296 0.07543943
-0.044854626 0.02817895 -0.090639986 0.07254153 0.05139866 -0.11832144 -0.04749028 0.07392041
-0.05515479 0.072525084 -0.032017913 0.112217516 -0.0629642 -0.07696027 -0.07140947 -0.115711786
-0.07851064 0.09755775 0.11680695 -0.02156744 0.08656605 0.06806675 0.122843854 0.21470797
00000000: 7591 a83d b064 a03c 147e e03d 9d59 dfbd
00000010: 28ac 8c3d 6c17 df3d 0f1e d43d fd7f 9a3d
00000020: 7cb9 37bd 8bd7 e63c 75a1 b9bd a790 943d
00000030: 6787 523d 8352 f2bd 2b85 42bd 9563 973d
00000040: fde9 61bd 0888 943d 3725 03bd 4cd2 e53d
00000050: 60f3 80bd 599d 9dbd 213f 92bd 4dfa ecbd
00000060: 30ca a0bd 5ccc c73d 7b38 ef3d 33ae b0bc
00000070: 8b49 b13d 9566 8b3d 8f95 fb3d 68dc 5b3e

layer_3.weight f4 [1, 32]
-0.08129936 0.22434992 0.067670465 0.14952527 0.15354429 0.21656777 -0.001519106 -0.12721509
0.12010021 0.18166876 -0.09774514 0.1952868 0.014990493 -0.06286328 0.13965406 0.09530882
-0.08085991 0.23143046 -0.10022811 0.09545493 -0.04551504 -0.06646341 0.114812106 0.08893484
0.1577814 0.25605655 -0.013774429 0.019993851 0.08235074 -0.102273785 -0.053000107 -0.3063402
00000000: 4780 a6bd fcbb 653e d096 8a3d 271d 193e
00000010: b73a 1d3e f1c3 5d3e bd1c c7ba ac44 02be
00000020: 19f7 f53d 6007 3a3e 9b2e c8bd 43f9 473e
00000030: af9a 753c 77be 80bd 7901 0f3e 4531 c33d
00000040: e199 a5bd 1bfc 6c3e 6544 cdbd e07d c33d
00000050: fb6d 3abd f81d 88bd 9c22 eb3d 7823 b63d
00000060: 7391 213e d819 833e 25ae 61bc 25ca a33c
00000070: 81a7 a83d eb74 d1bd a416 59bd 9fd8 9cbe
