checkpt/isolated/batch64_client_0_3.pth (torch, 61015 bytes, 5 tensors)

layer_1.weight f4 [64, 197]
000000 98 88 ef 3c 21 7a 1c 3d 02 5f 3c 3d be d9 c5 3c
       0.029239938 0.03820241 0.045989044 0.02415168
000010 16 26 82 bd 1c 73 2b 3d 1b 37 a7 3b b9 ec d8 bd
       -0.063549206 0.041857824 0.0051030046 -0.10592026
000020 0b 8b 00 bd 28 08 a5 bc 1c 3d 8a 3d e9 36 98 3c
       -0.0313826 -0.02014549 0.06749937 0.01858087
000030 e6 7f 76 bd 23 64 5c bc fe 87 f3 bc 80 83 d6 3c
       -0.060180567 -0.013451609 -0.029727932 0.026185751
000040 9a 89 e4 bd 7a 6d 85 3d cd 4d 7a 3d 7a 8c 71 3d
       -0.11159058 0.065150216 0.061109353 0.05897186
000050 7b 9a 82 3d be 7f 45 be 33 43 84 bd 7b 38 8a bd
       0.06377121 -0.19287011 -0.0645813 -0.06749054
000060 7c 29 14 bd 90 ab 0b 3d b2 26 94 bd bb 53 62 bd
       -0.036172375 0.03409916 -0.07233943 -0.055255633
000070 09 eb 83 3d a5 af 8f 3d 26 44 6f bd 0f 3b be 3c
       0.06441314 0.070159234 -0.0584146 0.02322152
000080 f4 2a 7f bc 4e 73 03 3d bc f2 80 3d 51 af 39 bb
       -0.015574206 0.032092385 0.06296298 -0.0028333256
000090 9e 4e b6 bd 8f b4 77 bd 7f 1c 33 bd 08 8f 2a 3c
       -0.08901714 -0.06047493 -0.043728348 0.010410078
0000a0 12 66 48 bd 4a 45 80 3d 8e 97 76 3d a4 31 0e 3d
       -0.048925467 0.06263216 0.060203128 0.03471531
0000b0 27 e8 29 bc 93 21 3a 3d 47 53 67 bd 33 da 12 3e
       -0.010370291 0.045442175 -0.056475904 0.14341049
0000c0 3c f0 45 3d d9 cb 82 3b 44 3f 81 3d 90 d4 65 3d
       0.04832481 0.0039915857 0.06310895 0.05611092
0000d0 be bc 13 bd 70 43 21 3d ab 42 d2 3d 18 3a fb bc
       -0.03606867 0.039370954 0.10266622 -0.03066735
0000e0 c2 7e 35 bd 35 cc db 3b 1c 7f 11 bd 3c 01 2a bd
       -0.04431034 0.006707693 -0.03552161 -0.041505083
0000f0 1d 50 d0 3c cf 21 25 3e 76 8f 3e 3c c1 a4 28 3d
       0.025428826 0.16126178 0.011630883 0.041172747
000100 26 5d bf bc c4 4e 8f bd 64 d1 ce 3c 09 ea 23 bd
       -0.023359846 -0.06997445 0.02524633 -0.040018115
000110 89 d8 80 3c e8 c6 ee 3c b9 15 d2 bb 44 f8 3f 3d
       0.015728252 0.02914758 -0.006411281 0.046867624
000120 b1 b7 30 be c0 49 39 bc bd f0 7f 3d 00 32 a8 39
       -0.17257573 -0.011309087 0.062485445 0.0003208071
000130 5c 86 03 3d df c8 e3 bc be 38 49 bd d8 ac 71 3c
       0.032110557 -0.027805744 -0.04912638 0.014750682
000140 15 7a 2d 3c 6f 87 33 3e 0f e4 5a 3d 90 5f eb bb
       0.010588189 0.17532133 0.05344015 -0.007183023
000150 1f 40 11 bd 48 bf 13 bc e8 4e 38 bd ba ad 69 3d
       -0.03546154 -0.009017773 -0.044997126 0.057050444
000160 db 50 47 bd 3f 0b 39 3d 03 42 8a 3c 02 63 62 bd
       -0.048661094 0.04517674 0.01687718 -0.055270202
000170 5a 94 1f bd 50 db 28 bc 16 a9 95 3d 4b 32 8a 3d
       -0.03895984 -0.010306194 0.07307641 0.06747874
000180 08 b0 b9 3c b7 6b c2 3c 9b 78 ab 3d ce ab 45 3d
       0.022666946 0.023733003 0.08372613 0.04825955
000190 7f eb 83 3d b1 af fc bc d8 98 2e bd 3b 72 f4 bc
       0.06441402 -0.030845495 -0.042626232 -0.029839626
0001a0 c5 30 83 3d 50 b5 8d bd 7b 58 6a 3d 95 b5 0f 3d
       0.064057864 -0.06919348 0.057213288 0.03508528
0001b0 90 df f5 bc 56 f9 7d bc 70 43 82 3c f7 4f 82 3b
       -0.03001383 -0.015501341 0.015901297 0.0039768177
0001c0 e2 38 f1 3c a5 29 8e 3d c7 02 b4 3c b2 01 cc bd
       0.02944607 0.06941537 0.02197398 -0.09961261
0001d0 d3 db 43 be 1b 46 42 3d 36 78 72 3c b8 c1 98 bd
       -0.19126825 0.04743014 0.014799168 -0.07458824
0001e0 46 83 9a bd 31 97 7d bd 9f ba 4a 3d 68 73 c6 3c
       -0.0754457 -0.061911765 0.049494382 0.024224952
0001f0 c0 fb f9 bb aa ac b4 bc 31 86 eb 3a 2f 1e 44 3c
       -0.007628888 -0.022054989 0.0017969069 0.011970087
000200 13 ef fd 3d 9f 51 75 3c be 35 85 bc 87 e4 eb 3d
       0.123991154 0.014973073 -0.016260978 0.115181975
000210 4d ae cd 3d 57 7c 95 3d f2 91 c0 bc ca 5c 03 bd
       0.10043011 0.072991066 -0.023507092 -0.032070912
000220 f8 24 57 bc 32 c5 83 bd d9 3d 0e 3d 9f 70 18 3d
       -0.013131373 -0.064340964 0.03472695 0.03721678
000230 c7 18 ff 3c 90 ef c3 3b cc 81 09 3d 39 ff 65 3b
       0.031139744 0.005979486 0.03357105 0.0035094752
000240 fa b1 a5 3c 6f e3 93 bd c6 0f 55 bd 18 63 5f bd
       0.020226467 -0.07221114 -0.052016996 -0.054537863
000250 4c fe 95 bc 3f 20 6c bd 21 66 df 3d c3 51 1f 3b
       -0.018309735 -0.05764794 0.109081514 0.0024310208
000260 b5 92 0e bc 0a 79 7b 3c 6d 4a e1 bd 2f d4 d8 3c
       -0.00870197 0.015348682 -0.11000524 0.026468365
000270 90 16 58 3d 64 d4 95 bb 69 88 ae 3b 28 e6 d2 3c
       0.052755892 -0.004572438 0.00532632 0.025744513
000280 e0 a8 32 3c 95 5d 3b bd 91 76 6f bd 7f 1d 83 bd
       0.010904521 -0.045743544 -0.058462683 -0.0640211
000290 b3 b0 28 bd 21 4b f6 bc bc f4 10 bd 61 3f ff 3c
       -0.04118414 -0.030065121 -0.035389647 0.031158151
0002a0 63 c3 6b bd 01 c3 6b 3d 03 5c 98 3c 01 63 72 3d
       -0.057559382 0.057559017 0.018598562 0.05917645
0002b0 89 db 87 3c c7 fa 95 bd 88 46 ac 3c 86 a1 51 bd
       0.016584175 -0.073232226 0.021029726 -0.05117943
0002c0 f0 22 30 3b a8 a9 07 ba 57 8c 86 bd 03 e8 c8 bd
       0.0026876293 -0.0005175122 -0.065697365 -0.09809878
0002d0 b5 1c a4 bd 2b 03 92 3d 1b 19 02 be 40 40 9b 3a
       -0.08013288 0.071295105 -0.1270489 0.001184471
0002e0 4d 77 89 3c e9 72 ad bd 99 d3 33 bd 44 2d b2 3c
       0.01678052 -0.08469183 -0.043902967 0.0217501
0002f0 24 7c 23 bd 30 8e 1c 3e e1 72 63 3c ee 49 e8 3d
       -0.03991331 0.15288615 0.01388237 0.11342226
000300 bb 96 30 3d af 54 f7 3c fc 48 74 bd 6d 44 57 3c
       0.043112498 0.030191747 -0.059639916 0.013138873
000310 04 98 55 3d 7e 7d b8 bc 2c a1 32 be 82 54 21 3d
       0.052146927 -0.022520777 -0.17444295 0.039387234
000320 7f 1e b6 bd 68 90 06 bd 68 ba ed bc 72 5a b4 bd
       -0.088925354 -0.03285256 -0.02901955 -0.088063136
000330 0e 89 c8 bd ec 06 aa bd 85 7e 48 3d 02 18 09 bc
       -0.09791766 -0.083021015 0.048948783 -0.00836754
000340 41 50 1a be 11 78 75 bc a4 da 8a bc 75 83 68 3b
       -0.15069677 -0.014982239 -0.01694996 0.0035478745
000350 eb c5 83 3d 06 5b 1d 3b a7 4e a6 bd 89 df c2 bd
       0.06434234 0.0024010553 -0.081204705 -0.09515292
000360 10 8d a0 bb 85 b2 30 3d 54 76 0a bd 56 48 87 3d
       -0.0048996285 0.043139 -0.033804253 0.06605594
000370 42 bb 2a 3c 05 eb d7 3c de f2 82 3c b4 d4 c5 3d
       0.010420622 0.026357183 0.015984949 0.096597105
000380 20 a5 7d bb 79 4f 48 bd 0c 30 d1 bd ef 4a bd 3b
       -0.0038703158 -0.048903916 -0.10214242 0.005776755
000390 0e dc cc bb 29 ab a4 ba 57 65 5a 3c 95 88 30 3d
       -0.0062518185 -0.0012563217 0.013329825 0.043099005
0003a0 3e 80 f8 b9 84 c8 5d 3d 53 65 ad bd 40 87 47 bd
       -0.00047397794 0.054146305 -0.08466592 -0.04871297
0003b0 a0 1d 59 3b db f3 42 3d 0b d2 b6 3d 4e 20 0c bd
       0.003312923 0.04759584 0.08926781 -0.034210496
0003c0 69 a0 9d 3c a0 dc 4a bd 12 ff 92 bd 5d d8 38 3d
       0.019241529 -0.04952681 -0.07177557 0.045128215
0003d0 07 71 a2 be e4 d7 2c 3d f9 af 58 bd 70 5d e6 3c
       -0.31726858 0.042198077 -0.052902196 0.028120726
0003e0 62 a4 65 bd 80 d7 f5 3d 8b c4 eb bc 29 d2 f0 3c
       -0.05606497 0.12003994 -0.028780242 0.029397087
0003f0 a5 a8 60 bd 83 fc e1 3d f5 cf 0a 3d 1d 9d df bd
       -0.054848332 0.11034491 0.03388973 -0.10918639

layer_1.bias f4 [64]
000000 82 7e 84 3d 70 f9 e6 b9 82 07 4b bd 07 7e b3 bc
       0.06469442 -0.00044054864 -0.049567707 -0.02191068
000010 b7 e2 7a b9 9d 9e 47 bd 69 b0 d6 bd 85 5b 33 be
       -0.00023926316 -0.04873525 -0.10482866 -0.1751538
000020 36 b1 53 be e6 79 05 3d 4d e1 c8 be 5c 33 2e bc
       -0.2067307 0.032586955 -0.3923439 -0.010632362
000030 db 1b 73 3c c2 3c a5 3b c5 ee 95 bd 1a b4 86 bd
       0.014838184 0.0050426433 -0.07320932 -0.065773204
000040 9c 46 8e 3d 37 8a e9 3d 37 95 dc bc da a7 be bd
       0.069470614 0.114033155 -0.02692662 -0.09309359
000050 93 2e ad bd a9 7c 50 3d 48 15 a8 3d c0 19 af bc
       -0.08456149 0.050900135 0.08207184 -0.021374583
000060 22 b5 0d be 45 62 d2 bd de 99 f2 3d 3f a1 d9 3a
       -0.13838628 -0.1027265 0.11845754 0.0016603841
000070 93 cd 93 3e 78 11 98 bd ae cb 99 bd ef 68 c1 3d
       0.28867778 -0.07425207 -0.07509552 0.094438426
000080 0e 7b b3 3d a4 b5 4c bd fb bd 26 be b4 78 7d 3d
       0.08763705 -0.049977913 -0.1628341 0.06188269
000090 d5 01 c0 3d 54 c2 6c bd 5c 07 e2 bd 7a 2e 1c bd
       0.093753494 -0.057802513 -0.1103656 -0.03813026
0000a0 23 eb a7 3c 4b 35 62 be ab db 15 bd 1b a7 0d 3e
       0.020497864 -0.22090642 -0.036586445 0.13833277
0000b0 48 a6 00 3c e0 d3 85 3c a5 9f 2e bd 9a 05 07 be
       0.007852145 0.016336381 -0.042632718 -0.1318573
0000c0 c3 98 75 3c 9d a8 e2 bb 37 bc 80 bc 44 28 86 bc
       0.0149900345 -0.006917073 -0.015714748 -0.016376622
0000d0 a3 35 01 3e c4 4e 1d 3e 8b 11 50 bd 4b ad 2a be
       0.12618117 0.15362078 -0.05079798 -0.16667669
0000e0 f6 02 6d bd 96 b1 f4 3d e8 b9 cd 3b c3 25 64 3d
       -0.057864152 0.11947934 0.0062782653 0.055700075
0000f0 58 cc e7 bd f0 6b 9a bd b3 c0 15 3e 04 28 ff bd
       -0.11318272 -0.07540119 0.1462429 -0.12458804

layer_2.weight f4 [32, 64]
000000 76 50 82 3e df ca 8e 3d 3d 5e 1d 3e 76 0f d1 bd
       0.25452012 0.06972288 0.1536798 -0.10208027
000010 b1 c9 81 be f7 5c 33 be 14 d2 30 be 74 9d 2f bc
       -0.2534919 -0.17515932 -0.17267638 -0.010718692
000020 df 01 c8 bd f2 48 1f 3e e8 19 91 3e f4 0a 1e be
       -0.09765982 0.1555517 0.28340077 -0.15433866
000030 8c d7 6d be a5 b6 19 bd 64 80 b7 bd ae c2 1d be
       -0.23226756 -0.0375277 -0.089600354 -0.15406296
000040 74 12 a0 be 1f f2 b5 bd d4 85 8e 3c 07 8c 92 3c
       -0.3126408 -0.088840716 0.017397799 0.017889036
000050 cc ba a7 3e 58 1e 39 be f4 f4 bf be 3e 26 10 3e
       0.32759702 -0.18077981 -0.37491572 0.14077088
000060 e5 6a 12 3d a5 e9 5b bb 73 c7 4d be f0 13 01 3d
       0.035746474 -0.003355601 -0.20095615 0.031513155
000070 f1 73 8f be 4e aa 7e be 55 5a 39 3d bb fa 87 3d
       -0.28018144 -0.24869654 0.045252163 0.0663962
000080 08 b0 16 bd 02 2b 1d 3d d5 5a 99 3e 29 eb 14 3e
       -0.03678897 0.038371094 0.29952112 0.14542831
000090 c2 7f a4 be 95 ba 6f 3d c1 46 38 3e a3 e8 0b 3e
       -0.3212872 0.058527548 0.1799574 0.13662963
0000a0 ff db df bd ca 49 2d be f0 59 58 3e c2 01 0d 3d
       -0.10930633 -0.1692268 0.21128058 0.034425505
0000b0 e1 57 72 3d cb eb ef bc ff f6 48 3e 8d 48 84 be
       0.05916584 -0.02928724 0.19625472 -0.25836602
0000c0 0d a1 78 be db aa 82 3d 69 cb 6f bd 42 91 02 be
       -0.24280186 0.06380244 -0.058543596 -0.12750724
0000d0 1e 6c a0 bc f6 f5 f6 be 0f 28 3e 3e 94 a9 44 3e
       -0.019582804 -0.48234528 0.18569969 0.19205314
0000e0 22 7e bc 3b 64 57 a4 be 87 a7 85 3e b8 68 ad bd
       0.005752341 -0.32097924 0.26104376 -0.08467239
0000f0 74 b1 5d be 3a 67 a0 bd 75 58 5f be 57 49 9b 3e
       -0.21649724 -0.07832189 -0.21811087 0.3032939
000100 41 9d 07 3d 61 78 c7 bc e5 23 d9 bc c8 f0 e9 3d
       0.033108953 -0.024349393 -0.026506374 0.114228785
000110 0d f7 fa bc 4d 99 0b 3e 5f dc 79 bd 08 8c 03 3d
       -0.030635381 0.13632698 -0.061001178 0.032115966
000120 31 ed 1f 3d 93 79 18 bd 3a cc 11 3e 8b 6a ec bd
       0.039044563 -0.037225317 0.14238063 -0.11543759
000130 5d d6 8f 3d 35 ea e2 bd 5c c5 e1 bc 1f a6 af bd
       0.070233084 -0.11079828 -0.027559929 -0.08576607
000140 40 7f ce bd 03 3d f6 3d ab ef 9a bd c9 88 d3 3c
       -0.10082865 0.12023356 -0.07565244 0.02582206
000150 d1 52 b1 bc 0e 7d 2c 3e ca f0 9f 3d 9f 4a d2 3d
       -0.021645935 0.1684458 0.07809599 0.10268139
000160 f0 df 62 bd 08 a6 a6 bd 73 7b d3 bd 15 e2 0e 3e
       -0.055389345 -0.08137137 -0.103262804 0.13953431
000170 19 46 7e 3d 44 de 25 3a 5f 0c 2f bd 82 39 60 bd
       0.06207857 0.00063273706 -0.042736407 -0.054742344
000180 06 c2 71 bd c7 07 8b 3d 09 b7 1a bc b2 55 5a bb
       -0.059022926 0.06788593 -0.009443053 -0.0033315239
000190 2d c5 af 3d d8 d6 7c 3d 78 d8 0d be da b0 c9 3b
       0.0858253 0.06172833 -0.13852108 0.0061551156
0001a0 40 d4 c2 bd e3 10 c7 3b f3 8a a8 3c 15 d7 3d bd
       -0.0951314 0.006075011 0.020574069 -0.046347696
0001b0 da 8a 76 bd ce d0 69 bd 9e 16 a7 3c eb 78 a9 bd
       -0.060191013 -0.057083897 0.020396527 -0.082750164
0001c0 b3 27 39 bc 8f 4a 1d bd 4e cf 90 3d 7f d5 cf bd
       -0.011300969 -0.038401183 0.0707079 -0.10148143
0001d0 8e c6 84 bd 6a 33 bc 3d 1e 32 0e 3d 3b 1a 23 bd
       -0.06483184 0.09189494 0.034715764 -0.039819937
0001e0 b6 a4 59 3d 50 8e 67 3a 61 64 32 3d a2 db 24 be
       0.053135596 0.0008833157 0.04355276 -0.16099408
0001f0 09 7f 3e bc 32 8e 4e 3d 50 14 88 bd e3 f4 c3 3d
       -0.011626967 0.050428577 -0.06644499 0.09568193
000200 64 9d cd bd 18 e6 a8 bc ac 3b b1 3c c6 24 19 3e
       -0.100397855 -0.02061753 0.0216349 0.14955434
000210 13 31 a6 3d 8c 2d 5c 3d ab 77 d2 bd 46 72 c2 bd
       0.08114829 0.053754374 -0.10276731 -0.09494452
000220 df e6 c6 bb 79 d5 0d be 2f c5 89 3d a1 3b 52 bd
       -0.0060700024 -0.13850965 0.06727063 -0.051326398
000230 3b 99 a3 3d 8d a5 0a bd 24 26 d5 3d 73 88 03 3d
       0.07988211 -0.033849288 0.10407665 0.03211255
000240 66 08 40 3c bf 58 13 3e 00 62 eb 3d 30 39 f6 bd
       0.011720752 0.14389323 0.114933014 -0.120226264
000250 44 c0 47 bd bb 89 f4 bc d0 88 74 3c 1f 0f cb 3d
       -0.048767343 -0.029850831 0.014925197 0.099149935
000260 f7 f7 45 3e c3 23 2b 3d e7 53 76 3c 30 c1 80 3c
       0.19332872 0.041782152 0.015034652 0.015717119
000270 2b bf 22 3d aa 2c a5 bc 0c d0 8b bd ca d9 15 be
       0.039733093 -0.020162899 -0.06826791 -0.14633861
000280 84 74 44 3d d3 41 3b be a3 81 0a be 50 69 a1 bc
       0.04796268 -0.18286829 -0.13526015 -0.019703537
000290 67 8e 06 be 1b b3 cc 3d 26 2b bb bd 74 f1 71 3d
       -0.1314026 0.09995099 -0.09139089 0.05906816
0002a0 d4 61 b9 bd d0 ff c2 3d a7 36 30 bd 1b 57 59 bd
       -0.09051862 0.095214486 -0.04302087 -0.053061586
0002b0 52 6b 74 bb 94 9d 1b bc f2 e4 16 3e 29 14 ba 3c
       -0.0037295413 -0.009498019 0.14735773 0.022714691
0002c0 b0 07 e2 bc d4 36 e8 bd c9 8e f7 bb f2 9f 6f 3d
       -0.027591556 -0.11338583 -0.007554863 0.058502145
0002d0 68 20 1f 3d 10 5b fe bd b5 15 ae 3d 67 7b fe 3d
       0.038849264 -0.124197125 0.08500234 0.12425881
0002e0 6d 55 88 bd cd 1e 6b bc 5f c7 33 bc 34 ea bb bd
       -0.06656919 -0.014350605 -0.010972827 -0.0917553
0002f0 68 e2 06 be 82 9b 8a bc b2 45 9c 3d d7 dd a7 bb
       -0.13172305 -0.016919855 0.07630481 -0.005122881
000300 e4 42 90 bd df 6d 1f 3e e0 64 9c 3d 72 69 95 3d
       -0.070440084 0.15569256 0.07636428 0.07295503
000310 e2 0f fd 3d 4a 16 81 3c be de d7 bd d5 42 90 3d
       0.12356545 0.015757699 -0.105405316 0.07043997
000320 5f bd e4 3c a0 b1 ba bd 30 b6 c8 bd 99 f7 8c 3d
       0.02792233 -0.091159105 -0.098003745 0.06883163
000330 69 81 8c bd 17 91 06 3d c1 6c 13 be 09 8b 8d bd
       -0.068606205 0.032853212 -0.14396955 -0.069112845
000340 1d c2 07 3b 1b 8a d5 bc 46 24 85 3d 11 51 56 bd
       0.0020715066 -0.02606683 0.06501059 -0.052323405
000350 c2 d1 0e 3d 4a d3 a9 bd e4 20 4a 3d 65 21 cc bc
       0.03486801 -0.08292253 0.049347773 -0.024918268
000360 18 00 83 3d 6c 02 d0 bd d3 af fd 3d 65 a7 98 3d
       0.06396502 -0.10156712 0.123870514 0.07453803
000370 28 8c e5 bd 06 f6 ac bb d0 e6 0d bb d9 67 cf 3d
       -0.11208373 -0.0052783517 -0.0021652468 0.10127229
000380 c1 79 c9 bd c0 93 b0 3c 43 b3 ef bc f3 72 61 3d
       -0.09837676 0.021554828 -0.029260283 0.055041265
000390 9c 70 83 bb 83 fd 98 3d 1b af 74 3d fe 77 18 bd
       -0.004011227 0.074702285 0.059737306 -0.03722381
0003a0 c6 41 c7 3d 75 da 0d 3d 86 34 bd bd 0d 23 8d 3d
       0.09729342 0.034632165 -0.09238534 0.06891451
0003b0 1f 91 b4 3b 54 d1 6d bd 3d f2 09 3d 2a e0 f3 bc
       0.005510464 -0.05806096 0.033678282 -0.029769976
0003c0 37 4e aa bc d4 cd 2f 3d 6b e6 dc bd 50 43 f9 3c
       -0.020789249 0.042920902 -0.10786136 0.030427605
0003d0 fa 66 8f bd dc 7a ad bd d4 f0 f6 bd 7f b4 e6 bc
       -0.07002063 -0.08470699 -0.12057653 -0.02816224
0003e0 a1 ca b7 bd c1 38 39 be 6b bc 82 bd 4d 6f d1 3d
       -0.08974195 -0.18088056 -0.06383594 0.10226307
0003f0 1c a5 92 3d 5c e5 0b 3c 46 f3 07 be 1c ed 96 3d
       0.07160398 0.00853857 -0.13276395 0.07369444

layer_2.bias f4 [32]
000000 24 bf ef bd 08 a3 bf bd 21 9b 69 bd f1 1e b0 bd
       -0.11706379 -0.093572676 -0.057032708 -0.085996516
000010 5d 57 6b 3d 7b 51 2f 3d 40 c5 9e 3d 28 cc 82 bd
       0.057456363 0.042802315 0.07752466 -0.06386596
000020 7b c7 10 be 95 98 b5 bc 88 87 b4 bc e8 27 18 3e
       -0.14138596 -0.022167483 -0.022037283 0.14858973
000030 b9 48 81 3d 60 c6 58 3d 79 ea f1 3c 8d 8b 05 3d
       0.06312699 0.05292356 0.02953075 0.03260379
000040 56 fa 8a 3b 78 38 a1 bd 2b 46 be bd 8e 7a c4 bd
       0.004241268 -0.07872099 -0.09290727 -0.09593688
000050 27 06 89 bd bc 5b 3e bd f0 4c f1 3e eb f8 a1 bc
       -0.066906266 -0.046474203 0.4712901 -0.019772014
000060 df 27 01 3e 5e 61 2b 3e 38 2e d9 bd f1 82 d4 bc
       0.12612866 0.16736361 -0.10604519 -0.025941344
000070 b2 2f 7b bd 44 4b 82 bc a8 e1 f6 bb ab 24 07 bd
       -0.061324783 -0.01590503 -0.0075342245 -0.032993954

layer_3.weight f4 [1, 32]
000000 97 04 af 3f c8 ba 7b 3e 8c e4 9a be 24 b1 74 3e
       1.3673276 0.2458297 -0.30252492 0.23895699
000010 1b e2 5e 3e 8a c8 b6 be 8e 4f 36 3f 05 2d 87 be
       0.2176594 -0.35699874 0.7121514 -0.26401535
000020 66 d4 10 40 ea f2 aa be 88 73 d2 be 15 59 dc be
       2.2629638 -0.33388454 -0.41103768 -0.43036714
000030 24 18 f8 3e a7 92 46 be 6d cd ab be 9b 2b 9c 3e
       0.48455918 -0.19391881 -0.33555165 0.30502018
000040 25 cf 4d 3e ef 97 d2 be da 9f 23 bd 8a c1 cf 3e
       0.2009855 -0.4113154 -0.03994737 0.40577346
000050 b9 95 9e 3e f1 bc 04 40 bc 09 21 bf 43 f8 24 40
       0.30973604 2.074032 -0.6290548 2.5776527
000060 4b 4e 25 be 7c 83 b6 be db dd b5 3e 6f 2f 81 3f
       -0.16143148 -0.3564719 0.35520825 1.00926
000070 de c8 93 3e b8 3a 4b be 6b f0 09 3f a3 f0 84 3e
       0.28864187 -0.19846618 0.53882474 0.2596484
