checkpt/isolated/batch64_client_3_1.pth (torch, 61015 bytes, 5 tensors)

layer_1.weight f4 [64, 197]
00000000: c042 563c eb03 ebbd 78be a13d fc17 6d3d
00000010: a803 33bd 4434 c2bc d2eb f3bd 7800 30bd
00000020: 0c50 0dbd 4c6d ee3c ee42 4f3d 150a ea3d
00000030: cf44 a13d 402d f5bd bf52 e33d 02b8 39bd
00000040: 8ab9 e83d ccd2 983c 98ea d73d 306e 58bc
00000050: 3648 833a 8f79 85bd 87bd 81bd 8082 b73d
00000060: 814a 043e 7a5c 5bbd 9eb4 25be 3382 05bd
00000070: 7c02 88bd b4d2 d2bd a67c 2f3d e279 e83d
00000080: d532 a3bd 2d57 603d 898d 863c 0c60 c7bd
00000090: 8328 f43d 251f 8e3c 3520 acbb 7971 83bd
000000a0: c8a0 33be ede1 0b3c 31da 62bd b9e6 d43d
000000b0: d6f0 85bc 5825 25bc 441c 29bd a94a 1d3e
000000c0: 11e7 a0bc 61a3 253c 24f5 793b 31af 08bd
000000d0: 3f9d 27bd 7aea 283d 518e cc3c 5ddb 9e3d
000000e0: 2ce9 78bc cb64 a1bd f59c 3a3d 1fcc 063d
000000f0: 31c0 1cbe 9773 423d 7145 f03c 023f da3d
00000100: e6cf 1dbd 503e 1c3e 00f9 86bd 843e d2bc
00000110: 1e19 3a3d 0ed5 333d d587 473e 2cd9 d23c
00000120: 6c3c 1cbc 2665 173d bf2c c43b f035 cdbb
00000130: c4d9 e83d 76ce 723c d230 403e b0ae 923c
00000140: 29f3 96bd 2a42 5d3d 71ef 423d 40f7 003b
00000150: 3899 143c b1ec 083e 7daa 893d c4de 8cbc
00000160: d3a6 863d bad8 4d3d 4df6 72bb 876c e6bb
00000170: 87cf 2f3d 102a f2ba 227e 963d b4de d0bd
00000180: b45a 2fbc a235 5bbd 18db 0bbd 1ade 253a
00000190: b68e 3dbd d55a 55bd 1834 6c3d c183 e83c
000001a0: de59 673d 5278 d3bd 7638 98bd 68de 383c
000001b0: a2df 08be c083 3f3c b505 263e 978a 65bd
000001c0: 139c 683d 58f9 82bd b1fe debd 6b5a fcbd
000001d0: a29b 023d ef0e 3dbd de1e abbc 5f72 e8bb
000001e0: a118 e13c e217 e43b 77b6 9dbd aa4d abbc
000001f0: 7099 dabb 323d 90bd 7eea ff3c dbb6 52bc
00000200: e908 03bd fdab 88bd cd8f adbd eff8 a73d
00000210: 7fce 8bbd 9572 253e a3db d33c 599f 2d3c
00000220: 0881 563d 1d13 17bc bd65 11be fb37 de3d
00000230: b6fb 3c3c 58f6 9d3c d95e a0bc 4012 673c
00000240: 920e 59be 0690 363c 50b6 d1bb 2a72 5e3d
00000250: d4fe 24be dceb 2bbd c41d 9f3d feb1 c93c
00000260: 0144 1a3d 4c63 f83a 1d56 dcbc 34d6 03bd
00000270: ce22 69bd be6d 3f3e a66c 9d3c 2d51 753d
00000280: a0ad 9cbc 6deb 91bc e39c 26be cad2 bfbc
00000290: e4f5 743e d9ae 1a3e b3e4 c7bd 1cde 713d
000002a0: 2101 153c 0e16 bf3d 7ce6 fcbc f66b 3fbd
000002b0: 157e eabd 7294 13be 01bf 8abc 38a6 a63c
000002c0: eabb 2cbd 0dbd 9e3c 406f 90ba 53be b6bc
000002d0: 2a83 e0bd 729f 34bd 977b 3b3b 82f0 42bd
000002e0: d1dd 363d bc3f c73d 2e27 343e f989 84bd
000002f0: bc96 693d 624b cf3d 8444 abbc 5dc3 9abb
00000300: ba8c fb3c d989 6dbd 451c 983d bc72 89bd
00000310: 5184 753c da69 7c3d 3d9a 5f3d f30a 923d
00000320: 0a4e 6abd 5c51 553c cad8 8dbd c5bc f6bd
00000330: b501 a7bb 816b aebd c2ce 0dbd 7a64 0f3c
00000340: fcc2 0e3d 4994 0abe 24ed 74bd 069c c1bc
00000350: c08e 0abc d3f4 743c 4c1a 1f3d 6414 a4bd
00000360: 8710 833d b27e 38bd e2f5 9dbd e899 c0bc
00000370: f8a2 5dbd e9b0 21be 6773 4f3d 99be 98bd
00000380: 5a74 303d 36ac 0d3d 154a a93a ede2 7d3d
00000390: 8df9 023d 1206 84bc 25c1 d33d 144f ef3c
000003a0: 86d2 9cbc 45c7 6f3c 2210 02bd ed1f 8a3d
000003b0: f0c5 ef3b d106 01bd b4aa 3c3e afb1 d6bb
000003c0: 54bb 29be 4b9d b4bc 9221 753c ec39 7fbd
000003d0: 07e3 92bd 149c 803d b509 e7bd 9284 b33c
000003e0: b754 833b 3e98 48bd 6685 623e c505 2ebd
000003f0: 83de c23a a0e1 8abb becf 6bbd c592 763d
0.013077438 -0.11475357 0.07897657 0.0578842 -0.04370466 -0.023706563 -0.119102135 -0.042969197
-0.034500167 0.029104851 0.05060094 0.11427704 0.07874452 -0.119715214 0.11099767 -0.0453415
0.11363514 0.018655203 0.10542792 -0.0132098645 0.0010016027 -0.06517326 -0.063349776 0.08960438
0.12919046 -0.05355499 -0.16182181 -0.03259487 -0.06641099 -0.10294095 0.042843483 0.11351372
-0.0796868 0.054770637 0.016424911 -0.09735116 0.119217895 0.017348835 -0.005252863 -0.064181276
-0.17541802 0.008537752 -0.055383865 0.10395569 -0.016350191 -0.010079704 -0.04128672 0.15360512
-0.019641431 0.010109753 0.00381405 -0.0333702 -0.040921446 0.04123924 0.024970206 0.07756684
-0.015192311 -0.07880553 0.045559842 0.03290951 -0.1530769 0.047473516 0.029329987 0.10656549
-0.038528346 0.15258145 -0.06590462 -0.025664575 0.04543411 0.043904357 0.1948541 0.025738321
-0.00953589 0.036961697 0.0059867795 -0.0062625334 0.113696605 0.014819732 0.18768623 0.017905563
-0.07370598 0.054018177 0.04759163 0.0019678622 0.009069733 0.1337154 0.06721971 -0.017196067
0.06574788 0.050255515 -0.0037073076 -0.0070319804 0.042922523 -0.001847567 0.07348277 -0.10198727
-0.010702778 -0.053517945 -0.03414449 0.0006327346 -0.046278678 -0.052088577 0.057666868 0.028383138
0.05648219 -0.10325684 -0.07432644 0.0112834945 -0.13366559 0.0116891265 0.16213115 -0.056040373
0.05678947 -0.06395215 -0.10888422 -0.12321933 0.031886704 -0.04615682 -0.020888742 -0.007093712
0.027477564 0.006960855 -0.07700818 -0.020911057 -0.006671123 -0.07042922 0.031239744 -0.012860979
-0.03199092 -0.06673429 -0.084746934 0.08201777 -0.068264954 0.16156991 0.025861567 0.0105970735
0.052369148 -0.009220866 -0.14198966 0.10850521 0.011534622 0.019282505 -0.019576477 0.014103472
-0.21196964 0.011142736 -0.006399907 0.054308094 -0.16112834 -0.04197298 0.07769349 0.024621006
0.03766251 0.0018950491 -0.02689653 -0.032186702 -0.056917958 0.18694207 0.019216847 0.05989187
-0.01912576 -0.017812455 -0.16270785 -0.023415942 0.23921925 0.15105762 -0.09760418 0.05904971
0.009094507 0.093303785 -0.030871622 -0.04673382 -0.114498295 -0.14412096 -0.01693678 0.020342931
-0.042171396 0.019377256 -0.0011019483 -0.02230755 -0.109625176 -0.04409737 0.00286076 -0.047592647
0.044645134 0.09728953 0.17593071 -0.06471629 0.057028517 0.101218 -0.020906694 -0.004722996
0.030706752 -0.05799279 0.07427267 -0.06711337 0.01498516 0.061624385 0.054590452 0.07130995
-0.05720333 0.013019886 -0.06926115 -0.12047724 -0.005096639 -0.085165985 -0.034621008 0.008751983
0.03485392 -0.13533129 -0.059796467 -0.023633968 -0.008456886 0.014950949 0.038843438 -0.08011702
0.06399637 -0.0450427 -0.07712914 -0.023510888 -0.054110497 -0.15790142 0.050647166 -0.074582286
0.04307971 0.03458806 0.0012915755 0.06198399 0.03197627 -0.016116176 0.10339574 0.029212512
-0.019143354 0.014634912 -0.031753667 0.067443706 0.007317297 -0.03150064 0.18424493 -0.0065519433
-0.16575366 -0.02204766 0.014961617 -0.062311098 -0.07172208 0.062797695 -0.11281148 0.0219138
0.0040079015 -0.048973314 0.221212 -0.04248597 0.0014867339 -0.0042383224 -0.057571165 0.060198564

layer_1.bias f4 [64]
00000000: 4239 053e dfbb 5fbe c240 18be 30c5 313d
00000010: f899 0b3c aa9c 39be c210 22be e5f4 0fbd
00000020: 8902 6abc df5c b9bd 9b7f 30bd 21e7 cebd
00000030: 7d64 eebd 63fc 72bd efc4 0bbe 749a a23c
00000040: dbc0 bfbd bc3c d63d 75a1 163e aa34 ecbc
00000050: 9b0c 543e bb46 a73d 7068 dbbd c516 e5bd
00000060: d97d 503b f657 003e 2c17 babd cd41 e6bb
00000070: e592 39be 46db cfbd 4e0a b0bc 7292 50be
00000080: 872a 61bd d3d0 9fbd d3b5 61bd 6f94 87be
00000090: e887 cf3d 43a6 bf3c 7ab3 0ebe 9889 55be
000000a0: 2ae6 08be 318e 53be 4558 a0bd 1d46 b93d
000000b0: 9b59 b8bd fff3 1d3d 8c5a 2cbe bd1e 2fbd
000000c0: 5f5e c1bd a563 87bd 5102 adbd 4f84 8ebd
000000d0: 1dff a63b 7c0f 11bd 7b27 fdbd d2fd f73d
000000e0: e9c3 1a3e a76c 2abd e0a1 83bc 15b3 61bc
000000f0: f990 cc3d 9cf7 9a3d 3ff4 f73d 1b20 2bbc
0.13010123 -0.21849011 -0.14868453 0.043400943 0.008520596 -0.18126169 -0.15826705 -0.03514566
-0.014282831 -0.09050917 -0.043090444 -0.10102678 -0.1164026 -0.059322726 -0.13649343 0.01984904
-0.09362956 0.10460803 0.14710028 -0.028833706 0.20707934 0.08167788 -0.10713279 -0.111859836
0.0031813292 0.12533554 -0.09086451 -0.007026887 -0.18122442 -0.10149245 -0.021489289 -0.20368364
-0.054972198 -0.07803502 -0.05510504 -0.26480433 0.10133344 0.02339471 -0.13935652 -0.20853269
-0.1336905 -0.2065971 -0.07829336 0.09046576 -0.09001466 0.03856277 -0.16831416 -0.042753924
-0.09441828 -0.066108026 -0.084477074 -0.069588296 0.00509633 -0.035415158 -0.12361046 0.12108959
0.15113796 -0.041607525 -0.016068399 -0.013775607 0.09988589 0.07566759 0.12107133 -0.010444666

layer_2.weight f4 [32, 64]
00000000: 428e 003e de2e b83d f47d 5b3d f720 b5bd
00000010: 965a 1d3e 34e4 7b3a 992b 68be f787 0c3e
00000020: 879a 00be 6f64 103d b9e2 34bd a623 62bd
00000030: e44b c43d 24b7 b93c dabc b83d 8fd2 603e
00000040: 6994 75be 5d82 01be 2c85 40be 14da 48bd
00000050: ef57 1d3d 9f2f 1d3e 5f99 17bd b63a 9bbd
00000060: 6c25 493e fbe4 5c3d d4d8 04be f704 bdbc
00000070: 1fcd 30be f853 933e ef06 20bd 5f88 dbbd
00000080: 92fd 89be 4d90 27be 8e9e 633d c7a7 083d
00000090: 7a98 53bd 8682 4c3e 8857 303d 735c 37be
000000a0: 0728 bebd bfa9 323e c0ac a2bd 9853 273e
000000b0: e416 86be dcdd 473d 5e73 883d 27f9 ab3d
000000c0: 559e 3c3e 7239 8e3d 7d6d 773d b1c8 24be
000000d0: f954 c53d 87c1 69be a635 b2bd cf86 e33d
000000e0: e8f0 423c e7a1 a9be 6b31 31bd 1254 1bbe
000000f0: 1078 38bd 9e3d acbb 2ee3 f23d 796d dc3d
00000100: 8c10 1a3e 665e 073e 9f1b 86be de20 d53c
00000110: dbf4 8e3d d2c5 523e f0da 6b3d 4479 14bd
00000120: 52bc 43be d1e5 783e 8cce 18bd f569 aabe
00000130: 8a46 48bd 162c 4ebe 3309 123e e06f 423e
00000140: 20fe d9bd c929 8abe 37ce 0dbe 7fd3 1a3e
00000150: 13e0 5f3e f7de b8bd 6093 593e 4c77 e23d
00000160: 39f5 313e f556 b7bd 3809 68be 98f9 4abe
00000170: f68d 4fbd 01ae 0a3e ea3c e3bb bb1a 9ebe
00000180: 1846 22bd 4aed e9bc d77c 793e cfb1 953e
00000190: 6a27 02be 770e 2f3d 4eae 253e eeac 0dbe
000001a0: acb6 19be 952c d93d 22fa 6bbe b497 953e
000001b0: 0a14 a8bd 2dcf 273e 7c4e 523e 5423 063d
000001c0: 0bcf 413d 745e ac3d 225f 17be fc39 4cbd
000001d0: a6d9 32be 048a 89bd 6d27 54be f4a8 88bc
000001e0: 88e4 e63d 2188 88bd c2f2 cf3c 0705 3fbe
000001f0: 99fd fabd bfc1 483e d1d9 b13d 954f 673e
00000200: 2901 053e 17b9 47bd 06ce 593d 1560 a83d
00000210: 5cfe 933d 6a63 b0bb e014 0abe 489e c5bd
00000220: 0fa4 1fbe 37c4 58bc 65d3 c5bd 5e93 ab3d
00000230: bfb6 823d d5d4 093e 99e8 303e d88c 393d
00000240: efa4 073e 6d57 dbbd 6b33 08bd 222d 7a3d
00000250: fcc7 ee3d b32c 52bd 8fb4 a83d 0b68 03be
00000260: 6ad2 1d3d 4de1 96bd f781 943d cb28 63bd
00000270: 1869 373d f54c b73c 367d da3d c088 a4bd
00000280: 3432 103d 1633 853d 0fbe c9bc 64d0 c9bc
00000290: 7709 463d 5fcc 43bc 953b f83c f322 febd
000002a0: 5897 b9bd 258d c53d 0206 0f3d a707 47bd
000002b0: eefc 463d a2f7 a03d a228 94bd 53c1 813c
000002c0: 47eb b1bd 2a02 703d 5d02 c93d 22b2 533d
000002d0: 4e59 e0bd 120e dc3d 5241 033e 9fa3 0b3e
000002e0: 248a e93d c02b f53d 73a4 10bd fcdb 993d
000002f0: 5790 0f3e e47d de3d 82b1 48bc 2665 20bb
00000300: 6e48 71bd 38fd 7bbd 37e9 003d 124d 86be
00000310: 4859 8a3d 50c8 d83d e312 133c 12d2 c73d
00000320: 983b a53d a8ec a4bd dc4e 19be 35bb f73d
00000330: 0974 e23a 227f a0bd a46d 873d 64eb 17ba
00000340: 26a7 733c 0ab5 593d 638b 0b3e 8d93 123d
00000350: 0033 cdbc 731b 653b d962 d23d c885 7cbd
00000360: 62ac f23d 76aa 2a3e 2493 e33d 9641 b93d
00000370: 1710 8a3d a188 4ebe 915e 27bd 2db2 aa3d
00000380: 9ef9 e13d 3ebe 18bd caf1 bdbd 6459 6dbe
00000390: 66c3 75bd 11bf 063d 7c81 473a 4f29 ecbd
000003a0: 627b 68bb b2a0 dbbd efe1 adbc 5ea3 e23d
000003b0: e27b 05bd a330 a5bd fded e5bd 0390 923d
000003c0: 6a10 88bb 1fd0 853d 2106 733e b49f ecbc
000003d0: 5200 b93c 1265 ee3c 0bf1 1abe 25c1 0a3e
000003e0: 49fa 9fbd 9d82 06bd 66b8 e0bc 084e 8d3d
000003f0: 1d96 ec3d 18da f3bd 5538 943d 3457 b8bd
0.12554267 0.08993314 0.053586915 -0.08844178 0.15366587 0.0009608895 -0.22672881 0.13723741
-0.12558948 0.03525203 -0.044161532 -0.05520978 0.095847875 0.022670336 0.090203956 0.21955322
-0.23982395 -0.12647386 -0.18800801 -0.0490361 0.038413938 0.15350197 -0.0370115 -0.075795576
0.19643182 0.05392931 -0.12973338 -0.023073656 -0.17265747 0.28775 -0.039069112 -0.1071937
-0.2695127 -0.1636364 0.05557113 0.03336313 -0.051659085 0.19971666 0.043052226 -0.1790636
-0.09284978 0.17447565 -0.07943106 0.16340482 -0.2618934 0.048795566 0.066626295 0.083971314
0.18419774 0.069445506 0.06040715 -0.16092183 0.09635348 -0.22827731 -0.08701639 0.11109697
0.011898257 -0.33131334 -0.04326002 -0.15168789 -0.045036376 -0.005256369 0.11859737 0.10763068
0.15045375 0.13219604 -0.26192948 0.026016649 0.06980296 0.20583275 0.057581842 -0.03624846
-0.19114807 0.24306418 -0.037306353 -0.33283964 -0.048895396 -0.20134005 0.14261322 0.1898799
-0.106441736 -0.26985005 -0.13848196 0.15119742 0.21862821 -0.09026902 0.21247625 0.1105791
0.17378701 -0.089521326 -0.22659767 -0.19821775 -0.050672494 0.1354294 -0.0069347518 -0.3087977
-0.039617628 -0.028555531 0.24364029 0.2923722 -0.12710348 0.042738404 0.16179773 -0.13835499
-0.1501109 0.106042065 -0.23044637 0.29217303 -0.08206947 0.16387625 0.20537752 0.032748535
0.047316592 0.08416453 -0.14782384 -0.049859986 -0.17465839 -0.067157775 -0.20718165 -0.016682126
0.112740576 -0.066665895 0.02538431 -0.18654262 -0.12255401 0.19605158 0.08684123 0.22588952
0.12988724 -0.0487605 0.053174995 0.08221451 0.072262496 -0.005382945 -0.13484526 -0.096493304
-0.15589927 -0.013230375 -0.09659461 0.083777174 0.06382512 0.13460095 0.17276229 0.045300335
0.13246511 -0.107100345 -0.03325216 0.0610782 0.11659238 -0.05131216 0.08237564 -0.12832658
0.038530745 -0.073671915 0.07251351 -0.055458825 0.04477796 0.022375563 0.10668413 -0.080338955
0.035204127 0.065038845 -0.02462676 -0.024635501 0.04834887 -0.011950581 0.030301848 -0.1240901
-0.0906207 0.09646062 0.03491784 -0.048591282 0.048581056 0.07859732 -0.072343126 0.015839254
-0.08687454 0.058595814 0.09814904 0.051683553 -0.109545335 0.10744871 0.12817886 0.13636635
0.11403301 0.11971235 -0.03531308 0.07512662 0.14019905 0.108638555 -0.012249352 -0.0024474352
-0.058906965 -0.061520785 0.03147241 -0.26230675 0.0675531 0.105850816 0.008976671 0.097568646
0.08068007 -0.08052951 -0.14971489 0.12096254 0.0017277013 -0.07836749 0.06612709 -0.0005795269
0.014871394 0.053151168 0.1362739 0.035785247 -0.025048733 0.0034958988 0.1027276 -0.06165102
0.11849286 0.16666588 0.11112049 0.09045713 0.0674135 -0.20169307 -0.04086167 0.083347656
0.11033939 -0.037290804 -0.09274633 -0.23178631 -0.0600008 0.03289706 0.0007610542 -0.115313165
-0.0035473933 -0.107240096 -0.021225898 0.11066316 -0.032588847 -0.08065917 -0.11227033 0.07156374
-0.0041523473 0.065338366 0.23732807 -0.028884746 0.02258316 0.029100928 -0.15131013 0.13550241
-0.0781141 -0.032839406 -0.027431678 0.06899649 0.11552069 -0.119068325 0.07237307 -0.09001008

layer_2.bias f4 [32]
00000000: 06cf c2bd b03b a0be 7d47 4e3d 4099 d2bd
00000010: 2f71 4fbd 3ed2 bbbd a13d 2dbd 2fd1 f63c
00000020: 0ae1 ab3d 162f 303c f9ed 4c3c 57b4 73bd
00000030: 5e98 cf3c 05df b7bd 9a3f 1f3d 6708 c1bd
00000040: 7b1b d13d 9f07 363d 0d65 03be ad2e 203e
00000050: 535d 213e e62c a8bc 481e f5bc 59c6 823e
00000060: 90f8 dabb f012 aa3d 1f7e d6bc f505 d5bd
00000070: af02 e3bd 93c2 91be 8821 80bd 3649 b5bd
-0.09512143 -0.31295538 0.050361145 -0.10283136 -0.05064505 -0.0917096 -0.042295102 0.030129043
0.08392532 0.010753414 0.012507909 -0.059498157 0.025341209 -0.089780845 0.038879015 -0.09425431
0.102103196 0.04444086 -0.12831517 0.15642805 0.15758257 -0.020529222 -0.029921666 0.25541952
-0.006682463 0.08304393 -0.026183186 -0.10401527 -0.11084496 -0.2846876 -0.062563956 -0.088518545

layer_3.weight f4 [1, 32]
00000000: 1b66 463f df3a 873f 5f86 a23e 7435 023f
00000010: d0d0 1540 5a89 ca3e bad1 01be 38d4 07bf
00000020: e4d0 f7be 6301 d53e 2615 c33e a36e 433f
00000030: 540b c3be 6fb6 f7be 3fb6 763e 187c 12bf
00000040: e0ca dbbe 7dc1 1d3f 6572 4f3e a64f 20be
00000050: 7779 0ebf 55a9 a0be df3c 1ebf 8c7c 08bf
00000060: aa44 273f cdfe e2be 4d3d e13e a3aa fbbe
00000070: d635 213f 9f03 d13f 150e 723f b176 ed3e
0.7749955 1.0564841 0.31743142 0.50862813 2.34087 0.39557916 -0.1267766 -0.53058195
-0.48401558 0.4160262 0.38102072 0.76340693 -0.3809458 -0.48381373 0.24092959 -0.572206
-0.4292822 0.61623365 0.20258482 -0.15655383 -0.5565409 -0.3137919 -0.6181163 -0.53315043
0.6533915 -0.44335023 0.4399208 -0.49153623 0.6297277 1.632923 0.9455274 0.46379617
