checkpt/isolated/batch64_client_0_2.pth (torch, 61015 bytes, 5 tensors)

layer_1.weight f4 [64, 197]
000000 33 df 59 bd 78 a4 38 3d 0a 0e 95 3d 70 c9 a5 bc
       -0.053191375 0.045078725 0.07278068 -0.020237654
000010 3c 53 1e 3d 34 b2 4b bd 15 27 4a bc e0 5a 15 bc
       0.038653597 -0.049730495 -0.012338419 -0.009115905
000020 a1 ac 98 3b 7f db c3 3a 3a c6 11 bd a5 fa ff 3d
       0.004659251 0.0014942734 -0.035589434 0.124989785
000030 1c cd c1 bd e0 b7 16 bc 0f 12 9c bd 1c b6 78 bc
       -0.0946295 -0.009199113 -0.07620632 -0.015180137
000040 de 8d 10 3c bf f9 04 3e 8e bb 6b bc bc f3 b3 bc
       0.008822886 0.12985896 -0.014387978 -0.021966808
000050 32 57 b1 bd e7 51 75 3d b8 70 9d bd 0b 05 0f 3c
       -0.08659209 0.05989256 -0.07687515 0.00872923
000060 28 63 b7 bc 08 a4 16 bd 56 e8 84 bd a8 70 67 bd
       -0.022386149 -0.036777526 -0.06489627 -0.05650392
000070 8a eb c9 3b 79 54 d1 bc e7 fc 1c 3d ff 62 94 3d
       0.0061621116 -0.025552975 0.038327124 0.072454445
000080 40 2b fc bb f0 68 48 3b b4 c1 77 bd 1e 15 06 bd
       -0.0076955855 0.0030580126 -0.060487464 -0.032734983
000090 b3 7e b5 3d 96 1d 9f bd d5 9d 8b bd d0 2b bd bc
       0.088620566 -0.07769315 -0.068172134 -0.02309218
0000a0 10 b8 7c bd ff 74 a9 3d 65 12 38 bd af d7 5f 3d
       -0.061698973 0.08274268 -0.044939417 0.05464905
0000b0 32 72 9c bc e1 91 db 3c 87 97 66 bd 1a 3c 65 3d
       -0.019097421 0.026802959 -0.05629685 0.05596552
0000c0 3f f4 30 bd 7b c6 8c 3d 73 4f 71 bd 99 e0 36 3c
       -0.04320168 0.06873795 -0.05891366 0.011161947
0000d0 f8 08 c7 bb 65 ba 31 bd 61 1c d1 3c f1 24 81 3c
       -0.006074067 -0.04339065 0.025526227 0.015764685
0000e0 b6 32 77 3d 50 95 b2 bd 13 f7 b8 bd cb 13 10 bd
       0.060351096 -0.08719885 -0.09031501 -0.035175126
0000f0 95 19 cd b9 cc fe 7d bd 4f a5 85 bd d7 71 57 3c
       -0.00039119707 -0.06201057 -0.06525671 0.0131497
000100 78 47 fc bc f1 08 31 3d ba f2 0e bd 2e 6f 4b 3d
       -0.030795798 0.043221418 -0.03489945 0.049666576
000110 73 da 22 3c 7d 0e 7c bd 76 41 ab bd f3 66 0d bd
       0.009939778 -0.061537255 -0.08362095 -0.03452201
000120 63 7e 0b 3d 9f ee 0f bd f2 1c f5 bc f2 cc 5d 3d
       0.03405608 -0.035139676 -0.029921029 0.05415053
000130 de cf 82 3d 44 d2 86 ba 71 12 22 3d e6 fa 1b 3d
       0.06387304 -0.0010286053 0.03956837 0.038081072
000140 72 64 04 bd 41 30 50 bd 51 12 b0 3c e0 57 10 3d
       -0.032322355 -0.05082727 0.021493109 0.035240054
000150 38 8f 0b 3d d8 77 97 3b 28 b5 41 bc b3 fb c2 3d
       0.03407213 0.004622441 -0.011822976 0.09520664
000160 f4 36 f9 bc ba 4e 19 3c 9c 16 8e bd 2d 0d b2 bc
       -0.030421712 0.009357149 -0.06937906 -0.021734798
000170 88 92 c9 bd 70 f7 ef bc 7e c9 59 3c 48 ae c0 3c
       -0.09842402 -0.029292792 0.013292668 0.023520604
000180 4a 0a 5c 3d 32 22 1b bd 84 51 30 3d 1b b8 77 bc
       0.05372075 -0.037874408 0.04304649 -0.015119578
000190 e2 0b 77 3d ab 02 51 3c f3 f7 80 bb af 18 0d 3d
       0.060314067 0.012756984 -0.003935808 0.03444737
0001a0 82 f4 04 3d 93 b7 5d bd c7 7a 7a bd 6b fb a8 bd
       0.032459743 -0.05413015 -0.061152246 -0.08251079
0001b0 bf 7a 8f bd 44 f5 32 3d 62 8c 72 3d 24 32 11 3b
       -0.07005834 0.043690935 0.05921591 0.002215513
0001c0 33 9d 03 3b 51 28 45 bc a6 34 15 bd d9 43 fe 3c
       0.0020082712 -0.012033538 -0.036427163 0.031038212
0001d0 4a c3 51 b9 74 7c 34 3d 21 c9 5f bd af c7 50 3c
       -0.00020004544 0.044064 -0.05463517 0.012742921
0001e0 d5 63 94 3d 0f f8 fd 3c 32 4b d8 bd b5 31 14 bd
       0.07245604 0.031002073 -0.10561217 -0.036180217
0001f0 46 5c 76 3d 6e 96 4e 3d df d4 d7 3b f3 11 35 3d
       0.060146593 0.05043643 0.0065866555 0.04420657
000200 18 1f d1 3b 37 9b 38 bd b4 be 8b bd fc b8 9f bc
       0.0063818805 -0.0450699 -0.06823483 -0.019497387
000210 a6 26 65 bd 7a 59 5d bc 84 e6 a2 3c 00 37 e5 3c
       -0.05594506 -0.013510102 0.019885309 0.027980328
000220 b3 b7 59 bc 7c 9e bf 3c a1 ef 60 3a 44 bd 90 bc
       -0.013288426 0.023391 0.00085806294 -0.017668374
000230 c1 09 99 3a 7e e6 4a 3d 6a 31 f8 bc 77 31 1d bd
       0.001167588 0.04953622 -0.030297 -0.03837725
000240 8d 19 05 bd 8e dd 6f 3d a2 dd 57 3d f1 b6 87 3d
       -0.03249507 0.0585609 0.0527016 0.0662669
000250 3a 3e 8a bc dc 05 7a 3d 65 25 d2 bd 53 7e 9d 3c
       -0.016875375 0.061040744 -0.10261039 0.019225275
000260 df 0c 02 bc 31 61 85 bb fe fa 49 3b 58 56 81 3d
       -0.007937639 -0.004070424 0.003081977 0.06315297
000270 e3 55 65 bd a2 06 d9 3d 85 b5 26 bd 9d d5 08 3c
       -0.05599011 0.10596968 -0.040700454 0.008351711
000280 17 80 c3 3d 89 25 3f 3d c4 21 23 3d 96 8b 53 bb
       0.095459156 0.046666656 0.039827123 -0.0032279245
000290 03 d4 46 bd bf b2 86 bc dd 6a ba 3c 7d 0a 2d bd
       -0.048542034 -0.016442655 0.022756035 -0.04224633
0002a0 f3 06 63 3d cd 4a a0 3c 77 7a 83 3c 7b 47 cc bc
       0.05542655 0.019566918 0.016049607 -0.024936428
0002b0 9f 22 9a 3c 48 ca a6 bd 41 d9 0d bc 49 9c 8d 3d
       0.018815337 -0.08144051 -0.008657754 0.06914575
0002c0 65 eb 09 bd 2d 61 58 3b 30 17 d1 bb f0 37 a7 3c
       -0.033671755 0.0033016906 -0.006380938 0.020412415
0002d0 11 7b 17 bd 46 d3 50 3d 18 d9 c6 bb 7a be 74 bd
       -0.0369826 0.050982736 -0.00606836 -0.059751965
0002e0 7a 5c 45 bd 02 e5 89 bc ec 8b c1 bd 3e 4b 27 bd
       -0.048183896 -0.016832832 -0.09450516 -0.04084324
0002f0 61 b9 37 bd 7d 5e 14 bd 55 01 2b 3c 27 05 de bc
       -0.044854525 -0.036222924 0.010437329 -0.027102066
000300 a2 d1 13 3c 13 55 49 bd 37 a7 0d bd c7 2c ce bb
       0.009022148 -0.0491534 -0.034583297 -0.006291959
000310 a5 d0 a4 bc fc b1 5d bd 64 e0 ed 3c ad fc ae bc
       -0.02011902 -0.054124817 0.029037662 -0.02136072
000320 04 e4 24 bd 67 eb ae 3d 4c 2b 60 bd f7 f2 89 bd
       -0.040256515 0.08540993 -0.05472879 -0.06735795
000330 75 be c5 bd 10 05 c5 bc ec de 96 bd 35 cc cc 3d
       -0.096554674 -0.024050266 -0.07366738 0.09999887
000340 b4 ef 14 be d4 5a 37 be 84 6f 40 bb 00 b4 12 3d
       -0.14544564 -0.17905742 -0.0029363343 0.035816193
000350 f4 9e 4b bd fe fd eb bd d5 a6 d1 bd 4e 00 4b 3e
       -0.049712136 -0.115230545 -0.10236899 0.19824335
000360 76 d4 3b 3d ae c1 42 bd 1d 11 a9 bd c3 66 28 be
       0.045856915 -0.04754799 -0.08255217 -0.1644545
000370 fc f9 72 bd ed c9 23 3c 28 00 d7 3c ca d1 e8 bd
       -0.059320435 0.009996873 0.026245192 -0.11368139
000380 c4 40 00 3d cc 61 92 3c 42 a1 6e bc af f0 0d 3e
       0.031311765 0.017868899 -0.014564814 0.13861345
000390 0a fd 79 bc bd 74 47 bd 00 60 e0 3d 53 e6 61 3e
       -0.015258083 -0.048695315 0.109558105 0.22060518
0003a0 76 c6 6c 3e b6 0d 98 3c 75 26 a4 bd f6 3e 7f bd
       0.23122582 0.018561225 -0.080151476 -0.062315904
0003b0 c6 cf d0 bc d8 90 fc bd dd a1 0d 3e 46 01 73 3c
       -0.0254897 -0.12332314 0.13831277 0.014831847
0003c0 4e 31 4e be de cf 76 be a0 89 09 be 9a f3 37 bd
       -0.20135996 -0.24102733 -0.13431406 -0.04491005
0003d0 4e a2 2e be 6d d3 f9 3c 37 d9 e4 3d a3 70 21 bd
       -0.17054102 0.030496323 0.11174243 -0.03941406
0003e0 a6 37 2e 3d c1 13 5b 3d 52 23 26 3d be fb 66 3e
       0.04253354 0.053485636 0.040561028 0.2255697
0003f0 bc e3 08 be 88 8d c0 bd 4b c6 17 3e 94 04 b2 bd
       -0.13368124 -0.09401995 0.14821737 -0.086922795

layer_1.bias f4 [64]
000000 ed 87 02 3e 78 d5 ec bd 42 81 54 bd 6c 24 af bd
       0.12747164 -0.115641534 -0.051881082 -0.08551869
000010 0a f9 dd 3c 4b 00 86 bc a2 6f b3 3d 08 3c b0 bb
       0.02709629 -0.016357562 0.08761527 -0.00537825
000020 ca 9d 65 bd 87 8a 4e 3d b9 0c fb bd 39 80 4a 3d
       -0.056058683 0.05042508 -0.12258286 0.04943869
000030 fd ae bb bd 2f 08 e9 ba cb 85 8b bd 56 04 24 be
       -0.09164236 -0.0017778928 -0.06812628 -0.16017279
000040 58 0e 58 bc 6b 76 b7 3d 7d a7 3c bd 93 84 b1 3c
       -0.013187014 0.08958133 -0.046058167 0.021669662
000050 72 76 1d 3b b5 a8 81 bd 1b 88 02 3d 9c 02 88 bd
       0.0024026898 -0.063310064 0.03186808 -0.06641123
000060 c1 6f 82 3d 91 07 61 bd d6 b6 ea bc 0c ef e3 bc
       0.063689716 -0.054938857 -0.028651636 -0.027823947
000070 56 66 8a bc 87 c1 15 3d 46 a2 01 bd 8a b3 bb bd
       -0.0168945 0.036561515 -0.031648897 -0.09165104
000080 4d d5 a4 bd 1e 89 69 bc 31 89 52 bd d8 82 9a 3c
       -0.080484964 -0.014253883 -0.051400367 0.01886122
000090 63 96 28 3e 9b 91 bf bd 2a a7 bb bc d3 66 e0 bd
       0.16463618 -0.09353944 -0.022906858 -0.10957112
0000a0 a1 ce d9 bc ed e1 a1 3d b7 eb bc bd 1a c1 68 bd
       -0.026587786 0.0790442 -0.092246465 -0.05682478
0000b0 eb 74 8a 3d b6 0c 46 bc c0 7d ac 3a 69 c9 34 bd
       0.067605816 -0.012087991 0.0013160035 -0.044137392
0000c0 1a f0 84 bd 85 cd 1b bc b8 42 d2 bd f9 6e b2 3c
       -0.06491108 -0.009509449 -0.10266632 0.021781432
0000d0 d2 27 dd bd 48 d9 15 bd cb 4f 96 3d b1 22 68 be
       -0.10798611 -0.03658417 0.07339438 -0.22669484
0000e0 80 1a 5b bd df f3 8d bc 48 7e fe bd 4b f8 b7 3b
       -0.05349207 -0.0173282 -0.1242643 0.0056143156
0000f0 77 89 ac bc 3e f3 af bd f2 08 da bd a0 72 ac bc
       -0.021061642 -0.08591317 -0.106462374 -0.021050751

layer_2.weight f4 [32, 64]
000000 ff 1a c6 bd 82 da ce 3d 3e 61 57 bd e2 17 fd bd
       -0.09673118 0.10100271 -0.05258297 -0.12358071
000010 61 02 4c bc 66 58 f2 3c 93 c5 57 3d 2f e6 0a 3c
       -0.012451739 0.029583167 0.052678656 0.008477732
000020 28 f3 85 3d 74 f4 84 bd 47 a2 e5 bd 35 63 0b be
       0.06540519 -0.06491938 -0.112125926 -0.13612063
000030 f8 44 8b bd 5d 62 6a 3c 7f 9a 85 bd 2f 0d 1f bc
       -0.06800264 0.014305678 -0.065236084 -0.009707733
000040 ed 24 82 3d 66 6a 8c 3d fa dd a5 3d 2c 36 b2 bd
       0.06354699 0.068562314 0.08098979 -0.08701739
000050 f5 bd b3 3d 07 8d a5 3d cb 04 0d 3e f5 c2 9a bc
       0.08776466 0.080835395 0.1377136 -0.01889179
000060 1e 3b 42 bc 23 be b1 3b df 76 4a bd e8 f8 fc 3d
       -0.011854915 0.0054242774 -0.04942977 0.123521626
000070 c2 d8 ef bd 68 c8 fd bc 50 11 e4 bc 0b fe 93 3d
       -0.11711265 -0.03097935 -0.027840286 0.07226189
000080 1e 90 f4 3c 37 79 25 3d 2a 5e 3a 3d 27 77 69 bd
       0.029853877 0.040398803 0.045499958 -0.0569984
000090 03 16 14 3c 55 37 6b 3c a0 35 56 3d e7 eb 90 3c
       0.009038451 0.014356454 0.052297235 0.017690612
0000a0 fa 57 c0 bd 6b a4 f3 bd c7 a6 ab bd 80 9e a3 3c
       -0.0939178 -0.118965946 -0.0838142 0.01997304
0000b0 82 57 08 3e 8a 19 ca bd 82 ca 1d bc b1 c3 37 3c
       0.13314632 -0.098681524 -0.009630801 0.01121609
0000c0 f5 b0 69 bd 2a 68 7d 3c bf 53 a4 bd b3 fa 5d 3d
       -0.057053525 0.015466729 -0.08023786 0.054194164
0000d0 c9 6f 28 3c aa b3 53 3d 23 0d 00 bd 54 7e 26 bd
       0.010280558 0.051685013 -0.03126253 -0.04064782
0000e0 98 d0 1b be 0a 3d f0 3c 1e 93 6a 3d 7d ab 80 bd
       -0.15216291 0.02932598 0.057269208 -0.06282709
0000f0 ea 54 cf bd c3 48 aa bd fb dc 5c bc 17 7c ce 3d
       -0.10123618 -0.083146594 -0.01348042 0.10082262
000100 6d df d6 bd f5 61 be bd 4c ce 40 3d 8d 0b 31 bc
       -0.10491834 -0.092960276 0.04707174 -0.010805977
000110 52 bd 47 3d da ea bc bd f9 6d a2 bc 78 f8 ce bd
       0.048764534 -0.09224482 -0.01982783 -0.101059854
000120 f9 85 40 bd 45 f8 e5 3d 41 3e 94 bc 17 10 7a 3b
       -0.047002766 0.11228994 -0.018096091 0.0038156563
000130 91 cb c9 3d 23 c1 8d 3d e1 3a 15 3c be cf e8 bd
       0.0985328 0.069216035 0.009108276 -0.11367749
000140 de a7 b1 3d 48 3f 8f 3d b5 64 e4 3d 03 ea f4 3d
       0.08674596 0.06994492 0.11152021 0.11958697
000150 23 46 bc 3d 90 4a 1f 3d fc 18 66 bd a0 dd 3f bd
       0.09193065 0.038889468 -0.05617617 -0.046842217
000160 32 da 4a bc ae 7b 7d 3c c5 ce 22 bd 5d a5 cc 3d
       -0.012381123 0.015471382 -0.039747972 0.09992478
000170 ca 64 05 3d cd 3c e7 3c 2f d2 de bd db 4c 51 3c
       0.032566823 0.028227234 -0.10879933 0.012774671
000180 3d d1 12 3e 55 e1 07 3d f0 7a 16 3d e0 94 41 bd
       0.1433763 0.033173878 0.036738336 -0.04726112
000190 b9 df c7 3d 2e 40 b5 bd e0 b3 6e 3c de 21 f5 bc
       0.097594686 -0.08850132 0.014569253 -0.029923376
0001a0 ba 78 38 3c 5c 53 a0 3d ee cf b4 bd fc 74 95 bc
       0.011259252 0.078283995 -0.08828722 -0.018244259
0001b0 fc 4d b6 bc f2 ba fc 3d af 87 6d 3d a2 85 6f bd
       -0.022253983 0.123403445 0.057990726 -0.05847705
0001c0 cf 03 43 3d ba dd 30 3d 2e 50 ae bd bd e7 fe 3c
       0.047611054 0.043180205 -0.08511387 0.03111636
0001d0 43 b5 bc bd c4 57 64 bd 13 56 a7 bd a0 a3 2b 3d
       -0.092142604 -0.055747762 -0.08170714 0.04190409
0001e0 8f 89 fd bd e9 b9 ea 3d 2d 31 63 bd 2d d4 08 3d
       -0.12379753 0.11461241 -0.05546682 0.03340547
0001f0 5d b6 78 bb d2 0d a7 3d 63 52 49 3c a4 ce 05 3e
       -0.0037950494 0.08156933 0.012287709 0.13067108
000200 b7 98 04 be 7f 69 09 3e 18 25 0c 3e 2f 49 13 3e
       -0.12948881 0.1341915 0.13686025 0.14383386
000210 56 6c 23 3e ae 2a 57 3c 3a ac 10 3c dc 93 8f bd
       0.15959296 0.013132734 0.0088301245 -0.07010624
000220 b9 1d a3 3c 11 92 80 3d 7a 80 55 3d 63 10 1e 3e
       0.019911634 0.0627786 0.052124478 0.15435939
000230 47 61 e7 3c e4 e7 92 bd 3c 11 ab 3d ac ad 4b bc
       0.028244628 -0.07173136 0.083528966 -0.012431543
000240 79 01 3e bc b2 1d 4c bd 4c 1e 05 be 62 70 e4 bd
       -0.011597031 -0.049833007 -0.12999839 -0.11154248
000250 88 a1 38 3d fa 95 d5 bd f1 3f 00 3e 91 f9 fe bd
       0.045075923 -0.104289964 0.12524392 -0.12449945
000260 43 4e d7 bd c4 79 72 3d 24 7a 48 be f5 14 19 be
       -0.10512974 0.059198156 -0.19577843 -0.149494
000270 52 49 03 3e 17 ba 31 3d 31 c5 cc bd 22 26 d5 3c
       0.12820938 0.04339036 -0.09998549 0.02601916
000280 9a d2 b3 bd e2 81 06 3e 83 25 4e 3c 0a b8 e1 bd
       -0.087804034 0.13135484 0.012582186 -0.11021431
000290 cb 68 43 3c c2 b8 72 bd 45 e8 9a 3d 70 3a 01 3c
       0.01192684 -0.05925823 0.07563833 0.007887468
0002a0 e7 8c de 3d 48 a4 e2 bd 67 4e 00 3e 2d c7 08 3e
       0.10866719 -0.110664904 0.12529908 0.1335723
0002b0 5f 2a 8f bc 2a 82 24 bd 7b 38 0e 3e d9 1f 04 bc
       -0.017476259 -0.040163197 0.13888733 -0.008064234
0002c0 99 78 1c 3e 07 e8 30 bd c9 07 2d 3b 65 43 3a 3c
       0.1528038 -0.04319003 0.0026402345 0.011368607
0002d0 09 a4 cc 3d 52 7c c2 3d df 83 23 3e 4b fb f2 bd
       0.09992225 0.094963685 0.15968274 -0.118643366
0002e0 11 df a6 3d 9f 9f 61 3d a2 7f d1 3c ff ba 18 3d
       0.08148015 0.055083867 0.025573555 0.03728771
0002f0 33 63 bf 3d d6 33 b9 bb a9 f6 a1 3d cf 86 13 be
       0.093450926 -0.0056519313 0.07908375 -0.14406894
000300 be 8c ec bd ca a0 97 bd 86 83 9b 3c b2 cf 19 3e
       -0.11550282 -0.07403715 0.018983614 0.15020636
000310 48 6a 22 3e 1b ec 0c bc f8 71 17 be 9d a9 8c bd
       0.15860856 -0.008601214 -0.1478957 -0.06868289
000320 e0 7d 0e 3d 7f 6f ea 3d fe 15 64 3d 04 9c 93 3d
       0.034788013 0.114470474 0.055685036 0.07207492
000330 17 17 4f bd e3 67 0a bd b9 3f b2 bc e7 d6 9b 3d
       -0.05055913 -0.03379048 -0.021758901 0.07609349
000340 7a 2f 0d be e2 92 b6 3c 22 11 69 3d f7 da 4b 3d
       -0.13787642 0.022286836 0.056901105 0.049769368
000350 e2 58 b3 3c 0a 31 8e 3d 05 4e b6 3d 5c 15 95 3d
       0.021892969 0.06942947 0.089016 0.072794646
000360 bf 91 28 bd c3 3b 01 3d c6 0a 09 3e 4d c3 30 3d
       -0.04115462 0.031551134 0.13383016 0.043155003
000370 ff 98 c6 3d 3a 84 6a 3d 0d 9c 87 3d 52 77 9b 3d
       0.096971504 0.057255007 0.06621561 0.07591118
000380 92 96 dc bc ec 4c f1 3d 29 04 6a 3d fb 97 88 3d
       -0.026927266 0.1178225 0.057132874 0.06669613
000390 4d f3 25 be c3 e5 4a 3d 15 af 11 be 26 f6 c5 bd
       -0.16206093 0.049535524 -0.14226945 -0.0966609
0003a0 27 cf 18 3e 04 00 29 3e 52 88 3f 3c 52 27 d4 3d
       0.14922772 0.16503912 0.011690216 0.10359062
0003b0 59 a5 d0 bd b4 85 a2 3c 08 f5 38 bd 4b 0b 82 bd
       -0.101877876 0.019839145 -0.045155555 -0.0634981
0003c0 fa 9a 86 3d be 30 a0 bb 62 bb 19 be 99 42 18 3e
       0.06572528 -0.004888623 -0.15012887 0.14869155
0003d0 ff 14 6e 3c 25 62 54 3d ca e4 7d 3d ec 30 09 bd
       0.014531373 0.05185141 0.06198577 -0.03349392
0003e0 2a 4d 93 3b 02 6d d7 bd 31 e2 30 bc 48 28 47 3e
       0.0044952827 -0.105188385 -0.010796116 0.1944896
0003f0 b9 99 0c be 06 ce 80 3c ae e0 12 3c c7 57 1e 3c
       -0.13730516 0.01572324 0.008964701 0.009664482

layer_2.bias f4 [32]
000000 f8 4f b5 3a f7 f1 f3 3d bc 78 95 bc 3b 7f 75 bd
       0.0013833037 0.119113855 -0.018246047 -0.05993579
000010 07 d1 6c 3d 88 6c 96 3d b6 27 51 3d ae 29 1b 3c
       0.05781653 0.073449194 0.051063262 0.009470386
000020 b1 58 b8 bd 2d 54 c9 3d ef cf c7 bd 9a c4 da 3d
       -0.090012915 0.098305084 -0.09756457 0.1068203
000030 f8 87 2c 3e ad 29 20 bc 68 ca b5 3d 25 bc bf bd
       0.16848743 -0.009775561 0.088764966 -0.093620576
000040 0c c8 6b bd 5f b3 bf 3c ce 2f 64 ba c5 50 da 3d
       -0.057563826 0.02340096 -0.0008704633 0.10659937
000050 51 4f c0 bd fb 17 aa bd f0 63 f0 3d d9 52 ec 3c
       -0.093901284 -0.08305355 0.117378116 0.028848099
000060 4d b4 b2 3d 79 db 4f 3d ad 3f 82 3d 6b 50 09 bc
       0.08725796 0.050746415 0.063598014 -0.00838099
000070 6a 7d 08 3d 34 4a bf bd bf c6 66 3e 42 93 b9 3d
       0.03332273 -0.09340325 0.22536753 0.0906129

layer_3.weight f4 [1, 32]
000000 cd 7e 4b 3e 6f 84 ee 3d e0 ef e9 3e fc d6 cf 3e
       0.1987259 0.116463535 0.45690823 0.40593708
000010 34 74 24 be 98 b5 9e 3e c0 0f d4 be ec a5 c9 be
       -0.16059953 0.3099792 -0.41418266 -0.393844
000020 8e 09 98 3e ce c1 ed be 77 63 f5 3f e7 b6 b7 3e
       0.2969479 -0.46436924 1.9170979 0.3588173
000030 0e 70 0f bf d2 a9 ca 3f 3f 5a be be bc 46 8b 3e
       -0.56030357 1.5833075 -0.37178227 0.27202404
000040 7e e1 78 be 36 90 93 3f 0c 6d 9b 3f 46 4e c5 3f
       -0.24304768 1.1528385 1.2142653 1.5414512
000050 52 65 e7 3e 06 11 92 3e d4 51 a1 3f 99 33 dd be
       0.4519449 0.28528613 1.2603097 -0.43203428
000060 28 b4 b8 3d 4b 15 18 3f 9c ae b9 be e8 9c cd be
       0.09018737 0.5940749 -0.3626603 -0.40158772
000070 eb 65 76 3e 67 8b e2 bd 8d de 0e bf 56 25 0b 3e
       0.24062316 -0.11061745 -0.55808336 0.13588461
