checkpt/isolated/batch64_client_0_4.pth (torch, 61487 bytes, 5 tensors)

layer_1.weight f4 [64, 197]
000000 6c d2 16 bc 9e 80 ad 3c 62 2e f1 3c ce 73 28 be
       -0.009205442 0.021179494 0.029441062 -0.16450426
000010 e3 00 31 3d 54 e5 44 bd 6e b8 7c bd 14 6d 64 3c
       0.043213736 -0.048070267 -0.061699323 0.013942022
000020 00 75 0d bd e6 9a 0d 3e 6a 6b 84 3c 23 54 6d 3d
       -0.034535408 0.1382862 0.0161645 0.057941567
000030 b5 1d dc 3d d2 95 c1 3c 9a 24 6b 3d 4c b8 1b bc
       0.10747854 0.02363101 0.057407953 -0.009504389
000040 c7 1b 87 bb 7e d1 fc 3b e3 e1 a9 3d f4 55 de 3c
       -0.0041231844 0.007715403 0.082950376 0.027140595
000050 c6 fe 96 3d 4d f4 d6 3d 2c a4 a2 bd da bc 98 ba
       0.07372813 0.104958154 -0.079414696 -0.0011652962
000060 a8 39 d4 bd fc c3 08 3d 1f b5 79 bd 7c 26 0b 3d
       -0.103625596 0.03339003 -0.060963746 0.03397225
000070 b9 1d 53 bd 92 ed 4e 38 1c 12 bf bd 6b f0 d7 3c
       -0.051542018 4.9335482e-05 -0.09329626 0.026359757
000080 44 84 0d 3e a7 f4 96 3c 56 a5 dd 3c b2 ab e6 bd
       0.13819987 0.018427206 0.027056377 -0.11263217
000090 18 f1 03 bd 81 74 cf 3d 83 e0 95 3c ab 48 11 bd
       -0.032212347 0.10129643 0.018295532 -0.035469692
0000a0 5d 4a 4a bd 8a 13 a9 bd d4 e9 1a 3d e2 e2 a3 3d
       -0.049387325 -0.0825568 0.037820652 0.08002259
0000b0 db f4 8d bc ca bb a0 bd 62 a5 10 bd 60 b4 85 3d
       -0.01732867 -0.07848318 -0.03531397 0.065285444
0000c0 73 f9 9c 3b c4 74 06 bd 81 53 a7 3d 47 31 c7 3c
       0.004790479 -0.0328262 0.08170224 0.02431549
0000d0 f5 83 b8 bb da 1b 6d 3c 63 1a 3d 3c 9a 3b 0d bd
       -0.005630965 0.014471972 0.011541936 -0.03448067
0000e0 e4 fd 13 bd 3d 7f 39 3d be c5 48 3d db 23 b6 3d
       -0.0361308 0.04528736 0.049016707 0.08893558
0000f0 bc 0b de bd 4e 51 54 bc 6a 18 96 bd 2b ea 38 bd
       -0.10842082 -0.012958838 -0.07328875 -0.045145195
000100 f0 9c b3 3c c4 e9 71 bb 11 85 63 3d 20 80 cb 3c
       0.02192542 -0.0036913017 0.055546824 0.024841368
000110 36 e8 29 3d 13 45 d1 bc 9f 23 cd bc 2c 34 08 bd
       0.04148122 -0.025545632 -0.0250414 -0.03325288
000120 a7 8d 76 3b 78 05 70 bd a4 66 dc bc 18 d6 24 bd
       0.0037621052 -0.058598965 -0.026904412 -0.04024324
000130 b8 25 9f 3d 95 8d f3 ba 2a e7 c4 3c 68 4c c8 3c
       0.07770866 -0.0018581623 0.024036009 0.024450496
000140 38 08 e5 3a 5d 7d 27 bd 10 bb bd 39 4e 3c 51 3d
       0.0017473763 -0.04089104 0.00036188262 0.0510829
000150 b4 a4 88 bd 3c 26 03 bc 0e 47 75 bd c3 62 99 3c
       -0.0667204 -0.008004721 -0.059882216 0.018723851
000160 f0 09 ea 3b 3a 7e 8d bd e3 b2 c4 3b 96 2b ae bb
       0.007142298 -0.069088414 0.0060027703 -0.0053152544
000170 1b 72 b7 3b 74 2c f1 3c 9b 60 6b 3d 30 9a 68 3d
       0.005598319 0.029440142 0.057465177 0.05678767
000180 8c 24 ea 3c f1 66 17 bd eb ee ce bc 8d b0 19 3d
       0.02858188 -0.036963407 -0.02526041 0.037521888
000190 04 e7 0e 3d e3 95 9c 3c 77 ff c7 3c 23 9d 8d 3d
       0.034888282 0.01911444 0.024413807 0.06914737
0001a0 a0 7b 2f bb 23 e0 44 3d 94 75 85 39 7e a2 9d 3c
       -0.0026776567 0.048065316 0.0002545534 0.019242521
0001b0 b7 d7 cb 3d 16 80 73 3d 50 cb f7 bd b8 d6 d0 bc
       0.09953254 0.059448324 -0.12099326 -0.02549301
0001c0 4b 93 7c bd 7a 39 37 bd 42 6a c7 bc b1 62 3b 3b
       -0.061663907 -0.04473255 -0.02434266 0.002859276
0001d0 b0 d3 2d bc a3 1b aa bd 4c e4 7b bd 63 d5 04 3d
       -0.010609552 -0.083060525 -0.061497018 0.032430064
0001e0 64 fd 0c bd 46 50 c4 3d 7f ca 1f 3b 80 2d 79 3b
       -0.03442134 0.095856234 0.0024382172 0.0038021505
0001f0 d8 1a d5 bc 6b 62 18 bc c0 e7 af 3b bc 23 3e 3d
       -0.026013777 -0.009300808 0.005368203 0.046420798
000200 10 98 30 3b 46 a2 be bd 5a ea 75 bc 5d 8f 0e 3c
       0.0026946105 -0.09308295 -0.015009487 0.008701173
000210 8d b5 c9 bd 3f dd ff bd f1 57 2a bc 24 e6 95 3d
       -0.09849081 -0.12493371 -0.010396943 0.073192865
000220 86 03 19 3c d8 a8 08 bc a1 6d 1a 3c 0a b8 0f bc
       0.009339219 -0.008341037 0.009425552 -0.008771906
000230 ab a5 98 3d cc 6f 73 bc 69 95 9c 3c 74 1e 02 3d
       0.07453474 -0.014858197 0.019114213 0.031767324
000240 1e 1b 7b bc cb 0a 2b bd a0 95 47 bb 38 09 8c bc
       -0.015326289 -0.04175834 -0.0030454174 -0.01709424
000250 e4 76 1a 3d 10 bb 12 bd ed b4 21 3d 51 ce b2 bb
       0.03771104 -0.035822928 0.039479185 -0.0054567237
000260 cb dd bc bb c4 42 b1 bc 8d cd 7f bd e8 3c bc bd
       -0.0057637445 -0.021638282 -0.062451888 -0.091913044
000270 6b f7 48 bd fd 34 c7 3d b5 7c 99 3c f3 24 c3 3b
       -0.04906408 0.097269036 0.018736223 0.0059553324
000280 b1 5a 30 bc b5 45 48 3d a2 e6 0d 3e 42 ec 68 bd
       -0.01076381 0.048894603 0.1385751 -0.056865938
000290 af 21 6b bd ca 99 d4 3c ab f6 b3 ba 8d 9d 94 3d
       -0.05740517 0.025952239 -0.0013730129 0.07256613
0002a0 e5 20 d3 bb 9f a8 5b 3c a6 fe b9 bc 95 75 0b bd
       -0.0064431303 0.013406902 -0.022704434 -0.03404768
0002b0 5c 6a f3 bc 5d 39 81 3b 1c bb 83 bd 00 2b eb b9
       -0.029713802 0.003943606 -0.06432173 -0.0004485473
0002c0 53 41 20 3e 32 e6 e1 bd b4 15 0d bd 92 ac cb 3d
       0.15649919 -0.110302344 -0.034444526 0.099450245
0002d0 4e ac f9 bc 58 de ae bb 70 7a a4 3c e0 4e 9e 3b
       -0.03047767 -0.005336564 0.020077914 0.00483118
0002e0 27 2c 1c 3d 91 32 5e ba 37 64 97 bc 12 f4 66 3d
       0.038128044 -0.0008476163 -0.018480403 0.056385107
0002f0 89 28 0b bd ba 04 09 3c 7c c3 3b bb c1 f0 b8 bb
       -0.033974204 0.008362943 -0.0028650453 -0.0056439345
000300 92 de 59 3d e3 09 2d bd e5 dc 54 3d 42 7d 00 3e
       0.053190775 -0.042245757 0.051968474 0.12547782
000310 5a d8 42 3d 76 0d 19 3d ea 94 5c 3c 9e af e7 b7
       0.04756961 0.037366353 0.013463238 -2.7619124e-05
000320 4f 65 8f 3c 71 ed 52 3d c6 71 53 bd 26 70 47 3d
       0.017504362 0.051495973 -0.051622175 0.048690937
000330 f9 2a 11 3d d6 2f 43 bb e7 9a ae 3c 6d 59 9b bd
       0.035441373 -0.002978315 0.021314098 -0.07585416
000340 c1 3a 7a bb bd af 38 bc 8b 53 bc 3c ae ae b8 ba
       -0.0038181993 -0.011272368 0.022989055 -0.0014090145
000350 50 e1 ef 3c dd 9b 86 3d cc a7 93 3d df 92 a0 3d
       0.029282242 0.06572697 0.07209739 0.078405134
000360 92 87 73 bd 4b a2 c4 3c 9c 4c b7 3c 3a 07 35 3d
       -0.05945546 0.024003169 0.022375397 0.044196345
000370 7a 75 a0 bb 68 7e 84 3b 54 2f b6 3d 96 de a7 bd
       -0.004896817 0.004043389 0.08895746 -0.08196752
000380 c8 a7 78 bc 58 af 6b bb 7e 19 86 bd 47 9f be bb
       -0.015176721 -0.0035962667 -0.06547831 -0.005817327
000390 85 64 00 bd 68 fd 16 bd 1a 66 a5 bb 91 5d 5e 3d
       -0.031345863 -0.03686276 -0.005047572 0.05428845
0003a0 87 d1 f0 bc c3 f6 e0 bd ca c1 28 3c 0f 05 1c bd
       -0.029396785 -0.10984566 0.010300109 -0.03809076
0003b0 98 c5 61 bc cd 90 40 3d 75 e2 18 3b 3a 0a e0 3c
       -0.01378002 0.047013093 0.0023328338 0.027348626
0003c0 25 ee b0 3c 17 ff 80 bd 05 c8 0b bd 17 d6 54 bc
       0.021597931 -0.062986545 -0.0341263 -0.012990496
0003d0 75 7f 4c bd e9 19 fc bc 7d c0 1a bd 40 f8 00 be
       -0.04992624 -0.030774074 -0.037781227 -0.125947
0003e0 78 b4 44 3c b4 a9 28 3d 5b e0 b8 3c 34 5b a3 3d
       0.012005918 0.041177467 0.022567919 0.0797638
0003f0 89 04 45 bd ec 2e 28 bd 45 c7 8e bd d5 ea ca 3d
       -0.04810003 -0.041060373 -0.069716014 0.09908072

layer_1.bias f4 [64]
000000 4b c3 40 bd ca 7f 91 3d 53 ee 83 3d b1 74 35 bb
       -0.047061246 0.07104452 0.06441941 -0.0027687962
000010 82 76 a6 3c 93 d8 06 bd 5f 38 20 bc 20 1f d2 bd
       0.02032018 -0.032921385 -0.009779065 -0.10259843
000020 5b 08 a7 3c 89 f4 89 bc 34 37 2e 3d 79 47 3a be
       0.020389726 -0.016840236 0.042533115 -0.18191327
000030 48 b9 00 bd 25 08 23 3c 8b 68 85 bd 62 20 ec 3d
       -0.031426698 0.009950672 -0.065140806 0.11529614
000040 33 56 8b 3d 3a 13 43 bc fd a9 e1 bd 30 9b b4 bc
       0.068035506 -0.011906439 -0.11018751 -0.022046655
000050 db 75 49 3d 87 9a 6e 3c dd 45 23 bd f1 cb 1b 3d
       0.04918466 0.014563209 -0.03986155 0.03803629
000060 c6 9d e8 3d 33 77 cc 3d b5 88 a3 bc 9d 0b 06 bd
       0.11358218 0.09983673 -0.019962648 -0.03272592
000070 72 8f be 3d 25 f4 1c be bd e6 17 bc 5c 82 09 bc
       0.09304704 -0.15327509 -0.009271321 -0.0083928965
000080 e5 df 1d bb 59 d9 cd bd b0 2c 44 3d 6a e0 29 bd
       -0.002408975 -0.100512214 0.04789418 -0.041473784
000090 3c 7f f8 bb 8a 53 96 bd 01 3c 4e bc c7 ca 8c bd
       -0.007583527 -0.073401526 -0.012587548 -0.06874614
0000a0 a4 bc 02 be c2 0a 30 bd 98 97 23 bd a9 d4 07 bd
       -0.12767273 -0.04297901 -0.039939493 -0.033161793
0000b0 64 88 de bd ec b6 35 bc 0d 64 16 3d 6a 42 fc ba
       -0.10865858 -0.011090975 0.03671651 -0.0019245867
0000c0 ae 96 50 3d a2 3b 78 3b 6a 4f 13 bc f1 36 93 bc
       0.05092495 0.003787734 -0.008991102 -0.017970534
0000d0 3b fb 9a 3d e1 e5 c5 3d 4e 45 3e 3c 65 9c 29 bd
       0.0756745 0.096629865 0.011613203 -0.041408915
0000e0 62 1a 8b bd cb 3b 68 bd f2 c8 00 be bb 4d 7d bd
       -0.067921415 -0.056697648 -0.12576655 -0.061841708
0000f0 30 36 ef 3d d3 27 40 bd 58 7b 11 bd b6 66 a1 bc
       0.11680257 -0.04691298 -0.03551802 -0.019702297

layer_2.weight f4 [32, 64]
000000 dd a4 f8 bd a4 07 6e be 3c 50 b7 3c e3 3a c2 3d
       -0.1214082 -0.23245102 0.022377126 0.09483888
000010 88 41 a9 be 13 c9 2e be 8c 96 34 bd f1 1f 5c be
       -0.3305781 -0.17068891 -0.044088885 -0.2149656
000020 dd 28 21 be 81 bb 7d bd 13 ca 2d 3e 21 58 90 be
       -0.15738244 -0.061946396 0.16971616 -0.28192237
000030 80 93 9c 3d 6f 0a 52 3c ef 7c 7a 3c e9 aa 5c 3d
       0.07645321 0.01281987 0.015288576 0.05387393
000040 3e 0c d2 bd 48 f5 2d 3d 37 1d 89 be f2 9a 82 be
       -0.10256241 0.042470247 -0.26780102 -0.2550884
000050 b8 02 4c be d7 85 a0 3c 29 f5 71 be d5 ac ae 3d
       -0.19922912 0.01959507 -0.23628677 0.08529059
000060 2f 28 2f 3e 0f 10 19 be 8b 0b 1a 3e e0 42 3e be
       0.17105173 -0.14947532 0.15043466 -0.18580198
000070 13 10 d4 bd 8f 9b 30 be 26 9f 53 be 78 06 f7 bd
       -0.103546284 -0.17246841 -0.20666179 -0.12061781
000080 33 f1 2a be d9 27 73 3d e5 be 55 bd 57 c0 05 be
       -0.16693573 0.059364174 -0.052184004 -0.13061653
000090 bc e0 af bd 6d 71 8f 3c 81 66 85 3e 90 12 0e 3e
       -0.085877866 0.01751014 0.26054767 0.13874269
0000a0 99 75 1b 3e 71 31 09 be 8f 92 33 be 8c e3 f7 3d
       0.15181579 -0.13397767 -0.17536376 0.12103948
0000b0 70 4b 68 3d 08 d3 ca 3d 6c 12 d4 3d 2c 7f ab 3d
       0.056712568 0.09903532 0.10355076 0.083738655
0000c0 bb e0 29 3e 14 04 0d 3e 12 87 25 3e b1 2c a4 be
       0.16589634 0.13771087 0.16164806 -0.32065347
0000d0 5e 39 76 be 01 09 13 be e2 d4 63 be b0 da 8d 3d
       -0.24045321 -0.14358903 -0.22249177 0.06926477
0000e0 f5 c6 27 be 0a 7e 1c 3c 86 00 c5 be 60 b4 31 3c
       -0.1638449 0.009551534 -0.38476962 0.010846227
0000f0 64 27 9a be 42 f8 1c be 14 a4 12 3e b8 f3 c1 3d
       -0.30108178 -0.15329078 0.14320403 0.09470314
000100 c2 18 9f 3b a2 4f a4 bd f0 70 86 3c c6 1c 3f 3d
       0.0048552463 -0.08023001 0.016411275 0.0466583
000110 97 6b 4a bd ca ea 73 3d 28 17 3e 3d 84 8f 86 3c
       -0.049419012 0.059550084 0.046408802 0.016425855
000120 4a 93 c3 bd ed 19 79 bd 21 9e e2 bd 0f 9b ec bb
       -0.095495775 -0.06081574 -0.11065317 -0.007220633
000130 ae 7a 94 bc 3e d2 d8 bb 8e 60 a3 bd 07 47 22 bd
       -0.018124904 -0.0066168597 -0.07977401 -0.03961852
000140 8c 1b fe bd c4 e4 81 bd ff 9c 6f 3d 14 0e d2 bc
       -0.12407598 -0.06342462 0.058499333 -0.025641479
000150 c4 31 a0 bd 27 30 ef bd aa 2a c3 bc c9 f4 b5 3d
       -0.07821992 -0.11679106 -0.023824055 0.0888458
000160 83 90 29 bd 3d 04 97 bd eb 87 a0 bd 3c a4 56 bd
       -0.041397583 -0.07373855 -0.07838424 -0.05240272
000170 a3 51 8c bd 11 e2 ca 3d 2e 9d e5 3d 6b b3 8f bc
       -0.068515085 0.099064 0.1121162 -0.017541608
000180 cd 11 72 bd 3b 81 71 3d 07 32 3c bc 4f 5b 89 bd
       -0.059099007 0.058961134 -0.011486537 -0.06706869
000190 c4 fb af bd fb 6a d2 bc 73 84 d6 bd 00 77 c4 bd
       -0.08592942 -0.025685778 -0.104744814 -0.0959301
0001a0 29 01 d8 3d 99 86 25 bd d6 69 c2 3d c0 64 10 bd
       0.10547096 -0.040411565 0.09492843 -0.035252333
0001b0 db 6a 02 3e 6d 7c 29 3d d0 01 39 bd e8 66 d8 3c
       0.12736075 0.041378427 -0.045167744 0.026416257
0001c0 0c 41 a4 3d a7 19 28 3c 15 cf 72 bd 24 a6 06 bd
       0.08020219 0.010260022 -0.05927952 -0.032873288
0001d0 95 d0 fb 3c 46 e7 e1 3d 51 2f b8 bd f1 17 76 bb
       0.030739108 0.1103044 -0.089934 -0.0037550891
0001e0 15 06 b9 bd 6a 74 97 3d 92 97 cb bd 88 ef d2 3d
       -0.09034363 0.07395251 -0.09941019 0.10299593
0001f0 35 12 ad bd cf 31 42 bd 9c 68 bf bd a2 a6 54 3c
       -0.08450738 -0.047410782 -0.093461245 0.0129791815
000200 14 11 ba bc 9b 86 d4 bd 0d 13 ca 3d 0d 09 28 bb
       -0.022713222 -0.103772365 0.09866915 -0.002564016
000210 8e a0 26 bd 51 de 9a bd 4b 47 ea 3d a9 82 03 be
       -0.04068046 -0.07561935 0.11439379 -0.12842812
000220 98 62 1b be d7 02 22 3d fe f5 73 3d 82 1e 25 3d
       -0.1517433 0.03955349 0.05956077 0.040312298
000230 09 bb 0a be 5a e2 4f 3e 7c 55 b9 3c 19 26 9a 3d
       -0.13547911 0.2030119 0.02262377 0.07526798
000240 3b 44 11 be 41 f7 08 bd 86 9b 1b be 78 50 68 bc
       -0.14186184 -0.033438925 -0.15196046 -0.0141793415
000250 14 f6 67 be ad f9 2f be af 49 92 3b 1f 3c 45 be
       -0.22652465 -0.17185088 0.00446435 -0.19261216
000260 1b 94 10 3d 3f 97 26 be 41 bc 7c bc 34 81 1f be
       0.035297494 -0.16268633 -0.015425743 -0.15576631
000270 36 30 a4 bd 05 e7 e2 3c 4a 19 c5 3d f2 48 2a be
       -0.08017008 0.02769805 0.09623964 -0.16629389
000280 e6 9f 94 3d f4 f4 e0 3c 45 d8 89 bb 27 68 0d bd
       0.07257061 0.027460553 -0.0042066895 -0.034523156
000290 af 43 e2 bd 21 b8 27 3e 21 42 b5 3d cd 9b 11 3e
       -0.11048066 0.16378833 0.08850504 0.1421959
0002a0 36 f4 40 3e 8f 98 24 be 78 ef 50 3e 26 07 b0 bc
       0.18843159 -0.16073821 0.2040385 -0.021487784
0002b0 5b 00 3a 3e 13 c4 2c 3e a8 81 3b 3e 36 9a 6c 3e
       0.18164198 0.16871671 0.18311179 0.23105702
0002c0 8d 8d ea 3d 5a 66 7f bb fb 63 9d 3c 46 84 05 3e
       0.1145278 -0.0038970918 0.019212713 0.1303874
0002d0 6c 16 ec bd 9d 87 f6 bd 35 c9 aa bc 22 c9 75 3d
       -0.11527714 -0.12037585 -0.020847896 0.06000627
0002e0 a5 bc 82 3d 64 74 f2 bc 39 5d 18 3c 01 43 2a be
       0.06383637 -0.029596515 0.00929957 -0.16627122
0002f0 c1 77 80 3b db 75 8b 3d 5c 5d 17 3e 9d 82 fe bb
       0.003920526 0.068095885 0.14781708 -0.007767035
000300 49 bf f5 bc 9e b3 b5 3d e5 49 47 3d d0 8b 9d bd
       -0.029998438 0.0887215 0.048654456 -0.07692683
000310 fb af dd 3c 93 5c fa bc 31 f8 1c 3b 9a 8b e0 3d
       0.027061453 -0.030561721 0.0023951645 0.10964127
000320 b2 52 02 be f5 94 d6 bc 5c a2 8c bd 89 6b 91 3d
       -0.12726858 -0.026194075 -0.06866905 0.07100589
000330 c0 b1 0f bd d7 4a f4 3d 8e 7d e2 bd a2 fa a0 bd
       -0.035081625 0.11928337 -0.11059104 -0.078603044
000340 84 9b 82 3d 4a 98 6b bc fb 5c 81 3d a1 d9 f4 3d
       0.063773185 -0.01437957 0.06316563 0.11955572
000350 b7 33 b4 bb 34 c7 69 bd c7 36 d6 3c d8 76 15 3c
       -0.005499329 -0.05707474 0.026149167 0.009122573
000360 6a 25 e1 3d fa 34 de 3d b5 6a 55 3d bf b2 ed 3d
       0.10993464 0.10849948 0.052103717 0.11606359
000370 71 15 91 bd f0 d1 0d 3c 21 7c b8 bc 88 00 f2 bd
       -0.07084168 0.00865601 -0.022520127 -0.118165076
000380 94 e7 39 bd dd eb c0 bd 79 4f eb 3d 88 f6 f6 bc
       -0.045386866 -0.09419987 0.114897676 -0.030146852
000390 e7 52 13 be 35 e4 d0 bd e6 ce c0 3d 93 e4 02 3d
       -0.14387093 -0.10199777 0.09414463 0.031956267
0003a0 1e 05 80 3d 62 7b 5e bd 99 9b e0 bc 95 c7 10 3d
       0.06250976 -0.054316886 -0.027417945 0.035346586
0003b0 7a d2 ce 3b 20 eb b4 3c 62 56 c1 b9 37 71 8d 3d
       0.006311712 0.022084773 -0.0003687619 0.0690636
0003c0 92 6a c1 bd 3d 62 b7 bc 8d 2f ef bb 21 2c 01 be
       -0.09444155 -0.02238571 -0.0072993697 -0.1261449
0003d0 11 c6 95 3d 9b e6 73 3d 1b c9 4d 3d ee ad 91 3d
       0.07313169 0.059546094 0.050240617 0.071132526
0003e0 bc e4 31 3d ac 16 30 3c d1 26 90 3d 56 7f bd bd
       0.04343103 0.010747593 0.07038654 -0.09252803
0003f0 3a b5 9c 3d 63 b6 18 3e 86 27 99 3d a8 89 8e bd
       0.07651754 0.14913325 0.074782416 -0.069598496

layer_2.bias f4 [32]
000000 a4 bb 46 3e 19 ef 8a 3d a3 58 91 3d 04 a7 81 3d
       0.19407517 0.067838855 0.07096984 0.06330684
000010 a3 a1 0a be 69 a7 04 3d e5 27 da bd 40 a3 e8 bd
       -0.13538222 0.032386217 -0.106521405 -0.113592625
000020 05 15 ad 3d 15 a8 fe 3d 86 09 25 be f9 5e 9e 3d
       0.08451275 0.12434403 -0.16116914 0.07732958
000030 3f fb 0b 3d b9 88 1e 3e cf df 04 be 3b 10 b6 3d
       0.034175154 0.15481843 -0.12976001 0.088898145
000040 af 5a 58 3e d4 ff 82 3b 9a 21 ad bd b3 83 81 bd
       0.21128343 0.0039977822 -0.084536746 -0.06323948
000050 2b 0d 68 bb 10 85 bb bb d0 28 80 3d ee 73 53 3d
       -0.003540824 -0.0057226494 0.06257784 0.05162423
000060 9e f6 94 bc 8c fd 21 3d 3c 02 70 3e 7d 7c 12 3d
       -0.018184002 0.03954844 0.23438352 0.035763253
000070 4e 5e 8c 3d 8a 0e 1b 3c 7e 28 1c bd 5b d7 c8 3d
       0.06853925 0.009463916 -0.038124554 0.09806701

layer_3.weight f4 [1, 32]
000000 ca 98 92 3f 47 09 ab 3d a9 6f 14 3f f1 42 18 be
       1.1452878 0.08351379 0.5798288 -0.14869286
000010 16 48 ce 3e 78 cf 3b 3f 4a 43 64 be e3 4f e6 bd
       0.40289372 0.7336345 -0.22291294 -0.11245706
000020 3c 8a f9 bd b9 1f d1 be 06 25 fb be 74 dd 7b be
       -0.12184569 -0.40844515 -0.49051684 -0.24596196
000030 7e cd ea 3f 45 e8 56 be fd 13 45 be f0 60 c4 be
       1.8343961 -0.20987041 -0.19245906 -0.38355207
000040 7b 79 1c 3f 73 be ce 3e f9 fe 25 be f3 86 8b 3e
       0.61122864 0.40379676 -0.16210546 0.27251396
000050 31 27 79 be 40 37 95 be c4 71 2d 3f 81 3f 9a 3e
       -0.24331357 -0.29143715 0.6775172 0.30126575
000060 99 b0 1c 3f 57 86 e8 3d 48 13 ac be d3 ae c4 3e
       0.61206967 0.11353748 -0.3360846 0.3841463
000070 c0 35 e5 be 32 b7 bd be d9 81 28 3e 19 51 70 be
       -0.4476757 -0.3705383 0.16455783 -0.23468436
