checkpt/isolated/batch64_client_2_5.pth (torch, 61015 bytes, 5 tensors)

layer_1.weight f4 [64, 197]
000000 00 8d dc 39 2c 94 68 3b 11 06 84 bd 3a 1f a8 3d
       0.00042066723 0.0035488708 -0.064464696 0.08209081
000010 dd 85 22 3c 82 b7 19 3d e5 48 78 3d 31 e3 6e bc
       0.009919611 0.037528522 0.060616393 -0.014580534
000020 97 fe da 3c c3 5b e9 bd b4 a1 ea 3c f8 0c 8e bc
       0.026732726 -0.11394455 0.02864156 -0.017340168
000030 db 3b e4 bd 56 b3 d9 bd 68 0b 58 3c 7e e5 35 bd
       -0.11144229 -0.10629909 0.013186313 -0.044408314
000040 7b aa b3 bd 0b d8 a7 bd a0 4f 96 bd 7c 72 94 3c
       -0.08772751 -0.08195504 -0.07339406 0.018120997
000050 15 2d ca 3d be 86 a6 bd 10 6f 66 3d 79 4b 21 bc
       0.0987188 -0.08131169 0.05625826 -0.009844654
000060 3a 3f dd 3d 45 ed 04 bd 2c d5 02 bd 48 19 47 bd
       0.10803075 -0.03245284 -0.031941578 -0.048608094
000070 70 5e 85 bd 61 eb 33 bc 95 16 da bd 20 dd 93 3d
       -0.06512153 -0.010981412 -0.106488384 0.072199106
000080 7f 98 20 bd bb 67 18 bc a8 98 54 3d fb b0 33 bd
       -0.03920793 -0.009302075 0.051903397 -0.043869954
000090 2a 85 60 3d 04 fe 89 3d 29 a3 44 3d 8f 57 75 bd
       0.054814495 0.06737903 0.048007164 -0.059897956
0000a0 b0 39 7b 3d cb f1 88 3d 49 f1 46 3d 0c 57 00 bd
       0.061334312 0.06686743 0.04856995 -0.031333014
0000b0 84 7a 83 3d 75 e0 3a 3d 7c e1 fb ba 1d 82 43 3d
       0.064198524 0.045624215 -0.001921698 0.047731508
0000c0 41 86 db 3c 7c c5 09 be ba f9 00 bd 11 c6 80 3c
       0.026797416 -0.1345424 -0.031488158 0.015719445
0000d0 8e 0c 6d 3d ce e8 e6 3b 36 66 0d bd 5a 54 40 3d
       0.0578733 0.0070467955 -0.034521304 0.046955444
0000e0 01 45 ba bc 7e 16 90 bd b2 4a 2c be 2e 54 83 bd
       -0.022737982 -0.0703554 -0.16825369 -0.064125404
0000f0 d1 33 d2 3d 73 7d 94 3c 9e 4d 32 bd bb 9e b9 bc
       0.102637894 0.018126225 -0.043531053 -0.022658696
000100 f8 94 6c bd cd fb b0 bd 97 ac 2b 3d a7 d3 2b bd
       -0.057759255 -0.08641777 0.04191264 -0.041949894
000110 f5 56 85 bd 3d b0 46 3c 2d a5 bb 3c b0 05 ae bb
       -0.06510726 0.012126979 0.02290591 -0.0053107366
000120 53 b7 f1 3c bb 21 85 3d a1 9b ac 3c e2 c9 ad bc
       0.029506361 0.06500574 0.021070303 -0.02121443
000130 77 b2 ed bc 84 12 e4 bd 08 a7 2c be 28 13 9d bc
       -0.029015763 -0.11136344 -0.16860592 -0.019174173
000140 88 02 76 bd 82 c3 3a bb 61 d9 0e 3d 20 4a a8 3c
       -0.060061008 -0.002849788 0.034875277 0.020543158
000150 38 c6 c1 3c 1b 96 a4 3c e4 bc c2 3c 1e fa 6a b8
       0.023654088 0.020091107 0.02377171 -5.6022887e-05
000160 d4 fd 82 bc 71 78 29 bd fe 64 96 bd a9 22 82 bd
       -0.015990175 -0.041374628 -0.073434815 -0.06354267
000170 09 1b c9 bc bd f6 09 3c a1 71 9d bd 7f bc 50 bd
       -0.024549024 0.008420643 -0.076876886 -0.050961014
000180 62 64 c3 bc a2 d2 42 be c6 fd a2 3d 69 00 07 be
       -0.023851577 -0.19025663 0.0795856 -0.1318375
000190 54 b1 b3 3c eb 5c e0 bc ac 4e 00 3d d6 55 bc bc
       0.021935143 -0.027388057 0.031325027 -0.022990149
0001a0 b0 7f fd 3c 49 5b d8 3c b2 dc fa bc a2 4c 2f bd
       0.030944675 0.026410716 -0.030622814 -0.042797692
0001b0 ab dc 63 be 93 07 92 bd bf 4b 58 bc 74 2f 8f 3c
       -0.22252147 -0.07130351 -0.013201653 0.017478682
0001c0 5b 73 d2 3d 5a 09 73 bb ca b9 38 3d a1 9e 12 bd
       0.102759086 -0.0037084431 0.045099057 -0.03579581
0001d0 57 87 0c bd 1d 40 be 3c cd 79 dc 3d 39 2c 57 3d
       -0.034308758 0.023223931 0.10765419 0.05253241
0001e0 7f 1f d9 3d 9c 47 b1 3d a0 e0 f4 bc b0 36 8a bd
       0.106017105 0.086562365 -0.029892266 -0.06748712
0001f0 fe af fa bc db 22 d4 3d c4 dc 05 3b 52 71 dc 3c
       -0.030601498 0.10358211 0.0020425776 0.026909504
000200 77 66 09 be 8b 78 20 be 28 df 53 3d 18 ba 50 3d
       -0.13417993 -0.15670983 0.05172649 0.050958723
000210 47 e7 2a bc f5 ba 81 3d 11 5f 9d 3c 88 ac 1d bd
       -0.010431117 0.06334487 0.01921037 -0.038494617
000220 67 38 ae 3d e1 6f 74 3d 52 97 b4 bd 39 29 1f bc
       0.08506852 0.05967701 -0.088179246 -0.009714418
000230 30 7d 83 3c 5f 6d 90 bd 69 b2 74 bd 0a c6 09 bd
       0.016050905 -0.07052111 -0.059740458 -0.03363613
000240 e8 50 13 3d d0 14 91 bd 97 e6 8d 3d 60 aa 86 bb
       0.03596583 -0.07084048 0.06928747 -0.0041096658
000250 f2 98 9a 3c 63 f0 81 3d 72 ed ec bd c8 fc 9a 3d
       0.018871758 0.06344678 -0.115687266 0.075677454
000260 e9 f8 46 bd a0 a8 e4 3d ae bb c7 bd 7d 56 f5 bd
       -0.048577223 0.11164975 -0.09752594 -0.11979387
000270 af cc 4e bc f9 78 66 3d 37 92 91 3d f4 21 3d bc
       -0.012622043 0.056267712 0.071079664 -0.01154374
000280 ee d3 b3 ba db 8a c6 bd 40 18 dc bc 2f 5c f9 bc
       -0.0013719776 -0.09694453 -0.026867032 -0.030439464
000290 e5 68 a1 bd ba b3 99 bd 93 4a 4e bd 91 76 47 3d
       -0.07881335 -0.07504983 -0.05036409 0.048697058
0002a0 f3 06 06 bd 32 10 db bd b6 f6 06 3d 1c d0 d6 3c
       -0.03272147 -0.106964484 0.032950126 0.026222281
0002b0 a1 56 c4 bd 17 89 c7 bd 88 03 85 3c 86 7f 6d 3d
       -0.09586836 -0.09742945 0.016237035 0.057982944
0002c0 cb 23 24 bd b6 a1 7c bd df c0 84 3d a8 09 3f 3b
       -0.040073197 -0.061677657 0.064821 0.0029150043
0002d0 04 72 59 3b 3c 7a 18 3c 6f ac 69 3d be f1 63 3d
       0.003317953 0.009306487 0.05704921 0.055650465
0002e0 0e 2a 6f bd f2 2d 3a 3d cd df 8c 3d fc f5 38 3d
       -0.058389716 0.045453973 0.06878624 0.045156464
0002f0 9c d2 89 3d 44 f9 ce 3c 26 49 69 3d 4a 87 93 3d
       0.06729624 0.025265343 0.056954525 0.07203539
000300 8a 8f 5a bd 93 15 d9 3d 35 b6 f0 bc 30 fe 14 bd
       -0.053359546 0.10599818 -0.029383758 -0.036375225
000310 88 3c be 3a 3e 26 88 bd 2b 02 f7 3b af f1 8e bd
       0.0014513889 -0.06647919 0.0075381002 -0.06979691
000320 30 a8 ba ba d6 ed cb ba e6 40 07 bd 77 0a eb 3d
       -0.0014240798 -0.0015558552 -0.033020876 0.114766054
000330 f3 e5 f3 bc 5e 0f 8a bd bf 7b e4 3d 77 e4 96 bd
       -0.029772734 -0.06741212 0.11156415 -0.07367795
000340 f2 d2 94 3d 19 57 84 3c 64 90 49 3d 35 a5 2e 3c
       0.07266797 0.016154813 0.049209967 0.010659506
000350 de 42 67 bd f5 b9 37 3b 42 9e 28 bd 54 de 05 bd
       -0.056460254 0.0028034423 -0.04116655 -0.03268273
000360 0e 47 6a bd fe f1 48 3a 10 4f 60 3d 3e 27 87 bb
       -0.05719667 0.0007665454 0.0547629 -0.004124551
000370 93 00 85 bd 78 41 c2 3d 33 94 01 bc 1a 30 28 3d
       -0.0649425 0.094851434 -0.007908869 0.0410615
000380 46 28 5f 3d 1f 4b fe 39 8e ee 88 bd 7a f8 fe 3c
       0.054481767 0.00048502625 -0.06686126 0.031124342
000390 db a9 06 be 65 fc 5d bd d4 09 b3 bd 31 f6 05 bd
       -0.13150732 -0.05419578 -0.08742109 -0.03270549
0003a0 d6 3c 91 3d f5 b4 9e 3b 4a b3 e0 3d a4 b7 81 3a
       0.07091682 0.004843349 0.10971697 0.0009896648
0003b0 83 27 88 3d d4 13 08 3d 35 88 ce bc aa bf 8e 3d
       0.06648161 0.033222035 -0.025211433 0.06970151
0003c0 4c a5 2c bd 05 d2 b2 bd 74 a2 8c bd 56 7c 20 3d
       -0.042149827 -0.08731464 -0.06866923 0.039181076
0003d0 50 b3 84 3d fc 23 39 3c 15 34 93 3d a4 6d a2 3d
       0.06479514 0.011300083 0.07187668 0.079310685
0003e0 92 33 48 bd 19 1e f1 3b 52 8d ce bd a2 f1 75 3d
       -0.048877306 0.0073583242 -0.100855485 0.060044892
0003f0 49 06 58 3e 34 ea 52 bc e3 94 14 bd 67 88 a4 3d
       0.21096148 -0.012873221 -0.036274802 0.08033829

layer_1.bias f4 [64]
000000 dc 0b 4b be 07 56 d8 bd c7 97 a9 3c 2f 08 65 bc
       -0.19828743 -0.105632834 0.020702256 -0.013979002
000010 48 85 49 bd a3 e8 7a bd d3 7e 82 3d 87 11 0a bd
       -0.049199373 -0.061257016 0.06371846 -0.03370812
000020 61 e3 b8 bd fc b5 f4 3c af c3 1e be 64 8f 9a bd
       -0.09027744 0.029871933 -0.15504335 -0.07546881
000030 b7 da ce bc 2d e6 b6 3c 99 22 9a bd b1 3b e7 3b
       -0.025250776 0.022326553 -0.0752613 0.0070566763
000040 7d 03 dd b9 19 a0 c6 bd 46 69 dc 3a 73 9d ba 3c
       -0.00042155004 -0.09698505 0.0016816042 0.022780156
000050 e9 67 88 bc e8 df 0f 3e 90 0c e9 bc 3c bc 1d 3e
       -0.01665111 0.14050257 -0.028448373 0.15403837
000060 df 3e 86 3c da 80 50 be a8 28 03 bc ee d4 b8 3d
       0.016387401 -0.20361653 -0.008005299 0.09024988
000070 31 08 9e bd db c8 32 be ec 71 e4 bc 9b 3c 2c bd
       -0.07716406 -0.17459433 -0.027886353 -0.042049985
000080 2c b1 6a 3d da e6 7e bd 4e 32 b0 bd c8 16 e2 bd
       0.05729787 -0.062231876 -0.08603345 -0.110395014
000090 28 4e d2 3d cb 2c 0f 3d 3e 68 05 3e b1 ef 02 3d
       0.10268813 0.034954827 0.13028046 0.03196687
0000a0 90 7a 3a 3d 13 0a 92 3d 68 28 34 3d 16 26 f1 bc
       0.04552704 0.07130828 0.043983847 -0.029437106
0000b0 db fa ad 3c 9d 9c 98 3d c0 28 c9 bd 4d bb b9 3d
       0.021237781 0.074517466 -0.098222256 0.09068928
0000c0 96 4d ee 3d 04 b9 fe 3b 6e 76 05 bd f4 64 e3 bd
       0.11635892 0.0077735204 -0.032583646 -0.1110324
0000d0 67 9b 1c 3b e7 76 1e bb f7 a8 dd bb 38 ba a5 bc
       0.0023896338 -0.0024179758 -0.006764527 -0.020230398
0000e0 4c cd 94 bd 7e db c6 bd 41 81 fd 3d 8d fa ab 3d
       -0.0726572 -0.097098336 0.12378169 0.08397398
0000f0 b8 d8 ff bc 5b 94 9b 3d ea 31 01 be b4 68 54 bd
       -0.03123127 0.07596656 -0.12616697 -0.051857665

layer_2.weight f4 [32, 64]
000000 25 f4 a2 bd 37 fa 8b 3c 1b 5e 35 3e fe e0 d5 bb
       -0.07956723 0.017087085 0.1771168 -0.0065270653
000010 cc f3 ec bc e4 76 a1 bc 17 c9 78 3c 18 45 92 3d
       -0.028924845 -0.019710012 0.015184662 0.07142085
000020 81 4c 2c be 3c 96 58 3d ee a0 97 3d 7c 73 9d 3d
       -0.16826059 0.05287765 0.07403742 0.076880425
000030 80 13 e7 3c 65 c0 05 3e 5b cc fe 3c 7e dd 6b be
       0.02820754 0.13061674 0.031103304 -0.23033711
000040 0f a6 42 3d c0 16 eb 3b a7 42 92 bb df 01 df 3c
       0.047521647 0.007174343 -0.004463512 0.027222572
000050 94 c3 fa bd 9f 00 80 be e6 d5 cb bd 38 41 44 be
       -0.12244335 -0.25000474 -0.09952907 -0.19165504
000060 04 a5 f1 3d bb b1 88 bd 78 61 0a 3d f9 f1 e8 bc
       0.11799052 -0.066745244 0.03378436 -0.028435694
000070 4c 1d 16 3d 18 8c 02 be 72 5c 5e bd b1 50 35 3d
       0.036649033 -0.12748754 -0.05428738 0.044266406
000080 ad b3 90 bc 7c 27 09 3e 6c a2 9c 3d 07 b3 9a bc
       -0.017663801 0.13393968 0.07648167 -0.018884195
000090 44 fd 11 bd f3 3f d8 3d ed f3 22 3e cf 2b 18 3e
       -0.035641924 0.10559072 0.15913363 0.14860462
0000a0 51 39 14 3e 7c f9 bc 3d 96 6c e4 3c c2 13 8d 3c
       0.1447499 0.09227273 0.027883809 0.017221335
0000b0 c5 ab ac 3c cd 57 a7 3d 03 fe f1 3d c8 8a 2b 3e
       0.021078 0.081710435 0.11816027 0.1675216
0000c0 22 3e 0e 3d 8e 74 66 bd c5 ed 2f bd 75 6c e6 3d
       0.034727223 -0.0562635 -0.042951364 0.11251155
0000d0 34 09 17 3e 81 29 54 3e b6 4c 1c 3e 60 d6 df bd
       0.14749604 0.20718957 0.15263638 -0.10929561
0000e0 64 74 08 3e 4a ee aa bd 73 8d 37 be 92 4e 34 bd
       0.1332565 -0.08346231 -0.17925052 -0.044020243
0000f0 87 3b 95 3c 50 68 51 3e ee 9c 87 3b c5 8f 42 be
       0.018216861 0.20449948 0.0041385805 -0.19000156
000100 ae 0f c7 bd 28 08 40 be 70 c8 85 3d 75 64 04 be
       -0.097197875 -0.18753111 0.06532371 -0.12928946
000110 0f da f2 bc 23 b7 4a 3d bf c4 97 bc dc 2d c5 bd
       -0.029644994 0.04949106 -0.018526433 -0.096278876
000120 21 39 2e 3e 60 44 13 be 19 bf 7c 3d ae e6 ab 3d
       0.1701398 -0.14381552 0.061705682 0.08393608
000130 f7 e2 a8 bd a0 07 9a 3d c4 64 38 3e a0 fe f6 3c
       -0.08246415 0.075209856 0.18007189 0.030150712
000140 a2 9c 40 3c 97 88 2b be d7 2b 3c 3e 25 ac ef 3d
       0.011756094 -0.16751324 0.18376099 0.11702756
000150 2e 2e 0b be 7d 38 c4 bd 5e 8e 81 bc e4 6a 25 be
       -0.13591835 -0.09581087 -0.015814956 -0.16154057
000160 7c c9 a6 bc cb 75 55 bd 01 24 cc 3c 47 9c 69 3c
       -0.020359747 -0.05211429 0.024919512 0.014258451
000170 87 d0 14 be 94 de f3 3d 2b 65 d2 bc 04 ba d0 3d
       -0.14532672 0.11907688 -0.025683006 0.1019173
000180 27 ab 3c 3d 89 5d 5b bd ed 49 dd 3d 73 9d c9 bd
       0.04606166 -0.053556 0.10805116 -0.09844484
000190 27 da f6 bc 60 da 81 bd b1 2c ab 3d b6 4a 20 be
       -0.03013332 -0.0634048 0.083581336 -0.156535
0001a0 5f 9e e7 bd 15 b8 ee 3d 84 50 ec 3c 7e 92 0f 3e
       -0.11309504 0.116562046 0.028846987 0.14020726
0001b0 71 68 b5 3c f8 88 14 be bf e7 b9 3d 71 ff 9f 3b
       0.022144528 -0.14505374 0.09077405 0.004882746
0001c0 07 6c 94 3d 1e 9d 5d bd 52 db 80 bd 2e 4f 05 3e
       0.07247167 -0.054104917 -0.06291832 0.13018486
0001d0 77 f2 a6 3d bf 52 37 3d 02 98 48 bc 5b 3c af bd
       0.08151715 0.044756647 -0.012243273 -0.08556434
0001e0 55 38 20 be 26 a7 22 3e 1c d9 ab 3d 87 d4 6f 3d
       -0.15646489 0.15884075 0.0839102 0.05855229
0001f0 b1 16 b0 3c db 10 e3 bd 72 ee be bd c1 79 69 bc
       0.021495195 -0.11087199 -0.093228236 -0.01425022
000200 f1 8e 39 bd 05 5f 8c bd 28 46 14 3e 29 62 fd bc
       -0.045302335 -0.06854061 0.14479887 -0.030930595
000210 c5 7d 1a 3e 31 c6 37 3d a4 89 03 bd f8 04 a2 3c
       0.1508704 0.044866744 -0.032113686 0.01977776
000220 69 80 60 bd 0c 7e 71 bd cf a1 e5 3a 50 f8 48 bd
       -0.05480996 -0.0589581 0.0017519536 -0.049064934
000230 92 12 39 bc d2 e0 2e 3d f5 50 97 bc 01 67 b3 3d
       -0.011295931 0.042694874 -0.01847122 0.08759881
000240 bd 83 7f bd f5 65 7f bc 31 53 85 be 84 c9 ff bd
       -0.062381495 -0.015588273 -0.26040033 -0.12489608
000250 d8 e8 31 3e 58 a3 99 3c 9b e5 12 3c ed 31 a8 3d
       0.17373979 0.018754646 0.008965875 0.082126476
000260 a2 7e c1 3d 88 2a f5 bd 8e c6 1d be d3 99 22 be
       0.094479814 -0.11971003 -0.15407774 -0.15878992
000270 35 c8 1e 3e a7 66 2e bd 06 99 a9 bd 58 f4 a4 bd
       0.1550606 -0.042578366 -0.0828114 -0.08054417
000280 da fe 1f 3e 50 19 49 3d e8 14 ac 3d 54 12 0e be
       0.15624562 0.049096406 0.08402425 -0.13874179
000290 c9 e1 5a ba 8b 6f d0 3d e7 c2 31 3e 2f e9 1a bd
       -0.00083496846 0.10177525 0.17359506 -0.037820037
0002a0 89 39 e7 bd a0 02 66 bc 24 64 40 bc 04 b8 ed 3c
       -0.11290271 -0.014038712 -0.011742625 0.02901841
0002b0 76 fe 8c 3d 45 93 e9 3d fc 77 8c 3d a7 f0 1f 3c
       0.06884472 0.114050426 0.06858823 0.009761966
0002c0 f5 61 6e 3d ac fc 9e bd 65 45 55 3e 36 1b 11 be
       0.058198888 -0.07763037 0.20827253 -0.14170536
0002d0 81 d6 63 3d c3 4e ef bc 74 78 b2 3d 67 0b 47 3d
       0.05562449 -0.029212361 0.08714381 0.04859486
0002e0 43 7f bf bd 04 80 0c 3e b1 ea 13 be 54 34 0e bd
       -0.09350445 0.13720709 -0.14444996 -0.034717873
0002f0 e9 73 29 be 71 0e 1b bd 25 4d e6 bd 02 b6 82 3d
       -0.16548122 -0.03785557 -0.11245183 0.063823715
000300 e9 be d2 bd 1c 2a 58 3e f2 dd 81 bc 0b fe 52 3d
       -0.102903195 0.21109813 -0.015852902 0.051511806
000310 33 1d f4 bd 76 38 cd b9 08 4f 45 3e 0f ee 06 be
       -0.11919632 -0.00039142714 0.1926843 -0.1317675
000320 ec cd 82 bd 21 9e df bc ee 11 cb bd ca ed f3 bd
       -0.06386933 -0.027297081 -0.09915529 -0.11910589
000330 24 2b 22 3e 64 f6 34 3d df 58 fc bc a3 f4 25 ba
       0.1583677 0.04418029 -0.030804096 -0.0006330704
000340 fc 72 fc bd 11 2c 61 3d 0e 3c b2 3d 6d 73 1a be
       -0.12326619 0.054973666 0.08702861 -0.15083094
000350 9e 58 ac 3d 5f 60 19 3d 9c d0 ec 3d e4 83 53 bd
       0.0841534 0.037445422 0.115632266 -0.051639453
000360 e2 df 85 bb ae a8 40 bb 46 ef 0c be 4a c4 a1 bd
       -0.004085527 -0.0029397416 -0.1376315 -0.07898767
000370 f6 b6 09 3e cc 2f 00 bd 48 74 64 bd 89 e7 00 be
       0.134487 -0.031295583 -0.055774957 -0.12588324
000380 fd 17 18 3d 9c 00 44 3d ff e9 41 be 41 7c e7 bc
       0.037132252 0.047852144 -0.18936919 -0.028257491
000390 9f 9c 15 3d 32 a1 b8 3c 3e d3 0b be 27 09 62 bd
       0.03652632 0.022537801 -0.13654801 -0.05518451
0003a0 a8 7b a0 bd 1e 0d 15 be 26 ed 76 3d 16 57 02 3e
       -0.078360856 -0.14555785 0.060284756 0.12728533
0003b0 f6 1a 2d 3d 61 b1 3d 3d ba 87 88 3c 63 e6 ad bd
       0.04226204 0.04631174 0.016666282 -0.084912084
0003c0 9a ad 98 bd 92 44 e5 3c ce 14 d5 3d 0e 70 50 3e
       -0.07454987 0.027986798 0.10404359 0.20355245
0003d0 ff 16 40 3e 86 87 b0 bd 3a b1 e1 bd cc af 0c be
       0.18758772 -0.08619599 -0.110201314 -0.13738936
0003e0 2d 53 1d 3d 0a ba 81 3c 10 bd 4e 3e bd b2 bd 3d
       0.0384094 0.01583578 0.20189309 0.09262607
0003f0 c6 6c 0d be 28 66 ad bd 35 6a 0a be d4 38 0f bd
       -0.13811025 -0.084667504 -0.13517077 -0.034966305

layer_2.bias f4 [32]
000000 c3 9a d5 3d d1 80 74 bc ef ce ba 3c 83 55 15 3d
       0.10429909 -0.01492329 0.022803752 0.036458503
000010 45 02 93 3d 5a c6 56 bc 8c aa f0 3d 77 25 a7 bd
       0.07178167 -0.013108814 0.11751279 -0.08161443
000020 aa b7 34 bd f3 fe ff bd 53 93 a3 bc 67 92 dc bd
       -0.04412047 -0.124997996 -0.01996771 -0.107701115
000030 bd 4a ac 3d d5 e8 c1 bd f4 76 f9 bc 67 22 9b bd
       0.08412693 -0.09468237 -0.03045223 -0.07574921
000040 ec f7 b0 bd 3e d7 1c be a7 e2 09 3d e2 12 b6 3d
       -0.08641037 -0.15316483 0.03366342 0.0889032
000050 d4 bc 50 3c b2 8e be 3c 6a f2 d4 bd 7b be b3 3d
       0.012740333 0.023261402 -0.10397799 0.08776566
000060 80 41 03 be 74 24 4d bd 13 59 ad 3c cd bd af bd
       -0.12817955 -0.050083593 0.021160638 -0.085811235
000070 f1 af bc bd db 6b 30 be 4c 77 1e 3d 85 79 7b bd
       -0.09213246 -0.17228644 0.03868799 -0.061395187

layer_3.weight f4 [1, 32]
000000 c5 ea 15 bf 4a 1a f4 be 06 34 07 bf 32 85 08 3f
       -0.58561355 -0.47676307 -0.52813756 0.5332824
000010 fd e6 33 bf b1 87 91 3f e2 5c a2 be 5e 33 f2 3e
       -0.70274335 1.1369535 -0.3171149 0.47304815
000020 fe 92 a2 3f 79 5c 02 40 40 ac 62 3f 28 04 db 3e
       1.2701108 2.036894 0.8854408 0.42776608
000030 80 1d d0 be 51 55 00 3f cb 8f f0 be 0c 08 13 3f
       -0.40647507 0.5013018 -0.46984705 0.57434154
000040 cd f3 0a 3f 64 fb cf 3e f3 98 b5 be e6 af ab be
       0.5427826 0.40621483 -0.35468253 -0.33532637
000050 ec 26 da be f7 bc 90 be 15 aa 2e 3f 69 a0 fa be
       -0.4260782 -0.2826917 0.68228275 -0.48950508
000060 ff 14 c8 3e 38 da 61 3f 9d c3 83 3f 46 c4 bc 3e
       0.3907852 0.882236 1.0294071 0.36868495
000070 e2 ed 48 3f 81 29 1e bf 10 d8 05 bf 9d f3 d9 be
       0.7848798 -0.6178208 -0.5228281 -0.42568675
