checkpt/isolated/batch64_client_1_0.pth (torch, 61015 bytes, 5 tensors)

layer_1.weight f4 [64, 197]
-0.021896679 0.039855417 -0.07007825 -0.018334154 0.042829636 0.053792067 -0.09404328 0.07828668
0.082271636 0.033735257 -0.013002183 -0.21820082 0.033373658 0.017445192 -0.07507456 0.0035306588
-0.064729564 -0.12145582 0.074326046 -0.06072044 0.0037165578 -0.12368469 -0.12750469 -0.026056949
-0.040459257 -0.044818074 -0.00815491 0.0038515627 0.006376932 -0.007243247 0.045019034 -0.0024195602
-0.1920354 -0.07195555 -0.048907008 -0.05727956 -0.018304782 -0.090432495 -0.05343112 0.00586392
-0.05440768 0.017604476 0.036929704 -0.08797176 -0.037688266 0.04030108 -0.004889345 -0.109467104
-0.01776422 0.015750457 -0.061667603 -0.035311572 -0.06204225 -0.004572391 -0.03338419 -0.041557387
0.020434981 0.040929843 -0.04561828 0.04825202 -0.027785458 -0.031773735 -0.027625792 0.040396444
-0.06989562 0.02161747 0.044114307 0.019380622 -0.009315001 -0.026563132 -0.021394776 -0.017230142
0.0734709 -0.0031528547 -0.04924356 -0.053271636 -0.08548593 0.056914277 -0.13360314 0.059187345
0.051844034 -0.21430185 -0.094977275 0.06635863 0.05857984 -0.058684032 -0.01512488 -0.10873785
0.015748039 0.00036281042 0.1624289 -0.08379063 0.015349756 0.09006684 -0.056044582 0.0017585793
-0.021000575 -0.17653452 0.14146942 -0.1266739 -0.023441453 0.028876755 -0.045453552 0.005112308
-0.01934946 -0.16555649 0.05168227 -0.04538587 0.07712476 0.012611764 -0.047024515 -0.0676071
0.026245333 0.065574266 -0.03641371 -0.011924177 0.092947125 0.07455432 0.05900916 0.028611673
-0.15825047 0.18387622 -0.048260126 -0.017732996 -0.036499668 0.029553363 0.023998996 0.016644144
-0.16249664 -0.09815291 0.03159438 0.027830426 0.07484737 0.011260314 -0.013388122 -0.039931737
-0.026289383 0.05243172 -0.004858545 -0.19625115 0.061661467 -0.0023646727 0.08781897 -0.06517508
-0.06317793 -0.060490046 -0.015136804 -0.035645362 -0.024023458 0.051952038 0.050778374 -0.017339462
-0.06721932 0.029980244 -0.20680867 -0.041162882 -0.0107739465 -0.016154233 0.053951144 0.020417042
0.04557708 0.07690493 0.02913752 -0.24520285 0.0035752822 0.024466366 0.0131745385 0.0013930235
0.075323865 0.04621466 -0.021996781 -0.0058550993 0.06657375 0.019726194 -0.003971192 0.020062573
0.062496178 0.03917173 0.06075225 -0.03152813 -0.014937876 0.028622331 0.05102674 -0.056991756
-0.14555298 0.07661422 -0.19360448 0.02163539 -0.11474224 0.04097141 0.06463224 0.03276332
-0.09736636 0.1549612 0.020250745 0.026997956 -0.022933962 -0.056914076 0.095286354 -0.02698018
0.016277568 -0.018051097 0.035611853 -0.017863343 -0.00742501 -0.06061337 0.072422124 -0.006270692
-0.12362934 -0.0061707865 0.089708485 -0.050096076 -0.049107954 -0.03661866 -0.08975408 -0.09036833
0.032196477 0.013308451 0.039458107 0.10339977 -0.007464367 -0.06298663 -0.028654648 0.17505881
-0.062017538 0.005283565 0.041623667 0.017901404 0.045015235 -0.14358108 0.03178308 -0.07113146
-0.046536095 0.035490464 -0.060955238 0.035983495 0.010227084 -0.04080307 0.084617056 -0.043472316
-0.14765288 -0.02242541 -0.06374931 -0.05655533 -0.13734442 -0.008792168 -0.018929916 -0.09312482
0.043865547 -0.029903121 -0.08500632 0.18436168 -0.14623745 0.069900475 0.0048122695 -0.050210513
00000000: aa60 b3bc 6f3f 233d 2f85 8fbd 8231 96bc
00000010: 216e 2f3d 1255 5c3d c399 c0bd c454 a03d
00000020: 087e a83d fb2d 0a3d 1c07 55bc 0970 5fbe
00000030: d1b2 083d 38e9 8e3c b1c0 99bd a062 673b
00000040: ef90 84bd d4bd f8bd 4138 983d ffb5 78bd
00000050: 7e91 733b 664e fdbd 9790 02be 6275 d5bc
00000060: 9bb8 25bd 2893 37bd 2c9c 05bc 806a 7c3b
00000070: 95f5 d03b c258 edbb e165 383d 7c91 1ebb
00000080: eea4 44be 6e5d 93bd b752 48bd f99d 6abd
00000090: e9f3 95bc ac34 b9bd 97da 5abd 2026 c03b
000000a0: 96da 5ebd 4337 903c 9a43 173d 8a2a b4bd
000000b0: 035f 1abd bf12 253d cc36 a0bb 4a30 e0bd
000000c0: 4586 91bc 1a07 813c 2b97 7cbd dea2 10bd
000000d0: 0420 7ebd ffd3 95bb dcbd 08bd 1438 2abd
000000e0: 4367 a73c 0da6 273d 3cda 3abd e9a3 453d
000000f0: 549e e3bc 2d25 02bd 7c4f e2bc be76 253d
00000100: 6f25 8fbd 1f17 b13c 34b1 343d 1cc4 9e3c
00000110: f29d 18bc ed9a d9bc 1944 afbc 3a26 8dbc
00000120: e977 963d 20a0 4ebb 9db3 49bd 5c33 5abd
00000130: 3f13 afbd f21e 693d 43cf 08be 6e6e 723d
00000140: 695a 543d f271 5bbe 7283 c2bd 09e7 873d
00000150: 6af1 6f3d ab5e 70bd 58ce 77bc f3b1 debd
00000160: 0802 813c 9737 be39 c353 263e 6c9a abbd
00000170: 8b7d 7b3c f774 b83d 018f 65bd 2180 e63a
00000180: 6609 acbc 77c5 34be 5cdd 103e ceb6 01be
00000190: 4a08 c0bc f28e ec3c 812d 3abd 2685 a73b
000001a0: c282 9ebc a487 29be cab0 533d 89e6 39bd
000001b0: 96f3 9d3d 92a1 4e3c c79c 40bd 9775 8abd
000001c0: 7400 d73c cd4b 863d 8b26 15bd a05d 43bc
000001d0: 105b be3d efaf 983d 97b3 713d 0763 ea3c
000001e0: 690c 22be 0c4a 3c3e 69ac 45bd ca44 91bc
000001f0: ad80 15bd e519 f23c 8b99 c43c 4d59 883c
00000200: 8565 26be 6504 c9bd 1c69 013d a2fc e33c
00000210: 9449 993d 2e7d 383c db59 5bbc 768f 23bd
00000220: d55c d7bc a5c2 563d 6e34 9fbb 10f6 48be
00000230: bc90 7c3d a0f8 1abb 6fda b33d 837a 85bd
00000240: 6e63 81bd 69c4 77bd 5c00 78bc df00 12bd
00000250: d8cc c4bc a9cb 543d fcfc 4f3d 7d0b 8ebc
00000260: 48aa 89bd 2199 f53c a7c5 53be 699a 28bd
00000270: 3585 30bc e255 84bc e0fb 5c3d a441 a73c
00000280: 08af 3a3d 5580 9d3d cfb1 ee3c 7516 7bbe
00000290: 484f 6a3b b06d c83c 05da 573c 1d96 b63a
000002a0: 6643 9a3d 954b 3d3d 9832 b4bc 22dc bfbb
000002b0: d157 883d d498 a13c c620 82bb 445a a43c
000002c0: fefb 7f3d 8972 203d 5ad7 783d a423 01bd
000002d0: febd 74bc 6179 ea3c 6a01 513d 3070 69bd
000002e0: d70b 15be ebe7 9c3d 4140 46be b43c b13c
000002f0: fbfd eabd a3d1 273d e85d 843d d532 063d
00000300: 0468 c7bd 26ae 1e3e e4e4 a53c d12a dd3c
00000310: 01e0 bbbc bc1e 69bd 7e25 c33d 8a05 ddbc
00000320: 8958 853c e5df 93bc bcdd 113d 2556 92bc
00000330: 804d f3bb ba45 78bd 0d52 943d 617a cdbb
00000340: 6131 fdbd 4f34 cabb 15b9 b73d 8b31 4dbd
00000350: 6c25 49bd 73fd 15bd fdd0 b7bd 0813 b9bd
00000360: 74e0 033d b00b 5a3c d39e 213d 42c3 d33d
00000370: a697 f4bb 22ff 80bd 27bd eabc 9e42 333e
00000380: 1a06 7ebd c121 ad3b 947d 2a3d f7a5 923c
00000390: e561 383d eb06 13be fa2e 023d 5fad 91bd
000003a0: a29c 3ebd 735e 113d 33ac 79bd 6e63 133d
000003b0: 808f 273c 1f21 27bd b54b ad3d 0710 32bd
000003c0: 5132 17be 7eb5 b7bc 008f 82bd 90a6 67bd
000003d0: 04a4 0cbe 070d 10bc e912 9bbc 3ab8 bebd
000003e0: 5cac 333d 64f7 f4bc cb17 aebd 4fc9 3c3e
000003f0: 45bf 15be fb27 8f3d 3eb0 9d3b 8aa9 4dbd

layer_1.bias f4 [64]
-0.15438917 -0.061703812 0.0076023797 0.076060936 0.0040582754 -0.12453923 0.02576044 0.09391679
-0.017443845 0.0926572 0.046790846 -0.06332203 0.18265249 -0.16465771 0.0067746765 0.18770526
0.058482308 -0.031848457 -0.008993543 0.08620014 -0.082864046 0.13564087 -0.04253195 0.08147944
0.09478097 -0.009527871 -0.04598155 0.035727274 -0.057423204 -0.15285225 -0.06582745 -0.09406605
0.10462627 -0.17785695 -0.19703259 -0.050344538 0.077579886 -0.07190378 -0.10364336 0.18490657
0.030077284 0.3045073 -0.02480869 0.11433219 -0.09549106 -0.0011219439 -0.12049132 -0.039641704
0.09461201 -0.013254164 -0.043658845 0.09462416 -0.008671152 0.011281685 -0.12485633 -0.16304585
0.13396364 0.15276146 -0.018003503 -0.07288433 0.04386525 0.033800453 -0.12087269 0.03303674
00000000: 3218 1ebe 23bd 7cbd 621d f93b d6c5 9b3d
00000010: 48fb 843b 6c0e ffbd 8f07 d33c 7257 c03d
00000020: 65e6 8ebc 0fc3 bd3d c2a7 3f3d fbae 81bd
00000030: 4109 3b3e 089c 28be 1bfe dd3b cf35 403e
00000040: 258b 6f3d 8773 02bd a759 13bc b389 b03d
00000050: a0b4 a9bd 71e5 0a3e fb35 2ebd b1de a63d
00000060: 861c c23d ca1a 1cbc 2657 3cbd c356 123d
00000070: 9834 6bbd 4d85 1cbe 8bd0 86bd b4a5 c0bd
00000080: 4c46 d63d 2220 36be e9c2 49be 1336 4ebd
00000090: 34e2 9e3d 4a42 93bd f842 d4bd 2658 3d3e
000000a0: a364 f63c 61e8 9b3e 983b cbbc ff26 ea3d
000000b0: d190 c3bd 310e 93ba 27c4 f6bd 575f 22bd
000000c0: f1c3 c13d fe27 59bc 9ed3 32bd 50ca c13d
000000d0: 7311 0ebc d1d6 383c adb4 ffbd 7ef5 26be
000000e0: c42d 093e 806d 1c3e 157c 93bc 6144 95bd
000000f0: 0cac 333d 5872 0a3d 1a8c f7bd 8851 073d

layer_2.weight f4 [32, 64]
-0.017145481 -0.21023579 -0.08092191 -0.35512632 0.033649344 -0.0985203 -0.36190856 -0.11207639
0.07967628 0.1356619 0.06047407 0.14451066 0.10589134 0.019483265 0.12593457 0.111627415
0.0053039338 0.027772414 -0.07625592 0.011718496 -0.20130838 0.09961114 -0.117121756 -0.15570588
0.06851093 -0.11000572 -0.08820598 -0.21185076 0.18752792 0.17037566 0.02329711 -0.3603314
0.095463805 -0.05974392 0.12579274 -0.32553214 -0.044726584 0.18059517 -0.18141772 0.00015972137
-0.017898928 0.019087845 0.17719112 0.09119769 -0.21311198 -0.08116467 0.004449253 0.17140937
-0.20055786 0.058037166 -0.18565516 -0.08919841 -0.25954998 -0.026317123 -0.0859068 0.01443846
0.060107924 -0.3199615 0.02792793 -0.07088327 0.028135909 0.16500816 0.122436695 0.023902034
-0.08154058 -0.08879241 0.030493919 -0.19273931 -0.027916376 -0.2863106 -0.12942407 0.07667088
-0.0480858 -0.0036826434 0.038930833 0.026333993 -0.08810805 -0.0071994294 0.20689254 -0.019409582
0.14825532 0.21085861 0.072316095 0.004105863 -0.0833905 0.0045458237 0.26557645 -0.32335868
-0.25335267 0.00024329538 0.0797226 -0.093157135 0.26286766 -0.05795875 -0.34503734 -0.06642142
0.009968406 -0.21656044 0.13006046 -0.07939108 0.056376196 0.20089349 -0.18192129 -0.100505136
0.060084555 0.07990705 -0.13199098 0.26076078 0.069870636 -0.33499846 -0.12818575 0.10438059
-0.045270287 -0.0032049336 -0.023741545 0.04087041 -0.022464737 0.027483316 0.16094196 0.03139499
0.009280647 -0.20631722 -0.25678787 -0.1759343 -0.0062582223 -0.083260395 -0.1728177 -0.03608072
-0.03367065 0.10021507 0.1063705 -0.02459598 0.08399569 -0.10302986 -0.031434644 -0.11804277
0.087006494 0.14035636 0.026478592 0.060333017 0.048206456 -0.06575851 0.07842858 0.010824271
-0.04698458 -0.1367459 0.010955545 0.061696347 -0.08591236 -0.18582726 -0.22300582 0.09825119
-0.11749209 0.02241981 -0.058787767 -0.1090191 -0.051478792 0.020083653 -0.100870304 0.02151638
0.0405883 -0.14143747 0.0819994 0.033423617 0.039029803 -0.02870468 -0.12327684 -0.112807155
-0.028092341 0.11683104 0.04853299 0.027907386 0.030341959 -0.039686974 -0.2538417 0.21284492
-0.11786252 -0.08282275 0.1951094 0.021530619 0.03044897 0.07187483 0.068189524 0.061507694
0.10763954 -0.22636318 -0.05687244 0.101376854 0.0042781197 0.051029153 0.0439985 0.030654693
-0.19535041 0.0898026 -0.1380388 -0.041294593 -0.14689925 0.009377231 -0.04905945 -0.11648923
0.015921006 -0.04249125 -0.14561939 0.0054790117 0.030748675 -0.21806912 0.04528304 0.11610939
0.20999505 -0.115598366 -0.093114704 0.14339802 -0.044554066 0.06861815 -0.028418487 0.024332864
0.046772618 -0.12606446 0.13486734 0.04590803 -0.038546 0.095483616 0.025911879 0.047532763
0.020281285 -0.069536656 -0.0010009562 0.041995764 0.019487312 0.016048674 -0.014754786 0.075737655
-0.10603156 0.064449616 0.010289148 0.04401439 0.10963367 -0.13665476 -0.0022335863 -0.024806943
0.101146944 -0.07556949 0.09901088 -0.0074913916 -0.06058588 0.053962797 0.07131895 -0.03671513
-0.0019626038 0.015856683 0.10865886 -0.028916407 0.111801445 -0.07672448 -0.07394483 0.020443408
00000000: ae74 8cbc 0d48 57be 63ba a5bd 1ed3 b5be
00000010: e5d3 093d 03c5 c9bd 144c b9be 4e88 e5bd
00000020: 512d a33d f4ea 0a3e a9b3 773d 9afa 133e
00000030: 8fdd d83d 5e9b 9f3c fef4 003e ea9c e43d
00000040: 9fcc ad3b f982 e33c 102c 9cbd effe 3f3c
00000050: c923 4ebe ed00 cc3d 88dd efbd 5d71 1fbe
00000060: 754f 8c3d ae4a e1bd 56a5 b4bd 68ef 58be
00000070: 5207 403e f576 2e3e 95d9 be3c 5b7d b8be
00000080: 8782 c33d 0ab6 74bd d0cf 003e 26ac a6be
00000090: 3933 37bd f1ed 383e 91c5 39be e17a 2739
000000a0: c6a0 92bc 1d5e 9c3c 9771 353e dbc5 ba3d
000000b0: 073a 5abe aa39 a6bd 0acb 913b f085 2f3e
000000c0: 0a5f 4dbe 61b8 6d3d 631c 3ebe a8ad b6bd
000000d0: bce3 84be 0297 d7bc e8ef afbd 4a8f 6c3c
000000e0: ba33 763d fed1 a3be 1dc9 e43c 3f2b 91bd
000000f0: 477d e63c e6f7 283e 17c0 fa3d 33ce c33c
00000100: bffe a6bd ccd8 b5bd 62ce f93c 745d 45be
00000110: e2b0 e4bc 4e97 92be be87 04be 9f05 9d3d
00000120: 9ef5 44bd 8158 71bb f075 1f3d 63ba d73c
00000130: fe71 b4bd 31e9 ebbb a3db 533e d800 9fbc
00000140: 3ed0 173e 52eb 573e 761a 943d 7a8a 863b
00000150: a3c8 aabd 22f5 943b a3f9 873e 458f a5be
00000160: 71b7 81be 1b1d 7f39 9a45 a33d 2bc9 bebd
00000170: 9796 863e 2766 6dbd bca8 b0be f407 88bd
00000180: 8652 233c 05c2 5dbe 922e 053e ca97 a2bd
00000190: baea 663d 06b7 4d3e 9349 3abe a3d5 cdbd
000001a0: 391b 763d 4fa6 a33d a528 07be 7082 853e
000001b0: 5618 8f3d eb84 abbe 2043 03be 7ec5 d53d
000001c0: 566d 39bd dd09 52bb a17d c2bc bb67 273d
000001d0: f807 b8bc b124 e13c f8cd 243e 0898 003d
000001e0: db0d 183c d244 53be b379 83be 1f28 34be
000001f0: c611 cdbb 6d84 aabd 20f7 30be 61c9 13bd
00000200: 3cea 09bd 8f3d cd3d c7d8 d93d 827d c9bc
00000210: ef05 ac3d 5201 d3bd 9dc1 00bd 68c0 f1bd
00000220: 7630 b23d 94b9 0f3e a2e9 d83c c11f 773d
00000230: 2274 453d 66ac 86bd 2a9f a03d 4858 313c
00000240: e772 40bd 1e07 0cbe e37e 333c 4fb5 7c3d
00000250: d2f2 afbd 8049 3ebe a35b 64be eb37 c93d
00000260: b19f f0bd c0a9 b73c 71cb 70bd 6845 dfbd
00000270: 6ddb 52bd 7986 a43c 1795 cebd 1f43 b03c
00000280: eb3f 263d fcd4 10be 4def a73d 34e7 083d
00000290: b7dd 1f3d 1426 ebbc 9178 fcbd 7007 e7bd
000002a0: e921 e6bc 1d45 ef3d 87ca 463d 089e e43c
000002b0: b38f f83c cf8e 22bd 8af7 81be 05f4 593e
000002c0: e861 f1bd f99e a9bd c2ca 473e fb60 b03c
000002d0: 1e70 f93c 1c33 933d f3a6 8b3d 7eef 7b3d
000002e0: 1f72 dc3d c0cb 67be 13f3 68bd ab9e cf3d
000002f0: 782f 8c3b f203 513d c537 343d 8d1f fb3c
00000300: f009 48be 6dea b73d 0b5a 0dbe 8524 29bd
00000310: c26c 16be f5a2 193c 90f2 48bd e891 eebd
00000320: c56c 823c 4e0b 2ebd 401d 15be 4889 b33b
00000330: a5e4 fb3c 834d 5fbe b57a 393d c3ca ed3d
00000340: f108 573e d6be ecbd ecb2 bebd eed6 123e
00000350: 537e 36bd ac87 8c3d e3cd e8bc b755 c73c
00000360: a594 3f3d 0b17 01be aa1a 0a3e 0f0a 3c3d
00000370: 69e2 1dbd ea8c c33d 2645 d43c b7b1 423d
00000380: f024 a63c 3c69 8ebd 8432 83ba c003 2c3d
00000390: dba3 9f3c 8278 833c 0fbe 71bc 581c 9b3d
000003a0: 1327 d9bd 29fe 833d d193 283c 6f48 343d
000003b0: 9e87 e03d 3aef 0bbe 5c61 12bb ee37 cbbc
000003c0: 2126 cf3d 2dc4 9abd 37c6 ca3d 597a f5bb
000003d0: e628 78bd 1808 5d3d ab0f 923d 9b62 16bd
000003e0: 079f 00bb e0e5 813c 8988 de3d 1ae2 ecbc
000003f0: 28f8 e43d b921 9dbd 6370 97bd ef78 a73c

layer_2.bias f4 [32]
0.1267283 0.05404563 0.018261278 0.1672542 -0.049162183 0.03734906 0.14139561 0.23292379
0.058956735 0.10979582 0.1651836 0.40363434 0.15860066 0.042512026 -0.10108635 0.21914898
-0.1523504 0.02101797 -0.06807373 0.12550557 0.14254422 -0.025824433 -0.06799775 -0.1580586
0.1013252 -0.10188058 -0.10286069 -0.17702419 -0.082686536 -0.045654275 -0.08223227 -0.12859492
00000000: 10c5 013e f35e 5d3d ad98 953c af44 2b3e
00000010: 495e 49bd 54fb 183d 03ca 103e 9383 6e3e
00000020: 9e7c 713d a2dc e03d e425 293e 29a9 ce3e
00000030: 3668 223e 1721 2e3d 5c06 cfbd 9768 603e
00000040: be01 1cbe e12d ac3c 3d6a 8bbd 8884 003e
00000050: 1df7 113e c38d d3bc 6842 8bbd 1dda 21be
00000060: 9683 cf3d c4a6 d0bd a0a8 d2bd d445 35be
00000070: 8f57 a9bd faff 3abd 6469 a8bd 63ae 03be

layer_3.weight f4 [1, 32]
0.97076076 0.9864663 -0.47017193 -0.3581117 0.45556965 -0.32635754 -0.34971046 -0.49348682
0.38404447 0.62259465 -0.36333245 2.8615713 -0.2830274 -0.345661 -0.086077824 -0.36876217
1.4895647 -0.2837908 1.4782206 0.4747454 -0.37613285 0.42129502 1.0985638 0.6611088
-0.2722377 -0.5050534 0.43337664 0.45913476 0.36709955 -0.5799578 -0.36192146 -0.1165195
00000000: c783 783f 0e89 7c3f 60ba f0be 6b5a b7be
00000010: 6d40 e93e 5618 a7be 400d b3be 4eaa fcbe
00000020: 7aa1 c43e 5d62 1f3f b606 babe fc23 3740
00000030: f8e8 90be 7bfa b0be 9249 b0bd 65ce bcbe
00000040: 0eaa be3f 074d 91be 5536 bd3f d411 f33e
00000050: 7c94 c0be fbb3 d73e bd9d 8c3f 6d3e 293f
00000060: bd62 8bbe 2e4b 01bf 8be3 dd3e b613 eb3e
00000070: 79f4 bb3e 1d78 14bf c54d b9be c7a1 eebd
