checkpt/isolated/batch64_client_1_5.pth (torch, 61015 bytes, 5 tensors)

layer_1.weight f4 [64, 197]
00000000: 10ec fbbb b149 cfbd db5d 153d fc2b 393e
00000010: 00a5 6fbd d405 4fbc a7ec a93c a646 15bc
00000020: 7f4f 78bd cadf 3ebc 350c 01be eca3 243c
00000030: 853c 38be 75e8 d7bc f78d 60be 38da 39bd
00000040: 406d 4dbe 64d5 3c3c 0daf e2bc f220 263d
00000050: 1f72 12bd 3d4a fbbd 5272 19be 6788 45bd
00000060: c555 e3bc 3dee 39bd d317 d6bd 8aec 063d
00000070: 5152 0b3e e44f fbbc 4788 99bc e5da aebd
00000080: 194b 943c 57bf 873d a266 a4bc b242 143e
00000090: f260 68bd 4961 163e 413c cbbc 2e6c 89bd
000000a0: 7ac4 1ebe 3346 24bd 28af 95bd 9f78 4b3d
000000b0: 21fe 073d d541 143b 05c9 c1bd 5625 ba3d
000000c0: 9325 c93d 98a0 8b3d 3273 8f3c 8506 06be
000000d0: 4709 6ebd 86b6 1dbe 95e4 ec3b 027f 853c
000000e0: 3d84 963c 8227 24bd 0036 a43d 3adf 93bd
000000f0: aa24 1f3b 9f44 873e d041 e43c a45f b53b
00000100: b8e3 6ebc 99a9 97bb 1fc8 2c3d 5713 4dbd
00000110: bfa0 52bd 4da9 f03c 01e3 76bd 06e9 34bd
00000120: d490 a8bd f286 2c3d ebae 2ebd 88e1 9f3c
00000130: 57ee 3a3c 3e1e 0ebe 579a 02be a0f3 aa3c
00000140: 198a 2cbe 74b4 3c3e f4ba 913d 28b4 38bd
00000150: da42 2cbd 1421 113e 6ace c1bc df5d 8a3d
00000160: 38ec 343d 2e55 c2bc 7f23 7fbc 0d05 4a3c
00000170: 4dbc 1bbd 50be adbc 7078 abbd 0b74 bdbc
00000180: 29cc 07bd dece bbbc dbfc 92bc e546 7ebd
00000190: 32af 1d3d d060 0d3c 2810 aabc 46a9 923d
000001a0: 8032 8d3b 490e f33d 072f 543d bc83 1bbd
000001b0: 3bb6 39be 7a8f d93b b8f6 3e3d d17b 42bd
000001c0: f6f3 b5bc 6965 c2bc 6b6f 09be b307 b2bc
000001d0: 2b0e ab3d 2d8b 213c b681 80bd 64e5 91bd
000001e0: 44a6 91bd b22b fb3d b85e c2bc dc87 d4bc
000001f0: d88d 80bd cee7 94bd 6e16 203e b92f 8abd
00000200: 1d65 b93c 3343 86bd 6ee8 bd3c 09a2 803d
00000210: 5847 91bb 7dd6 19bc bb1b bd3c 85ee 9abd
00000220: 2204 3dbc dd33 03bb 38bc c0bc 85c5 6c3d
00000230: 3560 97bb 585c 6c3c 80a8 d9bd 5965 043c
00000240: af39 1ebe 743e 5c3d 9239 183d b59a 65bd
00000250: 4966 5b3d 52d2 1c3c 25ac bf3c 2b66 9e3d
00000260: 5247 babc f97f 553d 6425 d3bd f8bd 123e
00000270: 8ec6 e1bd 2039 7cbd 76de 6a3d 78bc 9f3d
00000280: eb7b 503e a886 7c3d 85dd 463c 26b5 b8bc
00000290: 9bdd ca3b 6070 b53d c128 613d a08d 163b
000002a0: d257 0a3d 2241 a13c 6e18 413c d8c0 ba3d
000002b0: 15cb 72bc 7b99 e63d fdde 83bc f219 6d3d
000002c0: 74e9 7f3d e3cf fabd b899 94bc 3a52 fdbd
000002d0: 314e b53d 89b2 cf3d f089 213e a8ec de3c
000002e0: 2944 a6bd 5c32 793e 295d 303d b412 4a3d
000002f0: 8330 9ebb 398d 8cbc c5b5 1d3d 4a3a c83d
00000300: ea3e 523d f8da b03c c524 b5bc 5d44 2bbd
00000310: 4baa 81bd 2a1d 13bd b920 d0bc f062 37bd
00000320: 2bd4 98bd 7b34 8cbd 1778 79bd ef7f a1bd
00000330: 6439 123d b6c1 30bc 1e97 723d 3a67 7fbd
00000340: 0d75 98bd eb01 37bd fb6f 02bd cbd9 9ebe
00000350: 3e55 e5bc d0ee f5bd 6a29 23bd e1ae 75bd
00000360: 0ad6 50bd eb26 ed3c b86d fb3d 3184 03bc
00000370: ff4b b1bc cfd9 d4bd fd71 123c c864 733c
00000380: 24e2 f43c 8959 a4bd e9a0 433d dbb6 9fbd
00000390: 6a34 bcbd 1991 90bd 862f 413e df8c 103e
000003a0: 15c1 bc3b eaf3 16bd 9881 0f3e f9d5 e03c
000003b0: 8e9d 8bbd 6c93 84be e564 fa3d 6429 f5bc
000003c0: d709 193e 1991 4bbd 6fc0 50bd 5c6b e63c
000003d0: 90df eb39 13a0 0b3d f6a7 09be 1c8c 24be
000003e0: d3ed f53d f5e5 a43d 156f 92bd 296b 4c3d
000003f0: 7ecd 00bd 70d4 e5bc 126a 8d3d 3d14 65bc
-0.007688053 -0.101214774 0.03646646 0.18083185 -0.058506966 -0.012635667 0.020742727 -0.009111082
-0.06062269 -0.011650035 -0.12602313 0.010048848 -0.17991836 -0.026355961 -0.21929155 -0.045374125
-0.20061207 0.011525486 -0.027671361 0.040558763 -0.035753366 -0.12270019 -0.14985016 -0.048225787
-0.027750859 -0.045393217 -0.10453763 0.032940425 0.1360562 -0.030677743 -0.01874174 -0.085378446
0.018102216 0.06628292 -0.02006847 0.14478567 -0.05673308 0.14685549 -0.024809005 -0.06710087
-0.15504637 -0.04010601 -0.07308799 0.04967558 0.03320134 0.0022622247 -0.094621696 0.090891525
0.0982162 0.0681774 0.017510984 -0.13088425 -0.058114316 -0.15401658 0.0072293975 0.016295914
0.018373603 -0.04007674 0.08018112 -0.072203115 0.0024283328 0.2641954 0.027863413 0.005535083
-0.01458066 -0.004628372 0.042183038 -0.050067272 -0.05142283 0.029377604 -0.06027508 -0.04416754
-0.08230749 0.04212088 -0.042647284 0.019516721 0.011409364 -0.13878724 -0.12754188 0.020868123
-0.16849555 0.18428212 0.071157366 -0.045093685 -0.042055942 0.14172775 -0.023657996 0.06756186
0.04417059 -0.023722257 -0.015572428 0.012330306 -0.038021374 -0.021208912 -0.08372581 -0.023126623
-0.033153687 -0.02292579 -0.017942837 -0.06207933 0.038497157 0.008629039 -0.020759657 0.071611926
0.0043089986 0.11867959 0.05180266 -0.03796743 -0.18135922 0.006639418 0.046622008 -0.04748136
-0.022211056 -0.023729997 -0.13421409 -0.021732187 0.08352312 0.009859842 -0.062747404 -0.07123831
-0.07111791 0.122641936 -0.023726806 -0.025943689 -0.062770545 -0.07270776 0.15633556 -0.067473836
0.022631222 -0.06555786 0.02318212 0.06280906 -0.0044335537 -0.009389517 0.023084512 -0.07565025
-0.01153663 -0.0020019927 -0.02352725 0.057805557 -0.004619623 0.014426313 -0.10627842 0.008080804
-0.15451692 0.053770497 0.03716428 -0.056055743 0.053564344 0.009571629 0.023397515 0.07734331
-0.022739086 0.052123997 -0.10309866 0.1433028 -0.110241994 -0.061577916 0.05734106 0.077996194
0.20359771 0.061651856 0.012137775 -0.022547316 0.006190968 0.088593245 0.054970507 0.0022972599
0.03377516 0.019684378 0.01178561 0.09118813 -0.014818926 0.11259743 -0.01609754 0.05788607
0.062478498 -0.122466825 -0.018139705 -0.12369199 0.088528045 0.10141475 0.15775275 0.027212456
-0.08118469 0.24335617 0.043057594 0.049334243 -0.0048275604 -0.017157184 0.038503427 0.09776743
0.05132953 0.021588787 -0.02211226 -0.041813243 -0.06331309 -0.035916485 -0.025406228 -0.04477209
-0.07462343 -0.06845947 -0.060905542 -0.078857295 0.035699263 -0.010788372 0.059226148 -0.062354304
-0.07444201 -0.044679563 -0.031845074 -0.31025538 -0.027994748 -0.120084405 -0.039834417 -0.05998123
-0.050985374 0.028949222 0.122767866 -0.008027122 -0.021642683 -0.10393106 0.00893831 0.014855571
0.029892989 -0.0802489 0.047760878 -0.07798549 -0.09189685 -0.07058925 0.18865785 0.14116238
0.005760322 -0.03685371 0.1401428 0.02744578 -0.068171605 -0.25893724 0.12226275 -0.029926963
0.1494516 -0.049698923 -0.05096477 0.028127365 0.0004498926 0.034088206 -0.13442978 -0.16069072
0.12008252 0.08051673 -0.071500935 0.049906883 -0.031445973 -0.0280554 0.06904997 -0.013981876

layer_1.bias f4 [64]
00000000: 21f3 85be 2210 4cbd 8045 06bd a1e9 043e
00000010: d280 03be e31e f03c 8bcb 8abd f740 bc3d
00000020: c9e2 33be 251f 10be c816 75bd eb00 7dbd
00000030: f6f7 10bd 0a54 a53d d4bd 65be dcaa 37bd
00000040: f7f7 15be f23f a13c 674e 713e 433c 3dbc
00000050: b45e e83c 2138 f5bd ed77 74bc fea8 e9bd
00000060: 27a8 18bc cdbe 7f3e bbd6 2d3e 1c32 d2bd
00000070: 0615 59bd 3fe9 393d 8283 80bc b69c 13be
00000080: 1024 d7bd 8918 803d d4db 513d edd7 483d
00000090: f1bb b8bd ed82 0abe 80d9 d5bd 7cb9 b9bd
000000a0: 135a cf3d 8f1d 3cbe 9932 083b f81f 143e
000000b0: 964c ae3d 7f4f c7bd 4417 5a3e ce6e 88bc
000000c0: 1d70 9f3e 0b1a f53d e076 08be 5991 10bd
000000d0: 6751 87bd b28f f53b 1902 4ebe eef7 943e
000000e0: f940 ad3d d5a3 5fbe 239e 0dbd 0946 aebc
000000f0: 71b3 713d 1f58 dd3c 35e0 2b3c 478b f1bc
-0.26162055 -0.049820073 -0.032781124 0.12979747 -0.1284211 0.029311603 -0.06777104 0.091920786
-0.1756698 -0.1407438 -0.05983618 -0.061768454 -0.035392724 0.0807267 -0.22435695 -0.04484068
-0.14645372 0.019683812 0.23565064 -0.011550012 0.02836547 -0.11973596 -0.014921171 -0.11409186
-0.009317434 0.24975128 0.16976444 -0.10263464 -0.052998565 0.045388456 -0.015687708 -0.14415249
-0.10504925 0.0625468 0.051235035 0.049034048 -0.09020222 -0.13526507 -0.104418755 -0.090685815
0.10124602 -0.1837065 0.0020782112 0.1446532 0.08510701 -0.097319596 0.21297938 -0.016654398
0.31140223 0.11967858 -0.13326597 -0.035294864 -0.06607323 0.0074939365 -0.20117988 0.29095405
0.08459658 -0.2183984 -0.03457464 -0.02127363 0.05900902 0.027019558 0.010490467 -0.029485358

layer_2.weight f4 [32, 64]
00000000: 03ed 4dbb a74d c8bd c5df e13d 026f 123c
00000010: 47cd 51bc 664a adbd 8280 50bd 99c9 3b3e
00000020: 3956 9fbc d4c8 893d cc66 293c cb49 463b
00000030: ffd3 e13c b0b5 5ebc 6db1 053e 5530 273d
00000040: 99de 4bbd d498 d6bc f6fb 943d ba3f 053d
00000050: 051a f93d 3103 06be 411d d93d b866 b5bc
00000060: c371 bebb be2e bd3d 3139 143c eced 8bbd
00000070: f722 023e f070 87bd 2a6b 15bd e0d9 0dbd
00000080: 7e95 0b3e f2cf 23bd 123d 1abe c672 7a3d
00000090: 4a08 94bd e452 edbd eea5 05bd 0e80 c43d
000000a0: 37a8 abbd ef15 10be 69ca 84bd a9ed a13d
000000b0: 46e5 243e d626 813d a8a0 f8bd a2ab f63c
000000c0: 4737 03be ced3 d4bd dc73 8abc 394d e5bd
000000d0: 122e 7dbd c938 603d a577 013e a562 68bd
000000e0: c999 183d 3067 aebd 2761 1b3e a5e6 5c3d
000000f0: 6d4e 243d f459 dfbd e395 d3bd 6127 333d
00000100: 79fc 2b3e f3b5 6f3c ef96 e03b 4458 893e
00000110: 32b8 333e 55fc 82be 917b 683d 6940 003d
00000120: 38bd 22bd 06aa 67be 3e69 753d 0d6d b93d
00000130: 7e5b 163e 2408 183d e48d 573e 72a7 c6be
00000140: d6a5 9a3d 765d 17bd 6c20 07be 0382 263e
00000150: 25e0 17bd acae 7dbe 8c4f b5bd 5af7 0dbe
00000160: 26c4 263e e7cf cebd 16bc c53d 2736 e93c
00000170: f5d8 03be ac9f f8bd 195e 033d c111 d83d
00000180: 0c87 5d3e a076 893e dc00 e03b cdb4 63bc
00000190: 815c 5cbd db17 8d3b 38b8 bbbd 7a87 343d
000001a0: 5185 db3b 7ceb 63bd 8cb4 383c a2f8 4bbd
000001b0: b59f af3c 6393 8fbc 0aaa 603d 374e 0dbe
000001c0: 4f88 5abe 3ed3 e7bc 708f cb3c efa6 013c
000001d0: 230f aa3d 5d70 343e 9e1e 933b cab8 23be
000001e0: d785 9dbd 1ff1 adbd e2d2 a2be 0660 14be
000001f0: 5c11 2a3d 2f65 0d3e 3101 993d b7fb 25be
00000200: 9992 d7bc 0b07 4b3d 10a5 8fbd 0da6 cdbd
00000210: d636 b63c 1afc b13d e44d 81bd e61a f7bc
00000220: 4038 113e aa96 d33c 8944 ad3d 6498 f1bd
00000230: 6dd1 483c f003 e73c 2017 a13d f2f2 913d
00000240: d312 13be a921 2b3e 9a37 d9bc e11a c03a
00000250: d9cd 93bd 04b3 acbd 6ae4 343d 8958 56bd
00000260: d59d 1b3e 59f3 f7bd d2c5 b2bd c30a 2dbb
00000270: c5da eebd 8799 c93c 3c54 ca3d 7bc5 b7bc
00000280: c7c7 f73d af8b b8bd b692 01bd e227 fb3b
00000290: 9469 a63d f2a1 d03d eb44 0ebe 0346 45bc
000002a0: 69d1 1c3d 3427 d8bc 3dec 5f3d debf 253d
000002b0: b978 f0bd 1e43 ccbc f818 2638 4d5b 733d
000002c0: cd98 453e 79ba 643e 163e 91bd e7da afbb
000002d0: 873e 1e3d d418 5bbc c141 0abd 2a16 d23d
000002e0: c41e cbbb d1d2 abbd af25 1cbd cc12 553d
000002f0: 56a5 02be f77d 5ebd 3247 82bc 4d43 5b3a
00000300: 4a22 d83c b7f1 ac3d 376e e6bd 7f20 40bd
00000310: 305a b53d 54ed 973e 97a1 573d b173 613d
00000320: ca75 e13c 5cfb d8bd a3be 34bd 8c01 ddbd
00000330: 83fb 1fbc 4804 c03d d430 813d 68df 83bc
00000340: 622d 15bd 711b 233e 2013 563c de06 c8bd
00000350: 7548 9c3d 8748 613d 09a0 5dbd 7ae9 3cba
00000360: e7c7 b0bd 081f 6dbe c3a3 b9bc c0dd 55bc
00000370: 6f46 5ebd 7e48 063b 4607 013e 3844 8cbe
00000380: bbc5 7d3d d24a c3bd 4bce fcbc e17e 6c3c
00000390: 318d 143d 4741 54bc 171b 6cbd 5668 6d3d
000003a0: 432d 4d3c 2689 2e3c c27d abbd 8ce5 8c3b
000003b0: 2f2f 613d dd4b dabd ebde 423e e380 c2bc
000003c0: 2085 223e 5f82 2d3e 41c1 913d 85aa 70be
000003d0: 8aff 32be 9a43 01bd 493a 92bd 9a00 c6bd
000003e0: f2d2 c7bd 0061 fbbd d09c 83bd 1eac 243c
000003f0: 34c3 193e c28a dc3c 1729 63bc 8543 553e
-0.0031421788 -0.09780436 0.11029009 0.008937599 -0.01280529 -0.08461456 -0.050903805 0.18338622
-0.019450294 0.06727758 0.01033945 0.0030256386 0.027566908 -0.013593122 0.13055964 0.040817577
-0.049772833 -0.026195921 0.0727462 0.032531478 0.12163166 -0.13087155 0.10601283 -0.022143707
-0.0058119013 0.09237431 0.009046839 -0.06832489 0.1270865 -0.06613338 -0.036479153 -0.03463161
0.13631245 -0.039993234 -0.15062359 0.061144613 -0.072281435 -0.11588076 -0.032628946 0.09594737
-0.08381694 -0.14070867 -0.06483919 0.07906658 0.16103086 0.063062355 -0.12140018 0.030111138
-0.12814055 -0.10391961 -0.01690095 -0.1119637 -0.061811514 0.054741655 0.12643297 -0.0567347
0.037256036 -0.08515775 0.1517378 0.053930897 0.040113855 -0.10905829 -0.10331323 0.043738727
0.1679553 0.014630782 0.00685393 0.26825154 0.17550734 -0.2558314 0.056758467 0.031311426
-0.039731234 -0.22623453 0.05991482 0.09054003 0.14683339 0.03711714 0.2105022 -0.38799626
0.07551162 -0.036954366 -0.13195962 0.16260533 -0.037078995 -0.24773663 -0.08853063 -0.13863888
0.16285762 -0.10098248 0.09655015 0.028468205 -0.12875731 -0.1213983 0.03207216 0.10550261
0.21633548 0.26848316 0.00683604 -0.013898087 -0.053799156 0.0043058223 -0.09165996 0.044074513
0.006699242 -0.055644497 0.0112735145 -0.04979766 0.021438459 -0.017526334 0.054849662 -0.13799368
-0.2134106 -0.02829897 0.02484867 0.007913335 0.08303668 0.17620988 0.004489734 -0.1598846
-0.076915435 -0.08493256 -0.31801516 -0.14489755 0.04152046 0.1380813 0.0747093 -0.16209303
-0.02631502 0.049567264 -0.07013905 -0.10041437 0.022242945 0.08690663 -0.063136846 -0.030164193
0.14181614 0.025828678 0.08460338 -0.11796644 0.012256962 0.02820012 0.07865739 0.07126416
-0.1436265 0.16712059 -0.02651577 0.0014656448 -0.07216997 -0.08432582 0.044163145 -0.052330527
0.15196927 -0.12106962 -0.087291375 -0.002640412 -0.11662821 0.02460934 0.09879348 -0.022433033
0.120986514 -0.090110175 -0.031634055 0.0076646665 0.08125606 0.101871386 -0.13893478 -0.012040618
0.038285647 -0.026385881 0.054668654 0.040466182 -0.11741776 -0.024934348 3.9600738e-05 0.059413243
0.1929657 0.22336759 -0.0709192 -0.0053666714 0.03863385 -0.013372619 -0.033754114 0.10258134
-0.006198736 -0.083898194 -0.038121875 0.05201988 -0.12758383 -0.05431935 -0.01590309 0.00083642156
0.026383538 0.08444541 -0.112514906 -0.04690599 0.088550925 0.29673254 0.05264434 0.055041973
0.027521987 -0.10594818 -0.044127118 -0.10791311 -0.009764555 0.093758166 0.06308141 -0.01609774
-0.036420234 0.15928437 0.013066083 -0.09766935 0.076310076 0.055000808 -0.0541077 -0.00072064216
-0.08631878 -0.23156369 -0.022661095 -0.013053358 -0.05426639 0.0020489986 0.12600431 -0.27395797
0.06195615 -0.09535755 -0.030860087 0.014434547 0.036267463 -0.012955016 -0.057643022 0.05796083
0.012522998 0.010652816 -0.08373596 0.004299825 0.05497664 -0.10659001 0.19030349 -0.023743099
0.15871096 0.16944264 0.071169384 -0.23502548 -0.17480293 -0.03155861 -0.07140023 -0.096680835
-0.097570315 -0.12274361 -0.06426394 0.010050802 0.1501587 0.026921634 -0.013864777 0.20826538

layer_2.bias f4 [32]
00000000: 0f1c d1bd e030 38be bfb9 7fbd 75ba 293e
00000010: afa7 3b3e d43f 413c 3e13 69bd cf67 5e3d
00000020: 1856 5fbd c47a c3bd 7973 cdbe 1d74 cdbd
00000030: 1420 6d3c ed7e 0f3e 4d36 e23d 43ec 8e3e
00000040: a210 e2bd 7b12 a2bd 1771 5b3e 3049 60bd
00000050: b157 c43c 2d1e f3bd 50fa f6bd c4d9 d13a
00000060: d5f1 da3d d324 dcbd b003 163e 98e0 093e
00000070: f34f 6d3d c65d abbc 19d4 213e 6de9 ef3c
-0.1021043 -0.17987394 -0.062433 0.16575034 0.18325685 0.011795003 -0.056903116 0.05429822
-0.054525465 -0.095449 -0.4012716 -0.100319125 0.01447298 0.14013262 0.11045513 0.27914628
-0.11038329 -0.07913681 0.21429859 -0.054757297 0.023967596 -0.1187099 -0.12059462 0.0016010334
0.10690657 -0.10749211 0.14649844 0.13464582 0.057937574 -0.020918738 0.15803565 0.02928611

layer_3.weight f4 [1, 32]
00000000: de33 a9be 750b 523f 96ff bb3e 8727 01bf
00000010: ef55 c1be 682b fa3e 1862 213f 30cc e8be
00000020: fb78 f73f 0ddb 9bbe 4748 ac3f ed72 b53e
00000030: 2864 6abe 3625 223f f57d 14bf d737 06bf
00000040: 424c f93e d1f2 ad3e f7bf e8be 1fe6 0540
00000050: e434 3ebe 759d 873c 45e0 d03f 96ad a63e
00000060: 1b41 e53f 3ce0 afbe 9f23 593f c973 7c3f
00000070: c98c 03bf 2abe 00bf 86f6 83be 1f3e acbe
-0.33047384 0.8204873 0.36718434 -0.5045094 -0.37760875 0.4886124 0.63040304 -0.45468283
1.9333795 -0.3044056 1.3459557 0.35439244 -0.22889769 0.6333803 -0.58004695 -0.52428955
0.48690993 0.33974317 -0.45458958 2.0921705 -0.18574864 0.016554574 1.6318442 0.3255431
1.7910494 -0.34350765 0.8481998 0.98614174 -0.51386696 -0.5029017 -0.2577402 -0.33641145
