checkpt/isolated/batch64_client_2_0.pth (torch, 61487 bytes, 5 tensors)

layer_1.weight f4 [64, 197]
0	0xbcb91f58	-0.022597954
1	0x3dc6b55c	0.0970256
2	0xbd26bc10	-0.040706694
3	0xbde1e426	-0.11029844
4	0xbda0203e	-0.0781865
5	0x3b0ca820	0.0021462515
6	0xbdb3f256	-0.08786456
7	0xbca2ea29	-0.019887047
8	0xbd134bf5	-0.03596111
9	0xbc942975	-0.018086175
10	0xbd37715b	-0.04478584
11	0x3e00604e	0.12536737
12	0xbd5a8664	-0.05335082
13	0x3d23ec36	0.04002019
14	0x3d0dabe6	0.034587763
15	0x3d3c89a6	0.04602971
16	0x3e02078d	0.12698193
17	0xbc0d4735	-0.008622934
18	0xbd9ce69b	-0.07661172
19	0xbcb3b164	-0.021935172
20	0xbd5339fb	-0.051568966
21	0x3d18c76d	0.037299562
22	0x3ddfda3a	0.10930295
23	0xbd868e64	-0.065701276
24	0xbcbc4715	-0.022983113
25	0x3d82c8ae	0.06385933
26	0x3ca98c3e	0.020696755
27	0x3d8c2ea7	0.06844836
28	0xbcafcbb8	-0.021459445
29	0x3c7d2f1f	0.015453129
30	0x3c80cad3	0.015721714
31	0xbdc6d7d6	-0.09709136
32	0x3dbcd7e7	0.092208676
33	0x3e52cacb	0.20585172
34	0x3da3398b	0.0796996
35	0x3d7e6297	0.06210574
36	0xbdf5edf5	-0.12008277
37	0xbd3401dc	-0.043947086
38	0x3c3a79d0	0.011381581
39	0xbd84948a	-0.06473644
40	0x3d5474e3	0.051869284
41	0xbd2a09c6	-0.041513227
42	0xbd3b6e5e	-0.04575955
43	0x3d8e553a	0.069498494
44	0xbdbc57f2	-0.09196462
45	0xbd752dda	-0.05985818
46	0xbca14b59	-0.019689249
47	0xbdcf9447	-0.101357035
48	0xbd196e0d	-0.03745847
49	0xbd98e43e	-0.07465409
50	0x3dba2ea4	0.09090927
51	0x3d6292ce	0.055315785
52	0xb95c25ec	-0.00020994962
53	0xbc4a645e	-0.012353031
54	0x3c706d47	0.014674491
55	0xbe40590d	-0.1878397
56	0xbd80be58	-0.06286305
57	0xbd2730b3	-0.040817928
58	0xbd814eef	-0.063138835
59	0x3cc1147a	0.023569334
60	0x3dee74a0	0.11643338
61	0xbd0780c3	-0.03308178
62	0xbdcc0220	-0.09961343
63	0xbb137279	-0.002249865
64	0xbd91396e	-0.07091032
65	0xbd69b4e5	-0.05705728
66	0x3d3e902a	0.046524204
67	0xbd556784	-0.052100673
68	0x3d85a83f	0.06526231
69	0x3cdc0e98	0.026862428
70	0xbd256308	-0.040377647
71	0xbd34399f	-0.044000264
72	0xbdc5b860	-0.09654307
73	0x3d33cd58	0.043897003
74	0x3cb21b11	0.021741422
75	0xbcccc3dc	-0.024995737
76	0x3dcf54b9	0.101235814
77	0xbd764a6c	-0.060129568
78	0x3e040458	0.12892282
79	0x3ab05880	0.001345411
80	0xbc090776	-0.008363595
81	0x3dc15d92	0.09441675
82	0x3d0b276c	0.033973143
83	0x3cc82b90	0.024434835
84	0x3caa3fac	0.020782314
85	0x3c198a9e	0.009371428
86	0x3d286382	0.041110523
87	0xbbd21f31	-0.0064124097
88	0x3c6f1098	0.014591359
89	0xbcc3ac53	-0.023885882
90	0x3d8860a9	0.066590615
91	0xbcf32a58	-0.029683277
92	0xbc259343	-0.010105911
93	0xbc780695	-0.015138288
94	0x3cb8c749	0.022555964
95	0xbd813776	-0.063094065
96	0x3c9ab640	0.018885732
97	0xbbca6f82	-0.0061778435
98	0xbcddefe3	-0.027091926
99	0x3dd6e4c0	0.10492849
100	0xbc304130	-0.010757729
101	0x3dc4634c	0.09589252
102	0xbcbec9fa	-0.02328967
103	0x3d5fd902	0.054650314
104	0x3d35b986	0.044366382
105	0x3d3a6bc9	0.04551295
106	0x3c8542d4	0.016267218
107	0xbcccb936	-0.02499066
108	0x3b0da5af	0.0021613648
109	0xbd8ac09f	-0.06775021
110	0xbd84c9b0	-0.06483781
111	0x3d87213b	0.06598135
112	0x3cf56e84	0.029959925
113	0x3cf7fc4e	0.030271675
114	0xbb01e088	-0.001981767
115	0x3dc99144	0.0984216
116	0xbe26fe3a	-0.16307917
117	0xbc4efb36	-0.012633136
118	0x3d5cb96f	0.05388778
119	0x3def3d38	0.116815984
120	0xbd5d6cbc	-0.054058775
121	0x3cf1dab3	0.02952323
122	0xbba52a51	-0.005040445
123	0x3d554612	0.052068777
124	0x3d2a7f6c	0.041625425
125	0x3d70e76e	0.05881446
126	0xbdc74421	-0.097297914
127	0xbd84b5b4	-0.064799696
128	0x3d98e74d	0.07465992
129	0xbc6fb00e	-0.014629377
130	0x3dece9c6	0.11568026
131	0x3b11cbbb	0.0022246677
132	0x3c219a72	0.009863483
133	0xbb870b2e	-0.004121206
134	0xbd3cd80a	-0.04610447
135	0x3d61ca58	0.05512461
136	0xbd28aa29	-0.041177902
137	0x3d64ac11	0.055828158
138	0x3da4e7d9	0.08052034
139	0x3c9ce45b	0.019151857
140	0x3d2fc4ab	0.042912167
141	0xbba63fc0	-0.0050735176
142	0xbc664162	-0.014053674
143	0xbce4c513	-0.027926004
144	0x3d260a76	0.04053732
145	0xbd3d1163	-0.04615916
146	0xbd8b8270	-0.06811988
147	0x3d62b74a	0.05535058
148	0xbd1d96ce	-0.038473897
149	0x3cf04739	0.029330837
150	0x3b15e5c5	0.002287255
151	0xbd0f04ee	-0.03491681
152	0xbd14ca3b	-0.036325675
153	0x3c68153f	0.014165222
154	0xbd014cc1	-0.03156734
155	0x3d866687	0.06562524
156	0xbcec2e61	-0.028830709
157	0x3bedc3a6	0.007255989
158	0x3d458bfe	0.04822921
159	0x3d90a857	0.07063358
160	0xbcb553f8	-0.022134766
161	0xbd741ffe	-0.059600823
162	0x3df40898	0.11915702
163	0x3d46bc68	0.048519522
164	0x3c842b9a	0.016134072
165	0xbd0396cc	-0.032126233
166	0xbe0b698a	-0.13614479
167	0x3ce10ae4	0.027471013
168	0xbb0434f8	-0.0020173173
169	0xbd51beda	-0.0512074
170	0x3d910fa7	0.070830636
171	0x3d4a50f1	0.049393598
172	0xbd343ebe	-0.044005148
173	0x3c91ff32	0.017821882
174	0xbcfb9bf3	-0.03071401
175	0xbce273ac	-0.027643047
176	0x3db52425	0.08844785
177	0xbc2c2c1a	-0.0105085615
178	0xbc27173c	-0.010198411
179	0xbc4ec524	-0.012620244
180	0xbd975307	-0.07388883
181	0xbd989825	-0.07450894
182	0xbce9505d	-0.028480703
183	0xbd8e4585	-0.069468535
184	0x3c018463	0.007905099
185	0x3d862b88	0.06551272
186	0x3d822ed5	0.06356589
187	0x3c4f3188	0.0126460865
188	0xbc9c82ba	-0.019105304
189	0xbbcd3700	-0.00626266
190	0x3d51ee5f	0.05125272
191	0xbd90042c	-0.07032046
192	0xbd552ce1	-0.052044753
193	0xbd2db530	-0.042409122
194	0xbbd312d0	-0.0064414516
195	0xbd9a13b6	-0.07523291
196	0xbc05c1f7	-0.008163921
197	0xbd6f3f19	-0.058409784
198	0x3b35f6b2	0.002776545
199	0x3d41e979	0.047341798
200	0x3a972bf6	0.0011533487
201	0xbce92744	-0.028461106
202	0x3d208cf4	0.039196923
203	0x3bf4e34f	0.0074733864
204	0x3dba4183	0.090945266
205	0xbdaaa289	-0.08331782
206	0x3d074660	0.0330261
207	0xbc6ecef6	-0.0145757105
208	0x3d443cc8	0.047909528
209	0xbdad3bb7	-0.08458655
210	0x3dfbc51d	0.12293456
211	0xbda2419c	-0.0792267
212	0xbd7603e6	-0.06006231
213	0x3de7529a	0.11295052
214	0x3dd3814f	0.10327398
215	0x3de55d84	0.11199477
216	0xbd4fbb18	-0.050715536
217	0xbd3c0cff	-0.04591083
218	0xbdcdccd4	-0.100488335
219	0x3b103231	0.0022002573
220	0x3ca4dc90	0.020124704
221	0x3d7dc698	0.061956972
222	0x3d221081	0.03956652
223	0xbd59c38c	-0.053165004
224	0xbd5988c4	-0.053108945
225	0xbc0756a6	-0.008260405
226	0xbd31e4e5	-0.04343118
227	0xbcd8645c	-0.026415043
228	0xbda9b1cd	-0.08285866
229	0xbd5b7338	-0.053576678
230	0x3e19148b	0.14949243
231	0x3c63d74e	0.013906313
232	0x3de97d78	0.114008844
233	0x3caaeebd	0.020865792
234	0xbd5168ba	-0.051125266
235	0xbd6d5614	-0.05794342
236	0xbc44b7d8	-0.012006722
237	0x3db26807	0.08711248
238	0xbd5f47a0	-0.054511666
239	0x3d671bbb	0.05642293
240	0x3d09152c	0.033467457
241	0xbd4039a2	-0.046929963
242	0xbd77affa	-0.06047056
243	0x3d926fc7	0.07150226
244	0x3c8be294	0.017075814
245	0xbcbcbe0b	-0.023039838
246	0x3c86ea9c	0.016469292
247	0xbdc75daf	-0.097346656
248	0xbd2df795	-0.04247244
249	0xbcbf3449	-0.023340361
250	0xbc61c674	-0.013780225
251	0x3ce889fd	0.02838611
252	0xbd890875	-0.06691066
253	0xbadb9053	-0.0016751386
254	0xbce26737	-0.027637107
255	0x3c26f3e5	0.010189985

layer_1.bias f4 [64]
0	0xbdec9e42	-0.11553623
1	0xbd7e91ee	-0.06215089
2	0xbe34cb56	-0.17655692
3	0xbce029b6	-0.02736364
4	0xbd0e6c49	-0.034771238
5	0xbdc0c24b	-0.094120584
6	0xbc56706f	-0.01308833
7	0xbcde0b05	-0.027104864
8	0xbdbafc7f	-0.09130191
9	0x3e0bd6ad	0.13656111
10	0x3aff29c8	0.0019467408
11	0x3d6f045b	0.058353763
12	0xbd64331b	-0.0557128
13	0xbd1f5285	-0.038897056
14	0x3c8d3b59	0.017240213
15	0xbe1e1940	-0.1543932
16	0x3c814e18	0.015784308
17	0xbdf445df	-0.11927389
18	0xbdf73c47	-0.12072044
19	0x3dbdde9b	0.09270974
20	0xbca99732	-0.020701978
21	0xbb9dfa6a	-0.0048211114
22	0x3e42eea1	0.19036342
23	0x3dfdc0a6	0.123902604
24	0xbd75a02e	-0.059967212
25	0x3c658d34	0.014010716
26	0xbbaa0246	-0.0051882593
27	0xbe41ff74	-0.18945104
28	0xbd35df7a	-0.044402577
29	0xbe8fac11	-0.28060964
30	0xbce30467	-0.02771206
31	0xbe00a877	-0.12564264
32	0xbd8efb7c	-0.069815606
33	0x3d4e5886	0.05037739
34	0xbd0ea539	-0.034825537
35	0x3d83e4eb	0.06440147
36	0x3d989e54	0.07452074
37	0x3c313118	0.0108149275
38	0xbd63c7ef	-0.055610593
39	0xbce1c0cf	-0.027557759
40	0xbe5a3295	-0.21308358
41	0xbda0214b	-0.0781885
42	0x3cb757b2	0.022380684
43	0x3d6e4bbd	0.0581777
44	0xbe392d54	-0.18083698
45	0xbe5aa279	-0.21351041
46	0xbd9b214f	-0.075747125
47	0xbe41a036	-0.18908772
48	0xbca3a9fb	-0.019978514
49	0x3cbff539	0.023432361
50	0xbe046d20	-0.12932253
51	0x3c1af029	0.009456673
52	0x3da2d1dd	0.079501845
53	0xbcbf5774	-0.02335713
54	0xbdd765e1	-0.10517479
55	0xbd90ae17	-0.07064455
56	0xbd9277b3	-0.07151737
57	0x3cd1f1f5	0.02562807
58	0x3d04f069	0.032455835
59	0xbdd49539	-0.103800245
60	0xbdf5856f	-0.11988341
61	0xbd8ca5a8	-0.06867534
62	0xbde50b66	-0.11183815
63	0xbd83586b	-0.06413349

layer_2.weight f4 [32, 64]
0	0x3e07a8d5	0.13247998
1	0x3e0f97a4	0.1402269
2	0xbc70f993	-0.014707941
3	0x3c9eb0c6	0.019371402
4	0x3dc6bb62	0.09703709
5	0x3e135bc6	0.14390478
6	0x3d105f73	0.035247277
7	0xbdd6272b	-0.104566894
8	0x3dc98d0b	0.09841355
9	0xbc9651e2	-0.018349592
10	0x3de1d6a7	0.1102727
11	0x3e580c4e	0.21098444
12	0x3e0aade1	0.13542892
13	0xbdcefefb	-0.101072274
14	0x3ddf547d	0.10904787
15	0x3da80778	0.082045496
16	0xbdaf93fc	-0.08573148
17	0x3d937579	0.072001405
18	0xbe07ab18	-0.13248861
19	0xbd792086	-0.060822032
20	0x3c62d8fa	0.013845677
21	0xbe190fe7	-0.14947473
22	0xbc84d8b7	-0.016216619
23	0x3cc7f895	0.024410525
24	0xbe0567e3	-0.13027911
25	0xbd108ba3	-0.035289418
26	0x3d7905dd	0.060796607
27	0x3d8f240e	0.06989299
28	0xbdc799fa	-0.097461656
29	0xbd636612	-0.055517264
30	0xbe045f79	-0.12927045
31	0xbdbb2aaf	-0.091390006
32	0xbd838069	-0.06420977
33	0x3e29e799	0.16592254
34	0xbcd73f99	-0.026275443
35	0x3e11fb38	0.14255989
36	0xbdb1f27d	-0.08688829
37	0xbced3db2	-0.028960083
38	0xbd548e0d	-0.051893283
39	0xbdcf51e4	-0.10123041
40	0xbc888092	-0.01666287
41	0xbcd87173	-0.026421284
42	0xbd780fb7	-0.06056186
43	0xbe4ad583	-0.19808011
44	0xbe3e31ff	-0.1857376
45	0xbe16db29	-0.1473204
46	0xbe1099ef	-0.14121221
47	0xbe067899	-0.13131942
48	0x3c783027	0.015148199
49	0x3d42c48e	0.04755073
50	0x3dceed5b	0.10103866
51	0xbd5ce0fe	-0.053925507
52	0x3da6c29c	0.081425875
53	0xbd60a9b9	-0.05484936
54	0xbdba484c	-0.09095821
55	0xbd0b0091	-0.033936087
56	0xbd1e9dd5	-0.03872474
57	0x3d83486e	0.06410299
58	0xbe1703d8	-0.1474756
59	0xbda11477	-0.078652315
60	0x3d94ef68	0.072722256
61	0x3ba1ec61	0.0049415086
62	0xbd6177d5	-0.05504592
63	0xbcd0f696	-0.025508206
64	0xbd9697c3	-0.07353165
65	0xbd1c7cd2	-0.038204975
66	0xbe987e60	-0.29783916
67	0x3c7c8f61	0.015415044
68	0x3ddc7ee3	0.10766389
69	0x3cd97738	0.026546106
70	0x3e2a7f98	0.16650236
71	0x3e6d8d4e	0.23198435
72	0xbdc219c3	-0.0947757
73	0x3d24a06a	0.040192045
74	0x3dcbbbfd	0.09947965
75	0xbd062464	-0.03274955
76	0xbe5298e7	-0.2056614
77	0xbe030c6e	-0.1279771
78	0xbdfeb6bf	-0.124372
79	0x3c5d7940	0.013517678
80	0xba8bcd70	-0.0010666084
81	0xbc76c18d	-0.015060795
82	0xbdf73dd8	-0.12072343
83	0x3d6c251e	0.057652585
84	0x3c502c86	0.012705928
85	0x3c866cdc	0.01640933
86	0x3d6ab365	0.05729999
87	0x3e62e634	0.22158128
88	0xbccc595a	-0.02494495
89	0xbdb9c79a	-0.09071274
90	0xbd17a57c	-0.037023053
91	0xbe8eafe0	-0.27868557
92	0x3d77016b	0.060304087
93	0x3e34141d	0.17585798
94	0x3e4361ad	0.19080229
95	0x3e337367	0.17524491
96	0xbe130fb8	-0.14361465
97	0x3dce116d	0.100619175
98	0x3d8fa3df	0.07013678
99	0x3c99812f	0.018738357
100	0x3e8f052e	0.2793364
101	0x3c89ffad	0.016845549
102	0xbb8e1ac2	-0.004336686
103	0x3d864e0e	0.065578565
104	0xbc856724	-0.016284533
105	0xbdb6a5f8	-0.08918375
106	0xbdbb3f3f	-0.091429226
107	0xbd00ad0e	-0.031415038
108	0x3e06003e	0.1308603
109	0xbe98c15b	-0.2983502
110	0x3e81035f	0.25197884
111	0xbe42d054	-0.19024783
112	0x3e67474d	0.22585793
113	0x3d319687	0.043356445
114	0xbcfb4305	-0.030671606
115	0xbdfc0805	-0.12306217
116	0x3e88d56b	0.26725325
117	0xbaf995b2	-0.0019041805
118	0xbe62224b	-0.22083394
119	0xbd8644e9	-0.06556112
120	0xbb992163	-0.0046731695
121	0x3e4a4a44	0.19754893
122	0x3e433a33	0.1906517
123	0xbbea7794	-0.007155368
124	0xbddb0447	-0.10694175
125	0xbde83781	-0.113387115
126	0x3e07e950	0.13272595
127	0x3c2fd041	0.010730804
128	0x3d296139	0.041352484
129	0x3a39629a	0.0007071883
130	0xbc697da8	-0.01425115
131	0xbd63e4ee	-0.055638246
132	0x3c94dece	0.018172648
133	0xbdbcb18f	-0.09213554
134	0xbdb2c9de	-0.08729909
135	0x3d315d7a	0.043302037
136	0xbd846633	-0.064648055
137	0xbcc31aec	-0.023816548
138	0x3c61903a	0.013767296
139	0xbdabfc85	-0.08397774
140	0xbdb5965c	-0.088665694
141	0x3e1a2a9b	0.15055315
142	0x3a1427fd	0.00056517107
143	0xbcdcfa47	-0.02697481
144	0xbdc26221	-0.09491373
145	0x3d46a840	0.0485003
146	0x3d6360e9	0.055512343
147	0xbdb81abf	-0.089894764
148	0xbd51c4b4	-0.05121298
149	0x3d80bb84	0.06285766
150	0xbba685b6	-0.0050818576
151	0x3dc0e49e	0.09418605
152	0xbd28a52a	-0.041173138
153	0x3d092e4a	0.03349141
154	0x3c1de230	0.009636447
155	0xbe071287	-0.13190661
156	0x3df73474	0.120705515
157	0xbd979816	-0.07402055
158	0xbceb0dd8	-0.028693125
159	0xbd5563ed	-0.05209725
160	0xbda50a78	-0.080586374
161	0x3dea70a6	0.11447267
162	0x3d1e6a9b	0.038675886
163	0x3dd59d96	0.10430448
164	0xbd559543	-0.0521443
165	0xbc8969bf	-0.016774056
166	0xbdb85d13	-0.090021275
167	0x3d4365cf	0.047704514
168	0xbb8349a5	-0.004006582
169	0xbc293a2e	-0.0103288125
170	0x3dc50ad8	0.09621209
171	0xbd04f816	-0.032463156
172	0xbdfd20cf	-0.12359773
173	0x3dd947cb	0.106093965
174	0xbcc2f288	-0.023797289
175	0xbd08694b	-0.03330354
176	0x3b96fe0d	0.004607922
177	0xbc9004f8	-0.017580494
178	0xbdce75f7	-0.10081094
179	0xbddd1c0e	-0.10796367
180	0x3b7e88c8	0.0038838852
181	0x3ddfe847	0.10932975
182	0x3dae8d48	0.08523041
183	0x3d94e691	0.072705396
184	0xbbab15ce	-0.005221105
185	0x3d4c6f6e	0.049910955
186	0x3e04c75c	0.12966675
187	0xbda8da27	-0.08244734
188	0x3dbd22db	0.09235164
189	0xbd373676	-0.044729672
190	0x3a019207	0.0004942719
191	0x3b4ad0a0	0.0030947104
192	0x3de449ed	0.11146913
193	0xbdf78422	-0.12085749
194	0xbdacf990	-0.08446038
195	0xbe229ef7	-0.15880953
196	0xbd99ea27	-0.07515364
197	0x3dff4c5c	0.12465736
198	0x3d5e6c65	0.05430259
199	0x3c99ec83	0.018789535
200	0x3d00cf68	0.031447798
201	0x3d573863	0.05254401
202	0xbda17f7c	-0.07885644
203	0xbdcfe965	-0.10151938
204	0xbd313c0e	-0.043270163
205	0x3de1a91e	0.11018585
206	0xbc92e873	-0.017933106
207	0x3e004052	0.12524536
208	0xbe110024	-0.1416021
209	0xbc51968a	-0.012792239
210	0x3d26ebef	0.040752348
211	0xbc4eb943	-0.012617412
212	0x3d443083	0.047897827
213	0x3c90edc2	0.017691497
214	0x3e1bffe7	0.15234338
215	0xbd6ff83d	-0.058586348
216	0x3d91f18b	0.07126149
217	0xbdf04f97	-0.117339306
218	0xbd906bc4	-0.07051805
219	0xbdfc2070	-0.123108745
220	0xbd832bf1	-0.064048655
221	0xbdc2a81b	-0.0950472
222	0xbd20f781	-0.039298538
223	0xbd186499	-0.037205312
224	0xbd890a53	-0.06691422
225	0xbda49abb	-0.08037325
226	0xbc83f8ef	-0.016109912
227	0xbb33e5b8	-0.0027450155
228	0xbdfdff71	-0.12402237
229	0xbd30f8df	-0.043206092
230	0x3b69bca3	0.0035665415
231	0xbc784da7	-0.0151552325
232	0x3d040a0d	0.032236148
233	0xbd6b9327	-0.057513382
234	0xbcc87dfd	-0.024474138
235	0xbd87212a	-0.065981224
236	0xbdba0035	-0.09082071
237	0x3db97b6a	0.090567425
238	0x3e002a0e	0.12516043
239	0xbd9b14ea	-0.075723484
240	0x3d5a29d8	0.05326256
241	0xbdf61dca	-0.120174006
242	0x3dc0d69f	0.09415936
243	0xbbb67d57	-0.005569141
244	0xbd73e5d5	-0.059545357
245	0x3d852076	0.06500332
246	0xbdaa83f0	-0.08325946
247	0x3df665ab	0.120311104
248	0xbcb966af	-0.022631971
249	0xbde7be72	-0.113156214
250	0x3da63158	0.0811488
251	0x3da617b3	0.08109989
252	0x3de037cf	0.10948145
253	0xbd56a5d4	-0.05240424
254	0x3d78b041	0.060714964
255	0xbda46246	-0.08026557

layer_2.bias f4 [32]
0	0x3db10bd4	0.08644834
1	0x3de14a78	0.11000532
2	0xbd05bc91	-0.032650534
3	0xbd9ebd75	-0.0775098
4	0x3d87a3f9	0.06623072
5	0xbb49b9ac	-0.0030780835
6	0xbd233afd	-0.039851177
7	0xbd29f8bf	-0.04149699
8	0x3d4cf31a	0.050036527
9	0x3dbc3464	0.0918968
10	0x3c98e2de	0.018662866
11	0x3d376935	0.044778068
12	0x3db5d3e9	0.08878309
13	0xbdeead1e	-0.11654113
14	0x3c93b08e	0.018028524
15	0x3d9eda7a	0.07756515
16	0x3df197c0	0.11796522
17	0x3d6c33d2	0.057666607
18	0x3d8715e2	0.06595971
19	0xbe498f47	-0.19683562
20	0x3c8fd9ea	0.017559964
21	0xbbb44cba	-0.0055023106
22	0x3c0b31fc	0.008495804
23	0xbdbdac90	-0.09261429
24	0x3d152a36	0.03641721
25	0x3db7f69b	0.08982583
26	0x3d0bcb5a	0.034129478
27	0x3d95af43	0.07308819
28	0x3d1c24b8	0.038120955
29	0x3d16dd40	0.036832094
30	0xbda39aef	-0.079885356
31	0x3d5d3d71	0.054013673

layer_3.weight f4 [1, 32]
0	0x3ee50980	0.4473381
1	0xbf5e3860	-0.8680477
2	0xbe657cf7	-0.22410952
3	0xbe9bcfd8	-0.3043201
4	0x3f7eb242	0.9949075
5	0xbe92e5d8	-0.28690982
6	0x3f768734	0.96300054
7	0x3c19437e	0.00935447
8	0xbf44934e	-0.7678727
9	0xbcda6915	-0.026661435
10	0xbf08a6d2	-0.5337955
11	0x3e85a418	0.26101756
12	0xbeaab5b3	-0.3334175
13	0x3f8e690e	1.112581
14	0xbea4e7e9	-0.32208183
15	0xbead9d5d	-0.3390912
16	0xbf041644	-0.51596475
17	0x3f5aa440	0.85406876
18	0x3e684bb1	0.22685124
19	0x3f2ec146	0.6826366
20	0xbf198e61	-0.5998288
21	0x3ee8b35f	0.4544935
22	0xbe7ce7e3	-0.24697833
23	0x3d21d63d	0.039510954
24	0xbed5bfa3	-0.4174777
25	0x3f096c3d	0.53680784
26	0xbf3499fb	-0.70547456
27	0xbecdc039	-0.40185717
28	0xbee17702	-0.44036108
29	0x3ea6b318	0.32558513
30	0xbed53561	-0.41642287
31	0xbeda4d8b	-0.42637286
