checkpt/isolated/batch64_client_2_1.pth (torch, 61487 bytes, 5 tensors)

layer_1.weight f4 [64, 197]
0.0518137 -0.017668024 -0.007311666 -0.055168644 0.0007585372 -0.06338971 -0.0013675553 0.011519826
-0.0064008837 -0.060841527 -0.0856897 0.072829485 -0.030761316 0.060267095 0.06027236 0.053024374
0.034005295 0.07314686 0.06738849 0.004023142 -0.024801256 -0.00084761006 0.14447005 0.029026026
-0.0030422516 -0.054547906 0.07988567 0.06366394 0.004298892 -0.063596375 0.06819404 0.04564664
0.03319714 -0.05905939 0.12109874 -0.08499587 0.04153539 0.09636922 0.047486234 -0.051755592
0.026933758 -0.046259336 -0.03497932 0.029635316 0.122009374 0.064229116 -0.03566287 0.071289785
0.0041527525 0.05843464 -0.037178192 -0.019433102 -0.05712333 -0.08737359 0.12884957 0.053294223
0.017685786 -0.052621763 -0.030297937 0.004949496 0.0083211195 0.10481986 0.05566062 0.033609875
-0.026276976 -0.09740802 0.058067303 -0.025648836 -0.08775679 -0.054757472 0.10558071 -0.0037098005
0.055757415 0.013014667 0.027946083 0.021345705 -0.07343637 0.05031892 -0.026794048 -0.04913473
0.11667935 0.062095158 0.12208612 0.06860397 -0.013104692 -0.035035163 -0.022686802 -0.029515134
-0.051715806 -0.09573166 0.059036657 -0.06480071 -0.029400518 0.01197748 -0.017109532 -0.040480282
0.047043025 0.037378773 0.05078599 0.013170661 -0.024752375 -0.053460233 0.0226203 0.12450119
-0.042497322 -0.029106203 0.012131401 0.00052940263 -0.05796979 0.04392675 0.07042641 -0.06912019
0.016992498 -0.058786523 0.06594109 -0.099478565 0.063958205 -0.025877213 -0.0040267557 -0.053535175
0.09643078 0.04558875 -0.01572184 0.016291127 0.038818717 0.08001724 -0.02361837 -0.022132043
-0.0132099865 0.037677877 0.00948451 0.054527994 -0.00076261477 0.07565411 0.024642842 0.04523864
0.02521075 -0.017267322 0.012653849 0.047920734 -0.025573233 -0.022737544 -0.064788915 0.096111745
-0.023040915 -0.052580904 -0.005411312 -0.043284178 0.085604586 0.0040389257 0.034749493 -0.06706151
-0.016686065 0.061656363 0.012300068 -0.022068238 -0.0003726591 0.08467882 0.041783676 0.17020302
0.004661643 -0.029039985 0.035345085 0.043902054 0.053787377 0.1528811 0.07052737 0.044336624
-0.031136008 0.042314146 0.014532071 -0.016344883 -0.05914346 -0.013391748 -0.026773335 0.03514807
-0.005931014 -0.09326945 0.008047476 0.011947137 0.06932194 -0.022834416 0.0029568942 0.036408313
0.071666606 0.08013804 0.1293967 -0.034532294 -0.07921772 0.11860276 0.011548879 0.029543439
0.094333164 0.038574427 0.049847808 0.011268454 0.05695003 -0.017524492 0.0030737545 0.02207058
0.0945915 -0.00747591 -0.01970397 -0.03545118 0.054114293 -0.024744365 0.079531506 0.06088919
0.047752086 0.026660515 0.07328058 -0.12546808 0.05088024 0.0670214 0.01840432 0.012564146
-0.054924402 0.03044072 0.013757212 0.044711504 0.0022659793 -0.010456739 0.01780981 -0.04200226
-0.043013655 -0.002240862 0.044725176 0.001843654 0.0623241 0.052052192 -0.14119801 0.061873164
0.020186907 -0.023515083 -0.009031473 -0.00028016785 -0.038997687 0.09556313 -0.03361939 0.0036094035
0.08455086 -0.11475652 -0.03898758 -0.030696418 0.008095814 -0.04824282 0.004501725 -0.0427041
0.07295604 0.12516363 0.018941768 0.06293888 -0.15152198 -0.020301785 0.041099936 -0.034731563
00000000: 9a3a 543d 88bc 90bc b396 efbb 84f8 61bd
00000010: 92d8 463a 77d2 81bd 8b3f b3ba a7bd 3c3c
00000020: 81be d1bb f734 79bd 157e afbd a027 953d
00000030: 28ff fbbc a1da 763d 26e0 763d 1630 593d
00000040: 2349 0b3d 05ce 953d fa02 8a3d 90d4 833b
00000050: 012c cbbc 2632 5eba f5ef 133e fdc7 ed3c
00000060: 8360 47bb a06d 5fbd 199b a33d 3d62 823d
00000070: b8dd 8c3b d13e 82bd 51a9 8b3d f9f7 3a3d
00000080: b9f9 073d 42e8 71bd 9e02 f83d 5112 aebd
00000090: 0321 2a3d 3a5d c53d ed80 423d acfd 53bd
000000a0: 2fa4 dc3c 6e7a 3dbd 7a46 0fbd c3c5 f23c
000000b0: 0de0 f93d 8e8a 833d 3b13 12bd 6100 923d
000000c0: d013 883b 2959 6f3d 2948 18bd 2b32 9fbc
000000d0: 27fa 69bd edf0 b2bd 24f1 033e 0b4b 5a3d
000000e0: c8e1 903c eb89 57bd 6133 f8bc 622f a23b
000000f0: 4e55 083c cbab d63d 64fc 633d 82aa 093d
00000100: d042 d7bc db7d c7bd fbd7 6d3d 821d d2bc
00000110: d5b9 b3bd 5f49 60bd b33a d83d 2020 73bb
00000120: e361 643d 783b 553c 2fef e43c 30dd ae3c
00000130: cf65 96bd 361b 4e3d 317f dbbc 8041 49bd
00000140: 95f5 ee3d 7e57 7e3d 4a08 fa3d 3d80 8c3d
00000150: 10b5 56bc 0881 0fbd acd9 b9bc b9c9 f1bc
00000160: f4d3 53bd f60e c4bd 6cd0 713d 3cb6 84bd
00000170: 5bd9 f0bc 313d 443c 4a29 8cbc a7ce 25bd
00000180: 30b0 403d 7c1a 193d f804 503d c2c9 573c
00000190: 7ec5 cabc 1ef9 5abd 354e b93c 7bfa fe3d
000001a0: ac11 2ebd 2270 eebc c9c2 463c 9cc7 0a3a
000001b0: bb71 6dbd 89ec 333d b93b 903d e38e 8dbd
000001c0: da33 8b3c 23ca 70bd 1f0c 873d 6bbb cbbd
000001d0: 85fc 823d 73fc d3bc e0f2 83bb b347 5bbd
000001e0: 807d c53d 45bb 3a3d 17cb 80bc f874 853c
000001f0: 6000 1f3d 14e0 a33d 507b c1bc 424e b5bc
00000200: b36e 58bc 1e54 1a3d eb64 1b3c bf58 5f3d
00000210: 36ea 47ba 8bf0 9a3d c9df c93c 274c 393d
00000220: c686 ce3c 3374 8dbc 1752 4f3c 8848 443d
00000230: f57e d1bc 1644 babc 0db0 84bd 3cd6 c43d
00000240: 4dc0 bcbc 135f 57bd 6051 b1bb c04a 31bd
00000250: 7551 af3d f758 843b 7c55 0e3d 8c57 89bd
00000260: 37b1 88bc 628b 7c3d 3986 493c 73c8 b4bc
00000270: 7561 c3b9 176c ad3d 5c25 2b3d b349 2e3e
00000280: b2c0 983b 43e5 edbc 02c6 103d a4d2 333d
00000290: 2750 5c3d dd8c 1c3e a770 903d 529a 353d
000002a0: f110 ffbc 9951 2d3d ec17 6e3c b4e5 85bc
000002b0: 6a40 72bd 1069 5bbc c153 dbbc 6cf7 0f3d
000002c0: f458 c2bb 0e04 bfbd 90d9 033c edbd 433c
000002d0: a9f8 8d3d 3e0f bbbc 74c8 413b e220 153d
000002e0: f1c5 923d 6a1f a43d 9280 043e bc71 0dbd
000002f0: e63c a2bd 01e6 f23d 8237 3d3c 1505 f23c
00000300: bf31 c13d 3800 1e3d 372d 4c3d 529f 383c
00000310: 6f44 693d 868f 8fbc 0b71 493b 5ccd b43c
00000320: 30b9 c13d 7af8 f4bb 386a a1bc 4235 11bd
00000330: f3a6 5d3d b2b4 cabc 6ae1 a23d f166 793d
00000340: b197 433d 2767 da3c 2114 963d b47a 00be
00000350: cc67 503d 8442 893d a8c4 963c d9d9 4d3c
00000360: 69f8 60bd d15e f93c ee65 613c 6923 373d
00000370: d380 143b be52 2bbc e1e5 913c 900a 2cbd
00000380: 162f 30bd 6ddb 12bb bf31 373d c3a6 f13a
00000390: 8e47 7f3d ae34 553d 3696 10be b76e 7d3d
000003a0: 035f a53c b4a2 c0bc bef8 13bc 7ee3 92b9
000003b0: 0abc 1fbd 9ab6 c33d 7cb4 09bd be8b 6c3b
000003c0: 0029 ad3d 7705 ebbd 71b1 1fbd 0e77 fbbc
000003d0: 4ea4 043c 439a 45bd 3583 933b 7fea 2ebd
000003e0: fa69 953d e52a 003e c42b 9b3c 19e6 803d
000003f0: 9428 1bbe ee4f a6bc 6858 283d af42 0ebd

layer_1.bias f4 [64]
-0.36336792 0.054725166 0.006006473 0.00963348 0.09381315 -0.07007166 -0.096885055 -0.014528454
-0.025905509 -0.093573354 0.070890486 -0.020388916 0.007275781 -0.2136762 -0.013346263 -0.07105693
0.08693371 -0.0068103597 -0.10847446 -0.022007914 -0.0850299 0.04653383 -0.09344241 0.026290964
0.02667889 0.027011942 0.117938295 -0.054993507 0.012900377 0.14070837 -0.10016945 -0.08212937
-0.08170634 0.03789463 -0.057918064 -0.003562096 0.041026887 -0.1601555 -0.03449167 -0.092924766
0.029216206 -0.030832564 -0.015767982 -0.15385172 -0.016937383 0.03118507 0.0061861984 -0.1850377
-0.1073068 -0.019473813 0.011878077 -0.024845364 0.08797553 -0.046867907 -0.06658634 -0.07989471
-0.05314078 -0.09057803 0.042298287 -0.06612548 -0.024718355 -0.07441798 -0.21334568 -0.08255385
00000000: 5c0b babe 7f27 603d f3d1 c43b bed5 1d3c
00000010: 1c21 c03d bb81 8fbd ac6b c6bd c108 6ebc
00000020: ca37 d4bc 63a3 bfbd 082f 913d a806 a7bc
00000030: ad69 ee3b efcd 5abe 49aa 5abc 4c86 91bd
00000040: 4d0a b23d 7029 dfbb dc27 debd f149 b4bc
00000050: 2824 aebd 429a 3e3d bc5e bfbd 2660 d73c
00000060: b08d da3c 2648 dd3c a289 f13d df40 61bd
00000070: 1a5c 533c db15 103e a425 cdbd 7133 a8bd
00000080: a755 a7bd 6637 1b3d 7e3b 6dbd 0e72 69bb
00000090: cf0b 283d ceff 23be 2347 0dbd 574f bebd
000000a0: d356 ef3c 9394 fcbc db2b 81bc 4e8b 1dbe
000000b0: 44c0 8abc d577 ff3c 98b5 ca3b 867a 3dbe
000000c0: abc3 dbbd 8c87 9fbc 449c 423c 8188 cbbc
000000d0: 842c b43d 90f8 3fbd 6b5e 88bd d69f a3bd
000000e0: 26aa 59bd f980 b9bd f840 2d3d cc6c 87bd
000000f0: 267e cabc 7468 98bd 4a77 5abe fe11 a9bd

layer_2.weight f4 [32, 64]
0.14826037 0.16565467 -0.013898455 0.109275445 -0.057195302 0.16428785 -0.18392442 -0.03744354
-0.008558632 0.007809819 -0.14335027 0.13176216 0.042233184 0.1880384 0.06864148 -0.069716804
0.16836093 0.09830269 -0.21284324 0.078288116 -0.11040986 0.13768655 0.06313934 -0.03640925
-0.1879875 0.16073656 -0.05128163 -0.23488575 -0.12737869 -0.13195254 -6.154027e-06 -0.25506604
-0.1135831 0.004431046 -0.103231385 0.13063599 -0.025651135 0.055862255 -0.09838039 0.199477
0.13145451 0.082582824 -0.13761313 0.06254644 -0.11194692 -0.032861788 -0.03278325 0.014507805
0.04087572 -0.1343864 0.052125666 -0.07941784 0.0069546513 0.07566274 0.04649362 -0.0016909217
0.042886477 0.124428615 0.06999541 -0.08183954 -0.06777372 -0.08242146 0.041736677 0.15896341
-0.0031508307 -0.064774774 0.02382379 -0.069290094 -0.07802495 0.005227367 -0.13473268 -0.02573333
-0.013475392 -0.0029393462 -0.05665067 0.15104356 0.039263375 0.03217143 -0.030885449 -0.05620025
0.055228528 0.0016771776 -0.0005239408 0.1452918 0.10476071 -0.05872965 0.014081143 0.08337325
-0.016710896 0.07506621 0.11388838 0.111135185 -0.06617074 -0.09149024 0.05046784 0.063425645
0.085741416 -0.13155052 -0.11703872 0.06819287 -0.12302777 -0.12722334 -0.033987332 -0.08735355
0.06373705 -0.0966218 -0.07551864 -0.012169973 -0.1363933 0.11418805 -0.01579634 -0.06247738
0.09909884 0.088565774 -0.05753082 0.053386234 0.090850204 0.14936002 -0.07916194 0.036791533
0.06073596 -0.05361401 0.1281774 0.09808916 -0.023728475 -0.1555584 0.044709172 -0.10920206
-0.004616159 -0.06455324 -0.027258284 0.019361278 -0.092958085 0.15978657 0.13138346 -0.04027786
-0.0027382092 -0.043534204 -0.13267994 0.014306207 -0.0999223 0.008169687 -0.018671855 -0.05871494
-0.0666989 -0.08231671 -0.031592485 0.06559845 0.050945215 -0.04122564 0.090593934 0.049265973
-0.10028431 -0.0077534504 0.1580394 -0.030931551 -0.04251933 0.080462284 0.032775152 0.06506233
-0.12467803 -0.026978891 0.112044096 0.05127627 0.05582632 0.008198735 0.06310838 -0.06359306
-0.09841457 -0.041425575 0.052588664 0.0072258315 0.06350391 0.039815526 0.09699271 -0.119226106
0.0881123 0.06651179 0.009495075 -0.0702575 0.061700217 -0.013916787 -0.033841044 0.09983577
-0.08268301 -0.0418606 -0.02314498 0.052063 0.009675914 -0.05462685 0.028676087 0.10712931
-0.00035484126 0.091649376 -0.08007836 0.003841128 -0.007274727 0.07955377 -0.019233359 -0.09190464
0.012151669 -0.11596448 -0.020722188 -0.045455717 0.07858714 0.07537565 0.043466505 0.05227635
-0.0464776 0.032816947 0.067663714 -0.018380364 0.08522505 -0.10302765 -0.014132639 0.02244952
-0.098147094 -0.09597482 -0.11116333 -0.030298004 0.071382776 -0.032817323 0.05841789 0.02426797
0.069457136 0.09619872 0.035840955 -0.107650995 0.058688425 0.007716016 -0.13441166 -0.0016973829
-0.0888606 -0.11474288 -0.048007745 -0.03185585 -0.054592397 -0.06758002 -0.11937144 -0.071168266
-0.033498075 0.088731065 -0.043168414 0.006790724 -0.10341181 0.06278979 0.055826228 -0.066119775
0.11981795 0.013776298 0.024772562 -0.0018900112 0.051922765 -0.13902493 0.09747622 -0.08944724
00000000: 91d1 173e 61a1 293e 58b6 63bc cecb df3d
00000010: 9f45 6abd 133b 283e af56 3cbe 665e 19bd
00000020: 8139 0cbc 83e9 ff3b 6aca 12be a9ec 063e
00000030: b4fc 2c3d 238d 403e e793 8c3d afc7 8ebd
00000040: cf66 2c3e ec52 c93d 94f3 59be 8555 a03d
00000050: 911e e2bd b4fd 0c3e 334f 813d de21 15bd
00000060: cc7f 40be 2098 243e b00c 52bd e485 70be
00000070: 8f6f 02be 911e 07be b07e ceb6 0498 82be
00000080: 429e e8bd 4f32 913b fa6a d3bd 71c5 053e
00000090: 5422 d2bc d2cf 643d a87b c9bd b343 4c3e
000000a0: 039c 063e 2f21 a93d 75ea 0cbe 5918 803d
000000b0: 6d44 e5bd 159a 06bd bb47 06bd 25b2 6d3c
000000c0: 4d6d 273d 979c 09be b981 553d d2a5 a2bd
000000d0: d8e3 e33b 11f5 9a3d 1870 3e3d eba1 ddba
000000e0: bba9 2f3d 6ed4 fe3d c159 8f3d 7d9b a7bd
000000f0: f3cc 8abd 95cc a8bd 14f4 2a3d 4ec7 223e
00000100: 2b7e 4ebb a3a8 84bd 1c2a c33c f7e7 8dbd
00000110: 8ccb 9fbd 554a ab3b 5df7 09be b4ce d2bc
00000120: e4c7 5cbc 0ca2 40bb 880a 68bd 2aab 1a3e
00000130: a2d2 203d 30c6 033d 7b03 fdbc 3c32 66bd
00000140: 4f37 623d bed4 db3a 1259 09ba 60c7 143e
00000150: c88c d63d 808e 70bd 98b4 663c 98bf aa3d
00000160: 4ae5 88bc 50bc 993d 503e e93d d89a e33d
00000170: 8684 87bd 3c5f bbbd 5eb7 4e3d 4ee5 813d
00000180: 3299 af3d 2eb5 06be ffb1 efbd b4a8 8b3d
00000190: fcf5 fbbd d646 02be 4d36 0bbd 6be6 b2bd
000001a0: 9288 823d a6e1 c5bd 84a9 9abd 9164 47bc
000001b0: afaa 0bbe 6ddb e93d 5367 81bc 48e8 7fbd
000001c0: 55f4 ca3d f961 b53d 70a5 6bbd 86ab 5a3d
000001d0: ac0f ba3d d5f1 183e a81f a2bd b8b2 163d
000001e0: 45c6 783d 5d9a 5bbd f040 033e f8e2 c83d
000001f0: 3862 c2bc b44a 1fbe f720 373d 54a5 dfbd
00000200: 2643 97bb 7d34 84bd c44c dfbc 8b9b 9e3c
00000210: cf60 bebd 179f 233e 6389 063e 66fa 24bd
00000220: 8773 33bb ec50 32bd 40dd 07be 9564 6a3c
00000230: 10a4 ccbd 27da 053c b8f5 98bc 147f 70bd
00000240: 6f99 88bd aa95 a8bd 1f67 01bd 7b58 863d
00000250: eeab 503d 37dc 28bd 5089 b93d 1ecb 493d
00000260: dc61 cdbd a810 febb 15d5 213e 2a64 fdbc
00000270: c028 2ebd 69c9 a43d 3d3f 063d 663f 853d
00000280: 3257 ffbd d602 ddbc 6077 e53d 1107 523d
00000290: 24aa 643d fd53 063c f73e 813d 143d 82bd
000002a0: 948d c9bd ddad 29bd 3667 573d abc6 ec3b
000002b0: 570e 823d 9b15 233d 1da4 c63d d12c f4bd
000002c0: 3974 b43d 5537 883d 3b91 1b3c 2ae3 8fbd
000002d0: 5eb9 7c3d 3c03 64bc e89c 0abd b276 cc3d
000002e0: b655 a9bd 0576 2bbd 8b9a bdbc 0340 553d
000002f0: ba87 1e3c 67c0 5fbd 1dea ea3c 9d66 db3d
00000300: fd09 bab9 abb2 bb3d 2000 a4bd 6fbb 7b3b
00000310: d560 eebb 16ed a23d 478f 9dbc 8038 bcbd
00000320: cb17 473c c97e edbd 94c1 a9bc c62f 3abd
00000330: 4bf2 a03d 8c5e 9a3d ef09 323d ba1f 563d
00000340: 4c5f 3ebd 106b 063d 4693 8a3d 6b92 96bc
00000350: 798a ae3d 2900 d3bd 968c 67bc 0ee8 b73c
00000360: 5801 c9bd 728e c4bd 9aa9 e3bd 8533 f8bc
00000370: 2231 923d 756b 06bd 9947 6f3d 9fcd c63c
00000380: 8b3f 8e3d d603 c53d f7cd 123d 2078 dcbd
00000390: 4663 703d a2d6 fc3b 36a3 09be b87a deba
000003a0: 8cfc b5bd 51fe eabd c5a3 44bd 487b 02bd
000003b0: 479c 5fbd 6567 8abd 0379 f4bd abc0 91bd
000003c0: 4735 09bd a2b8 b53d 5dd1 30bd b984 de3b
000003d0: 92c9 d3bd ef97 803d 0baa 643d ce69 87bd
000003e0: 1d63 f53d fbb5 613c d4ef ca3c 41ba f7ba
000003f0: f7ac 543d 8d5c 0ebe 9da1 c73d 1d30 b7bd

layer_2.bias f4 [32]
0.17284149 -0.044033904 -0.021191461 -0.012966785 0.13572522 0.031721946 -0.12109989 -0.0698609
-0.01900004 -0.0022254505 -0.108579114 -0.03617378 0.021550627 -0.104105055 0.050837714 0.11009085
0.07647286 -0.15357813 0.0075529655 -0.09219926 -0.04487737 -0.066250965 0.12003942 0.07720904
0.14321308 -0.17204486 0.11310181 0.14769454 -0.04768305 0.12223251 -0.11504456 -0.0016661725
00000000: 5cfd 303e e55c 34bd b799 adbc a372 54bc
00000010: 8dfb 0a3e dfee 013d 3803 f8bd 3b13 8fbd
00000020: f9a5 9bbc ddd8 11bb ba5e debd f52a 14bd
00000030: f18a b03c 0835 d5bd 353b 503d 5077 e13d
00000040: ce9d 9c3d 9643 1dbe de7e f73b f7d2 bcbd
00000050: 55d1 37bd 96ae 87bd 3ad7 f53d c61f 9e3d
00000060: 73a6 123e 872c 30be eca1 e73d 3d3d 173e
00000070: 4d4f 43bd 0a55 fa3d 7b9c ebbd 7963 daba

layer_3.weight f4 [1, 32]
-0.6319463 0.25980005 -0.2772326 -0.19951874 0.6152286 0.87994426 0.19811104 -0.40189716
0.8613451 -0.11954468 -0.24115297 -0.51959944 0.50873244 -0.4501078 0.31079233 -0.5409745
0.4362883 -0.6194719 0.25758183 0.490977 -0.63516474 -0.413808 0.32843405 0.7627553
-0.6005303 0.58997416 -0.62431705 -0.5968822 -0.6191487 -0.7391292 0.53141755 0.8007561
00000000: 3cc7 21bf 8304 853e 6ef1 8dbe a44e 4cbe
00000010: 9f7f 1d3f 0744 613f 9fdd 4a3e 77c5 cdbe
00000020: 1d81 5c3f d7d3 f4bd cef0 76be 7804 05bf
00000030: 4a3c 023f 8874 e6be 2c20 9f3e 4e7d 0abf
00000040: 2e61 df3e b695 1ebf c4e1 833e 5661 fb3e
00000050: 289a 22bf a4de d3be 8228 a83e ee43 433f
00000060: 5bbc 19bf 8c08 173f 3ed3 1fbf 46cd 18bf
00000070: 8780 1ebf 9237 3dbf fb0a 083f 5afe 4c3f
