checkpt/isolated/batch64_client_3_5.pth (torch, 61487 bytes, 5 tensors)

layer_1.weight f4 [64, 197]
0	0xbce26f62	-0.027641002
1	0x3da931b4	0.08261433
2	0x3d33def1	0.043913785
3	0x3e048278	0.12940395
4	0x3e204051	0.15649535
5	0x3d47d594	0.04878767
6	0xbe122649	-0.14272417
7	0x3d09b5c1	0.0336206
8	0x3d7195fd	0.05898093
9	0xbcbffd70	-0.023436278
10	0x3dad1bd8	0.084525764
11	0x3df5b479	0.11997313
12	0xbca08921	-0.019596638
13	0x3cf0a122	0.02937371
14	0x3da66c01	0.08126069
15	0x3a483200	0.0007636845
16	0xbd751236	-0.05983182
17	0x3c11ee6e	0.008906944
18	0xbda5eef7	-0.081022196
19	0x3ca10220	0.019654334
20	0x3c18fc32	0.009337472
21	0xbd427fab	-0.047485035
22	0x3d87dab9	0.06633515
23	0x3d202cda	0.039105274
24	0xbd8142e9	-0.0631159
25	0x3d41840f	0.04724508
26	0xbd1cd26c	-0.03828661
27	0x39cefe00	0.00039480627
28	0xbc4a763e	-0.012357293
29	0x3d505ed5	0.05087169
30	0xbdcdc897	-0.10048025
31	0x3c13e39e	0.009026436
32	0x3d635958	0.055505127
33	0xbdeee3fc	-0.11664578
34	0x3da5847a	0.080819085
35	0xbd8064ba	-0.06269212
36	0x3d0be2ab	0.034151714
37	0xbd30aa56	-0.043131195
38	0x3d28ec8b	0.04124121
39	0x3ceee54c	0.029162072
40	0xbbe77473	-0.0070634424
41	0xbc1f978a	-0.00974072
42	0xbd14953c	-0.036275133
43	0xbd2ced90	-0.042218745
44	0x3cde03ad	0.027101362
45	0xbcd6d7bb	-0.026225915
46	0xbd18a9c3	-0.037271272
47	0x3d2a4fd1	0.041580025
48	0x3d2b72dc	0.041857585
49	0xbd534967	-0.051583674
50	0x3d4d845b	0.050175052
51	0xbd0bbdff	-0.03411674
52	0xbda3c98e	-0.07997428
53	0xbd818d85	-0.06325821
54	0x3ddb461b	0.10706731
55	0x3dd7a2f6	0.10529129
56	0x3d6f2670	0.058386266
57	0xbd3c5761	-0.04598177
58	0x3e012272	0.12610796
59	0xbe00ff7c	-0.1259746
60	0x3b6f988e	0.0036559436
61	0xbe0cfdb1	-0.1376865
62	0x3c9edb8a	0.019391794
63	0xbd3c762c	-0.046011135
64	0x3c6fe068	0.014640905
65	0x3bd777a8	0.0065755434
66	0xbd263979	-0.040582154
67	0xbae94b00	-0.0017798841
68	0x3c8eb0d8	0.01741831
69	0xbe1f01ca	-0.15528026
70	0x3a481ea4	0.00076339603
71	0x3d38497e	0.044991963
72	0x3d211490	0.03932625
73	0x3d6ffe1a	0.05859194
74	0x3c7c8d5e	0.015414564
75	0xbd45c69c	-0.04828511
76	0xbd56b0a8	-0.052414566
77	0x3d6ba876	0.057533704
78	0x3de27375	0.11057178
79	0xbcd85d66	-0.026411723
80	0xbac6ec77	-0.0015176673
81	0x3dcf2f47	0.10116439
82	0x3d225cf2	0.03963942
83	0xbc66b994	-0.014082331
84	0x3b387f00	0.002815187
85	0xbcb178ad	-0.021663988
86	0xbd3dc3da	-0.046329357
87	0x3e774ebe	0.24151132
88	0x3c00e348	0.007866688
89	0xbcb4fc3d	-0.022092933
90	0xbc42afef	-0.011882766
91	0xbdd314de	-0.103067145
92	0xbd4a11ce	-0.049333386
93	0xbca22492	-0.019792829
94	0xbce207a6	-0.027591538
95	0xbd5b418a	-0.0535293
96	0x3c855010	0.016273528
97	0x3e070949	0.13187136
98	0x3d9fbd31	0.07799757
99	0xbd0e96aa	-0.034811653
100	0xbd3cbef0	-0.04608053
101	0xbd0a038d	-0.033694793
102	0xbd2d0a47	-0.04224613
103	0xbd0ac15c	-0.033875808
104	0xbc318a48	-0.0108361915
105	0xbc8e42db	-0.017365864
106	0xbd1fc164	-0.03900279
107	0xbb0d98cb	-0.0021605964
108	0xbd3323ab	-0.043735188
109	0xbc9a9c0a	-0.018873233
110	0x3cb18fe9	0.021675067
111	0x3d2fa8b0	0.042885482
112	0x3da739d5	0.081653275
113	0x3d32da14	0.043665007
114	0x3dce7b73	0.1008214
115	0xbd9bb02b	-0.07601961
116	0xbd4f9214	-0.05067642
117	0xbe7e2d7c	-0.24822038
118	0x3c84c8ba	0.016208995
119	0xbdbe2f84	-0.09286407
120	0xbd8e3a5e	-0.069447264
121	0xbd4ad05d	-0.049515117
122	0x3dfae80b	0.1225129
123	0xbbbafd40	-0.0057064593
124	0xbd8ceadf	-0.068807356
125	0x3dd528f2	0.104082
126	0xbb9120d6	-0.004428963
127	0x3c8d7523	0.01726777
128	0xbdbebefc	-0.09313771
129	0x3e210ca0	0.15727472
130	0xbdc83871	-0.0977639
131	0x3d35efd7	0.044418182
132	0xbb87349c	-0.0041261446
133	0xbd708243	-0.058717977
134	0xbd63e165	-0.055634875
135	0x3d498aba	0.049204566
136	0x3d3b6aa4	0.045755997
137	0xbda66324	-0.08124378
138	0x3d52e8b3	0.05149145
139	0x3d0c50eb	0.034256857
140	0x3d145d2b	0.036221664
141	0xbd145282	-0.036211498
142	0x3d4e7463	0.050403964
143	0x3bae5c2a	0.0053210454
144	0xbb859f67	-0.00407784
145	0x3c626ef5	0.0138203995
146	0x3aa5f640	0.0012661889
147	0x3d57d394	0.05269201
148	0x3dc39139	0.095491834
149	0xbcf8ce31	-0.030371757
150	0xbd1c39c6	-0.038141035
151	0x3ddceab5	0.10786954
152	0xbd7cde02	-0.06173516
153	0x3e0875aa	0.13326135
154	0x3c59b9c1	0.013288916
155	0x3d06ddcf	0.032926377
156	0x3e049696	0.12948069
157	0xbd29679b	-0.04135857
158	0xbd44aae5	-0.04801454
159	0xbd189db9	-0.03725979
160	0xbd09c385	-0.033633728
161	0xbd64249a	-0.05569897
162	0x3d7e7b59	0.062129352
163	0xba915557	-0.0011088055
164	0x3d56198a	0.05227045
165	0xbd914ecd	-0.07095108
166	0xbe10edd0	-0.14153218
167	0xbce65df4	-0.028120972
168	0xba764d87	-0.0009395708
169	0x3b092fe0	0.0020933077
170	0xbdb29dbf	-0.08721494
171	0x3d0f2ada	0.034952976
172	0xbd177d64	-0.036984816
173	0xbcc1f2cc	-0.023675345
174	0xbb7f9708	-0.0038999934
175	0x3b8d7160	0.004316494
176	0x3da14fa0	0.078765154
177	0x3d9af189	0.075656004
178	0xbd6c6a4d	-0.057718564
179	0xbd994fe0	-0.07485938
180	0xbd859f88	-0.06524569
181	0x3d4f8bf4	0.05067058
182	0xbd85d482	-0.06534673
183	0x3c6b9b78	0.014380328
184	0xbd078621	-0.0330869
185	0xbcd405ce	-0.025881674
186	0x3d858caa	0.0652097
187	0xbc570338	-0.013123326
188	0xbd68ddd8	-0.05685219
189	0x3c9d67e6	0.019214582
190	0xbe052237	-0.13001333
191	0xbdacb8e1	-0.084337
192	0xbc304a8e	-0.010759963
193	0xba97d49f	-0.0011583752
194	0x3d25fb04	0.04052259
195	0x3d307b89	0.043086562
196	0xbddf5081	-0.10904027
197	0xbc29a264	-0.010353658
198	0xbbe1df37	-0.0068930644
199	0xbd2b471f	-0.041815873
200	0xbd2d7ffd	-0.042358387
201	0x3d1c5248	0.038164407
202	0xbcde0e58	-0.027106449
203	0xbd2e8f2e	-0.042617016
204	0xbdc6f2ea	-0.09714301
205	0x3ac8040a	0.0015259993
206	0x3cd26881	0.025684597
207	0xbdf56df4	-0.119838625
208	0x3e0df039	0.13861169
209	0xbd0c2d09	-0.034222636
210	0xbcb4ecd3	-0.022085583
211	0xbd6e7a47	-0.05822208
212	0x3aad8640	0.0013238862
213	0x3d6ccce1	0.057812575
214	0x3dcd71d0	0.10031474
215	0x3e3751d2	0.17902306
216	0xbd6e1088	-0.058121234
217	0xbd0e22d4	-0.034701183
218	0x3db14f63	0.0865772
219	0x3dbe3ec7	0.092893176
220	0x3c7e4c04	0.015521053
221	0xbd2db17f	-0.0424056
222	0x3d1f3db0	0.03887719
223	0x3d71ed5e	0.05906426
224	0x3d2d04e2	0.042240985
225	0xbd251430	-0.040302455
226	0x3cd9be98	0.02658014
227	0xbe07c927	-0.13260327
228	0xbd525e8d	-0.051359702
229	0xbd393c6c	-0.04522364
230	0xbcfa67d1	-0.030567082
231	0x3cd42d92	0.025900636
232	0x3cc6ae3c	0.024253003
233	0xbb0c1cae	-0.00213794
234	0xbe1ce87f	-0.15323065
235	0xbd015725	-0.031577248
236	0x3d20f560	0.039296508
237	0x3d550643	0.052007925
238	0x3bb10e81	0.0054033403
239	0x3bf49c89	0.0074649495
240	0xbdc02db6	-0.09383719
241	0xbd0dbf6d	-0.034606386
242	0xbd97b184	-0.07406905
243	0xbd69fb06	-0.05712416
244	0x3c1daff4	0.00962447
245	0xba16d30e	-0.00057534955
246	0xbd3c201a	-0.045929052
247	0xbd3212a8	-0.043474823
248	0xbd9e895e	-0.077410445
249	0x3d4ebfd6	0.050475918
250	0xbc5bd79d	-0.013418105
251	0x3de15246	0.110020205
252	0xbd4b30f9	-0.04960725
253	0x3b1d4815	0.0023999263
254	0x3c1246b9	0.008927994
255	0xbdd38110	-0.10327351

layer_1.bias f4 [64]
0	0xbdb7c329	-0.08972771
1	0xbc682c64	-0.01417074
2	0xbdee51d6	-0.11636703
3	0xbdc82136	-0.097719595
4	0xbd63fc94	-0.0556608
5	0x3ce274ac	0.027643524
6	0xbd530a2a	-0.051523365
7	0xbdfcf1f6	-0.12350838
8	0xbe0b4048	-0.1359874
9	0xbe470238	-0.1943444
10	0xbe1877f6	-0.14889511
11	0x3cd4f46e	0.02599546
12	0xbe0ba5c9	-0.13637461
13	0x3d25f446	0.04051616
14	0xbe002796	-0.12515101
15	0xbd0004d9	-0.031254623
16	0x3da8b2f4	0.082372576
17	0x3c78ebe6	0.015192961
18	0xbdea9c11	-0.114555486
19	0xbd30134f	-0.042987164
20	0x3de70ada	0.11281367
21	0x3ddc5297	0.1075794
22	0x3d2f741b	0.042835336
23	0xbe8743e2	-0.26418978
24	0xbe15b399	-0.14619292
25	0x3ca59900	0.020214558
26	0x3b7a6406	0.0038206591
27	0xbdd91dca	-0.10601385
28	0xbdc6ca23	-0.09706523
29	0xbddff403	-0.109352134
30	0xbb2ff453	-0.002684851
31	0x3da8538b	0.082190596
32	0xbde2de4c	-0.11077556
33	0x3d9696c7	0.07352977
34	0xbe0274d5	-0.1273988
35	0x3d46c18d	0.04852443
36	0xbe8fb03e	-0.2806415
37	0xbdea6838	-0.114456594
38	0xbc8ec3f3	-0.01742742
39	0xbd87bd02	-0.06627847
40	0xbdf3db86	-0.11907105
41	0xbdd1e932	-0.102495566
42	0xbd26f32b	-0.040759247
43	0x3b6d7024	0.003623017
44	0xbd87cf4b	-0.06631335
45	0xbcd909eb	-0.026493987
46	0xbdabbd70	-0.08385742
47	0xbd95d97f	-0.07316875
48	0xbdae42fa	-0.085088685
49	0x3d2e443e	0.04254555
50	0xbe3565da	-0.17714635
51	0x3d93f83a	0.0722508
52	0xbe68ad1a	-0.22722283
53	0xbe18fed9	-0.14940967
54	0xbe4e283c	-0.20132536
55	0x3de12547	0.10993438
56	0x3cea1d0b	0.028578302
57	0x3dafa0ee	0.08575617
58	0x3c8d47b0	0.017246097
59	0xbed73a03	-0.42036447
60	0xbe53d254	-0.20685703
61	0xbd73d08c	-0.059525058
62	0xbe3436aa	-0.17598978
63	0xbe071152	-0.13190201

layer_2.weight f4 [32, 64]
0	0x3ce3c8ba	0.027805675
1	0x3da9a3e3	0.08283212
2	0xbe499c86	-0.19688615
3	0x3d9aaeee	0.075528964
4	0x3cf6ec92	0.030142102
5	0x3d84548d	0.06461439
6	0xbd03a5ff	-0.032140728
7	0x3dd42b27	0.10359793
8	0x3df6b9b6	0.1204714
9	0x3d44022a	0.047853626
10	0xbe0328cb	-0.1280853
11	0xbde9f2ac	-0.11423239
12	0xbdc95711	-0.0983106
13	0x3e58b555	0.21162923
14	0xbd6395f1	-0.055562917
15	0xbdb7cdb9	-0.08974785
16	0x3e3989ed	0.18119021
17	0xbe0f896c	-0.14017266
18	0xbe17e33b	-0.14832775
19	0xbc924691	-0.017855914
20	0x3d48f237	0.04905912
21	0x3c182872	0.009286987
22	0xbd5fe649	-0.054662976
23	0x3d20e304	0.039279
24	0xbca73910	-0.020412952
25	0x3d2db383	0.042407524
26	0x3d3ffbd8	0.046871036
27	0x3c685f95	0.014182945
28	0x3da44db2	0.08022632
29	0x3a83cb16	0.0010055031
30	0x3e0b8cb1	0.13627888
31	0xbe07c811	-0.13259913
32	0x3a1b081b	0.00059139886
33	0xbe306666	-0.17226562
34	0xbde2f2c4	-0.1108146
35	0xbde6b1b9	-0.11264367
36	0x3d2c6ecf	0.042097863
37	0x3bfe2273	0.0077555715
38	0x3d1cea0b	0.03830914
39	0xbda632b4	-0.081151396
40	0x3e3a3e3d	0.18187805
41	0xbcc9400c	-0.024566673
42	0xbd97a343	-0.074041866
43	0x3d01127f	0.03151178
44	0xbcf9469b	-0.030429175
45	0x3b8f58cd	0.0043745995
46	0xbceac55b	-0.02865856
47	0xbd325d25	-0.04354586
48	0x3d7d9c44	0.061916605
49	0xbdefe30d	-0.117132284
50	0xbd9b0f4e	-0.075712785
51	0x3e516f3a	0.20452586
52	0x3d638e2f	0.05555552
53	0x3df301d3	0.11865582
54	0xbd8df6c4	-0.069318324
55	0x3d729c1e	0.059230916
56	0x3dd93b2c	0.10606989
57	0x3dbb70a5	0.091523446
58	0xbd846e44	-0.06466344
59	0x3b14c5e9	0.0022700971
60	0xbe28af72	-0.16473177
61	0x3ccd0d8e	0.025030877
62	0xbdf53ab4	-0.11974087
63	0x3db32ca8	0.08748752
64	0x3e10b8c4	0.14132982
65	0xbd6adfb5	-0.05734225
66	0x3e3c585b	0.1839308
67	0xbe443762	-0.19161752
68	0xbe01495b	-0.12625639
69	0xbdc2645c	-0.09491798
70	0xbc1a768b	-0.009427677
71	0x3cb42cb5	0.021993974
72	0x3e168e2c	0.14702672
73	0xbd22e3b4	-0.039767936
74	0xbe132b70	-0.14372039
75	0xbe406f4b	-0.18792455
76	0xbe1294b9	-0.14314546
77	0xbcf05f00	-0.029342175
78	0x3e3283c0	0.17433071
79	0x3e4e32e0	0.20136595
80	0x3d2d708d	0.042343665
81	0x3dc881f2	0.0979041
82	0x3c84e5ff	0.016222952
83	0xbd869a4b	-0.06572398
84	0x3d11ca8e	0.03559356
85	0xbd39e314	-0.045382574
86	0x3c896d57	0.01677577
87	0xbd48a851	-0.048988644
88	0x3d034d4f	0.03205615
89	0x3deb54d3	0.11490788
90	0x3dae9a96	0.08525579
91	0xbe2de1f4	-0.16980726
92	0xbda363ee	-0.079780445
93	0x3d139b00	0.03603649
94	0x3d7934d8	0.06084141
95	0x3d66dff0	0.056365907
96	0x3cf45176	0.029824
97	0xbd8fa348	-0.07013565
98	0x3e0f5389	0.1399671
99	0xbdbb655a	-0.09150191
100	0xbd1edb0b	-0.038783114
101	0x3e11e12a	0.1424605
102	0xbe47836f	-0.19483732
103	0xbe5000b4	-0.20312768
104	0xbe23c0f0	-0.15991569
105	0xbdf82818	-0.12117022
106	0x3bf2505c	0.0073948335
107	0x3ce54cf2	0.027990792
108	0x3c99fc62	0.018797103
109	0xbd880c6d	-0.06642995
110	0xbe2e4daa	-0.17021814
111	0xbda6b28b	-0.08139523
112	0x3df3543e	0.11881302
113	0x3dfc288d	0.12312422
114	0xbdb0d33a	-0.08634038
115	0xbe1a2470	-0.15052962
116	0x3dbc0cc2	0.09182121
117	0xbdb3ec4e	-0.08785306
118	0xbda203bc	-0.079108685
119	0xbdd6219a	-0.10455628
120	0x3e36aba0	0.17838907
121	0x3dee9f58	0.11651486
122	0x3c9c6f90	0.019096166
123	0xbddcd78b	-0.10783299
124	0xbcbc6873	-0.022999024
125	0xbde89a3c	-0.11357543
126	0x3d42256b	0.047398966
127	0xbe376f86	-0.17913637
128	0xbda2d7f8	-0.07951349
129	0xbcb77695	-0.022395412
130	0xbe43b7f2	-0.19113138
131	0xbe02b2db	-0.1276354
132	0x3def2b67	0.116782
133	0x3b06ed8a	0.0020588362
134	0xbd357963	-0.044305217
135	0x3c4b07f2	0.012392031
136	0x3de7e890	0.11323655
137	0x3eb505e7	0.35356066
138	0xbe0276a2	-0.12740567
139	0x3dd107a9	0.10206539
140	0xbdf150a4	-0.11782959
141	0xbde43ffe	-0.11145018
142	0x3e055219	0.13019599
143	0x3dc18054	0.09448305
144	0x3d622dcf	0.055219468
145	0x3e40256f	0.1876428
146	0xbbf422ec	-0.007450452
147	0xbd86ec78	-0.065880716
148	0xbd3e4258	-0.04644999
149	0x3d42ce92	0.047560282
150	0xbde009ba	-0.10939355
151	0xbe101d60	-0.14073706
152	0xbd631d6a	-0.055447973
153	0xbda49ea6	-0.08038072
154	0xbdaaf6a0	-0.08347821
155	0x3e703d90	0.23460984
156	0xbdad54ff	-0.08463477
157	0x3d712c10	0.058879912
158	0x3df0db17	0.11760538
159	0x3d34c153	0.04412968
160	0xbd50713f	-0.05088925
161	0xbcb0a72e	-0.021564092
162	0x3c8213fb	0.015878668
163	0xbdcf1c93	-0.10112872
164	0xbc929280	-0.017892122
165	0x3dd9dca9	0.10637791
166	0xbd81c5c8	-0.06336552
167	0x3dad46bf	0.08460759
168	0x3be54eb9	0.00699791
169	0xbd488aa3	-0.04896034
170	0xbcf904dc	-0.030397825
171	0x3d9bb07a	0.076020196
172	0x3dc2d8ef	0.09514033
173	0x3df3494f	0.11879217
174	0x3e67704f	0.22601436
175	0xbd3c642f	-0.04599398
176	0x3d50d7e7	0.05098715
177	0xbc62a479	-0.013833159
178	0xbe178bc6	-0.14799413
179	0xbd7b8bf8	-0.06141278
180	0x3d5a62c5	0.05331685
181	0x3cc5bc1b	0.024137547
182	0xbdadd1f1	-0.08487309
183	0xbba9a36b	-0.0051769516
184	0xbe0d4574	-0.13796026
185	0xbd273663	-0.04082335
186	0x3d9a4dc6	0.07534365
187	0xbe24b5da	-0.16084996
188	0xbd91badf	-0.07115721
189	0x3cde77a7	0.027156664
190	0x3d04f481	0.03245974
191	0x3da38505	0.07984356
192	0x3da8515d	0.08218644
193	0x3e83f003	0.25769052
194	0xbd896e64	-0.067105085
195	0xbe516251	-0.20447661
196	0xbcc278bf	-0.023739217
197	0x3e21fbdb	0.15818731
198	0x3d38d0fb	0.045121174
199	0x3e60397a	0.21896926
200	0x3e73a40b	0.23793046
201	0xbe9041f7	-0.28175327
202	0xbe0e8a84	-0.13920027
203	0xbdc935e6	-0.098247334
204	0xbdeaa9d7	-0.11458176
205	0x3d4a4786	0.049384616
206	0xbc79ba69	-0.015242198
207	0xbde4bb0d	-0.111684896
208	0x3d9ca574	0.07648745
209	0xbe578dbd	-0.21050163
210	0xbce20295	-0.027589122
211	0x39d98d93	0.00041494946
212	0x3cf83de9	0.030302959
213	0xbea9d23f	-0.33168218
214	0xbb997cce	-0.0046840673
215	0x3e0260e1	0.12732269
216	0x3def7ee5	0.11694125
217	0xbe3e50fd	-0.18585582
218	0xbd544d18	-0.051831335
219	0xbd6a3929	-0.05718342
220	0xbe905c3a	-0.28195363
221	0x3d5d88a7	0.0540854
222	0xbe6206e0	-0.22072935
223	0x3e84b482	0.25918967
224	0x3e7c8df4	0.24663526
225	0xbda214b8	-0.07914108
226	0x3e328f19	0.174374
227	0xbe4e1b63	-0.20127635
228	0xbd989a6d	-0.074513294
229	0x3d87c79d	0.0662987
230	0xbe88dcbc	-0.26730907
231	0xbe68746d	-0.22700663
232	0xbe455f7a	-0.19274703
233	0x3df855bd	0.12125728
234	0xbe53c9bf	-0.20682429
235	0x3e85e3c7	0.26150343
236	0x3df2e37b	0.11859795
237	0xbeaf0280	-0.34181595
238	0xbdf6dfcf	-0.12054407
239	0x3e8b6b90	0.272305
240	0x3e8244f5	0.25443235
241	0xbe51b8bb	-0.20480625
242	0x3e345254	0.1760953
243	0xbdb507a0	-0.08839345
244	0x3daadcc6	0.083428904
245	0x3cf636bc	0.030055396
246	0x3e1f36e0	0.15548277
247	0x3e59c369	0.2126595
248	0xbeb89354	-0.36049902
249	0x3c4220f6	0.011848679
250	0xbe3e0c5a	-0.18559399
251	0x3d76b015	0.06022652
252	0x3e8e072b	0.27739844
253	0xbdd9ebf1	-0.106407054
254	0x3dd45a67	0.103688054
255	0xbdd363f1	-0.10321797

layer_2.bias f4 [32]
0	0x3e25e739	0.16201486
1	0x3be3735b	0.0069412417
2	0x3dc6cc3a	0.09706922
3	0x3e4117ab	0.18856685
4	0x3ddcc8aa	0.10780461
5	0x3df67519	0.12034053
6	0xbd65f574	-0.056142285
7	0x3cd6222a	0.026139338
8	0x3cad39c1	0.021145703
9	0x3d4ce81a	0.050026037
10	0xbdc03fe4	-0.09387186
11	0x3c927319	0.017877148
12	0xbabae742	-0.0014259594
13	0x3de7a915	0.11311547
14	0x3da18989	0.07887561
15	0x3ddd82a0	0.1081593
16	0x3c84c6dc	0.016208105
17	0xbd6ca3db	-0.057773452
18	0xbc86237e	-0.016374346
19	0xbdb6230a	-0.08893402
20	0xbdab007a	-0.083497
21	0xbd890c58	-0.066918075
22	0xbddaef76	-0.10690205
23	0xbb84a73e	-0.004048257
24	0xbde0183b	-0.109421216
25	0x3db6d626	0.08927564
26	0x3d923c2b	0.071403824
27	0x3e0a0b73	0.1348093
28	0x3c5b8cc8	0.013400264
29	0x3dfee4cf	0.124459855
30	0xbd3791eb	-0.044816893
31	0x3df71acc	0.12065658

layer_3.weight f4 [1, 32]
0	0x3ee4003b	0.44531426
1	0x3f19e85b	0.6012017
2	0x3f02fecc	0.5117004
3	0x3f8d6655	1.1046854
4	0xbf17b300	-0.5925751
5	0x3f4b072c	0.7930782
6	0x3f5c95f3	0.86166304
7	0xbf2bc0dd	-0.6709116
8	0x3f1b432b	0.60649365
9	0xbe77a4c7	-0.24183951
10	0x3eb023a4	0.34402192
11	0xbe76516e	-0.240545
12	0xbe5ff047	-0.21869002
13	0xbf17603a	-0.59131205
14	0xbeee80d9	-0.46582678
15	0xbf215034	-0.63013005
16	0xbf0f6c74	-0.5602486
17	0xbf0f4973	-0.5597145
18	0x3f116110	0.5678873
19	0x3f17c45b	0.5928399
20	0x3ee93cca	0.4555419
21	0xbede7b20	-0.43453312
22	0xbf16be8e	-0.58884513
23	0x3f29894e	0.66225135
24	0xbd6c1e4e	-0.05764609
25	0x3f2387bd	0.63878995
26	0xbf504777	-0.81359047
27	0xbef298fc	-0.47382343
28	0xbf031e89	-0.5121847
29	0xbf31f688	-0.695168
30	0x3f00016b	0.50002164
31	0x3f408626	0.75204694
