checkpt/isolated/client_1_5.pth (torch, 61015 bytes, 5 tensors)

layer_1.weight f4 [64, 197]
00000000: 6050 4d3c bfe7 95bd 41b5 ed3d 223f 05bd
00000010: 087d 0639 9008 51bd 4385 bdbd a33e cbbd
00000020: 94a7 183d f581 7abd d22c 153e 9c47 b6bd
00000030: e246 3b3d abab b9bd 1440 64bd e236 a1bc
00000040: fd4a a8bd 985d eebd 18d1 ffbc 70ba c2bc
00000050: f2e5 79bd 9fe7 85bd f0e5 c73d bbd8 36bd
00000060: ee86 d1bc dfc4 83bb 8c19 b23d 88d4 c03c
00000070: d1cc 803d 899d 81bd defe 803d a104 06be
00000080: 701d d23d 8691 183d edd5 243e 8fcf cb3b
00000090: e215 153d a5b1 99bb 66f8 28bc 023b 093d
000000a0: 4ccc 8b3d 930b e23d 21ad 053c 4ad1 0ebe
000000b0: 4d52 89bd 8bef 76bd d0c9 c73d 1d0a 9a3d
000000c0: 9623 ba3d e43c 61bd 9fae 653e 62d3 b03d
000000d0: 1627 43be 12cc 733c c992 bd3c e58e a3be
000000e0: 3b80 8c3d 944c 773d c973 023e 5b35 81bc
000000f0: 5e62 aa3d 885c c3bd c557 e8bd 844c a7bd
00000100: 90b0 ddbb 3209 d93d 5baa 0f3d 581e 47bd
00000110: 2a65 2abe c818 aabd 740f 0fbe 6c75 f63c
00000120: 4a04 373b 90f9 8cbb d0cf 2a3d 9bad 52bd
00000130: f0eb 2c3e fbca 02be d34a 11bc 80f6 8a3c
00000140: 8957 bcbc e0f4 0fbc 943c f0bc 1e16 84bc
00000150: 4f92 2ebd 9dd9 593c a690 133d 047d ee3d
00000160: 268e 6fbd b8a9 ba3d d0a1 19bd a6aa 6e3d
00000170: cdbe 08be 83fd fc3d 9d30 bebd f29b 82bd
00000180: 3f9c 82bd 0c7e a93b 9832 7abd 5f92 f1bd
00000190: c860 8abc 738d a93c 726e afbc 7b2b a9bd
000001a0: 24d8 73bc 8fe9 1abe 205c 943d 4fde 8e3d
000001b0: 04f2 e53d 07c1 d23c 08d6 e2bc 9f8b 4abd
000001c0: c5ca 973b cc27 bc3c 5f00 32be 3605 8ebd
000001d0: d08c b3bd d257 5bbe 583f 0b3e d06a a73d
000001e0: 1d7d 63be 4c6b d03c a3ec df3d cfe1 1ebd
000001f0: 58bd c23c c887 863d 2b4e 133e 89bd be3c
00000200: 4894 9e3c 4ef9 00bc d498 5ebe 7e97 92bc
00000210: ecd8 c0bd 0549 6bbc b488 80bd e8c3 f6ba
00000220: 0087 633c cb20 fb3b 3d91 6ebd bc96 533c
00000230: 8507 e5bd 8618 5ebd 2164 28be beb7 f2bd
00000240: a8aa 91bd ab5e 043e d938 1cbd 70b0 9bbc
00000250: dedd 053e 0442 3dbb f2cf acbd 166d 86bd
00000260: e40d 143e 33f4 283c d861 453d 5489 f7bd
00000270: 8391 083e cbc1 7b3e 648c c03a 8875 08be
00000280: 561b 023e 6fb6 b2bd 12e7 c93d da21 203d
00000290: 300f 56be 9271 55be f743 28bc 5e8d 2a3d
000002a0: c1ed f03d b30c e6bd acec 12bd a3d0 83bd
000002b0: 9479 8d3e 9992 c23d 4f83 073e 1a03 7e3d
000002c0: 79e6 76be 8ded f3bc 3ed2 3ebd 3c15 7cbc
000002d0: d872 a7bb 5a91 98bd 33bd 603d 58a4 6b3c
000002e0: 2671 edbb a540 65ba b3ba 403d 4083 fd3c
000002f0: ec94 823c 52e2 1fbd 787d 8cbd c9db 65bd
00000300: 193b 62bd c975 903c e764 203b 08d0 6d3d
00000310: 0775 26be d670 22bd 5b00 d4bd 98ac a6bd
00000320: 1864 4cbc c804 1abd 1a84 72bd c761 0d3d
00000330: 9b7c be3b e110 c83c 8299 16bd 698f 8cbd
00000340: e536 a3bd b4aa 9e3c 3be5 28bd 8449 c2bc
00000350: ba84 783d 773e ce3b 405c 7abd e409 283d
00000360: 4bb4 2dbd 4c2e 0b3d de0b 18be 97e0 053d
00000370: 61bf 23bc 522b e1bd 4b6e 323d 2d91 aabc
00000380: ac52 cbbc 3b2b 51bd 1e8a 603d c9bf ab3d
00000390: da47 473d f4bb a83c e045 80bd 2669 69bd
000003a0: 4207 33bd dc64 5abd 9d6e 903e ff1b 043d
000003b0: 080e a33c 1850 203d fa59 88bd 0040 ce3c
000003c0: a8e2 b03e e3c0 43bd 6c1b 41bd 35ec 30bd
000003d0: 1ecc b9bd 0f52 69bd 6b3a dbbd d4df 53bd
000003e0: d527 c73d f1db f93d 30c3 eabd af6d 2f3d
000003f0: e6d0 3e3b db21 6dbd 0587 803c 7e70 27bd
0.01253137 -0.07319593 0.11606837 -0.03253091 0.00012825814 -0.051033556 -0.09253933 -0.099240564
0.03726919 -0.061159093 0.14567879 -0.08900377 0.045721896 -0.09065946 -0.055725172 -0.01967949
-0.08217428 -0.11638945 -0.031227633 -0.023770541 -0.06101031 -0.06538319 0.09760654 -0.044640284
-0.025577035 -0.0040212716 0.08696279 0.023538843 0.06289066 -0.063288756 0.06298612 -0.13087703
0.10259521 0.037248157 0.16097231 0.0062198113 0.036397822 -0.0046903663 -0.010313129 0.03350354
0.06826076 0.11037364 0.008158953 -0.13947025 -0.06705151 -0.06028704 0.097552896 0.0752146
0.09088819 -0.05498971 0.22429894 0.08634068 -0.19057879 0.014880197 0.023141282 -0.31944957
0.068603955 0.060375765 0.12739481 -0.015772512 0.08319543 -0.09539133 -0.11344866 -0.08168891
-0.0067654327 0.10597457 0.035074573 -0.048612922 -0.16640154 -0.08305508 -0.13970739 0.030085288
0.002792614 -0.004302211 0.04170209 -0.051435094 0.16886878 -0.12772743 -0.008867937 0.016963243
-0.022990959 -0.00878641 -0.02932576 -0.016123828 -0.04262 0.013296512 0.03602662 0.116449386
-0.058485173 0.091144025 -0.037507832 0.05826821 -0.13354035 0.12353041 -0.09286616 -0.063774005
-0.06377458 0.0051724967 -0.061083406 -0.11795496 -0.016891852 0.020697331 -0.02141497 -0.08260246
-0.014883075 -0.15128158 0.07244134 0.06975996 0.112278014 0.025726808 -0.027689949 -0.04944956
0.0046323263 0.022968195 -0.17382954 -0.06934588 -0.08767092 -0.2142022 0.13598382 0.0817467
-0.22215696 0.025441788 0.10933807 -0.038789567 0.023771927 0.06568867 0.14385287 0.023283737
0.019357815 -0.007871939 -0.21737987 -0.017894503 -0.094163746 -0.014360671 -0.06276074 -0.0018826695
0.013887167 0.0076638213 -0.05824398 0.012914356 -0.11183075 -0.054222606 -0.16444446 -0.11851452
-0.07112628 0.12926738 -0.03814015 -0.01900503 0.13072917 -0.002887846 -0.084381 -0.06563775
0.14458424 0.010312128 0.048189014 -0.1208674 0.13336758 0.24585645 0.0014690277 -0.13326085
0.1270574 -0.08726203 0.09858526 0.039094783 -0.20904231 -0.20844105 -0.01027011 0.041638725
0.11764098 -0.11232891 -0.03587024 -0.06436279 0.2763182 0.095006175 0.13233684 0.062014677
-0.24111356 -0.029776359 -0.04658722 -0.015385922 -0.005110126 -0.074495986 0.054867934 0.014382444
-0.0072461544 -0.00087452895 0.04705305 0.030946374 0.015940152 -0.039034195 -0.06859869 -0.056117807
-0.05523214 0.01763429 0.0024474205 0.058059722 -0.1625558 -0.03965839 -0.1035163 -0.081383884
-0.012475036 -0.037602216 -0.059208013 0.034517076 0.005813194 0.024422111 -0.03676749 -0.06863291
-0.07969455 0.019368507 -0.041234236 -0.023716696 0.060673453 0.0062940675 -0.061123133 0.041025057
-0.04240827 0.0339797 -0.14848277 0.03268489 -0.009994359 -0.10994591 0.043562215 -0.020821178
-0.024819694 -0.05106662 0.05481922 0.083861895 0.048652507 0.020597436 -0.062633276 -0.056985043
-0.043708093 -0.053318843 0.2820939 0.03225326 0.019904152 0.039138883 -0.06657787 0.025177002
0.34547925 -0.047791373 -0.047145292 -0.043194015 -0.090721354 -0.056963023 -0.10704502 -0.05172713
0.09724394 0.122001536 -0.1146301 0.04282921 0.0029116212 -0.057893615 0.015689382 -0.040878765

layer_1.bias f4 [64]
00000000: 48ca 6cbd b085 433d b7ab 2bbd cf53 f53c
00000010: df13 483d a25f b5bd 7b47 083d 71ae 60bd
00000020: 4ceb f1be a33a c9bd 84b6 293e f559 80be
00000030: 54ab bd3d 416e 95bd beb6 583e d739 14be
00000040: 1689 d9bd 9f75 aabd 2170 1cbd fd53 41be
00000050: eaac 4fbe fc32 dfbd 70e5 95be 2ee3 6cbe
00000060: 1fec 7bbe 73e1 55be bb76 a2bd 5484 8abe
00000070: ff0e 9bbb 454a acbe 0bb9 4abe c0b7 0cbd
00000080: e91a acbe f5c3 b6bd 3dd8 9cbd 0b79 e3bd
00000090: 9167 6b3e 074d dbbd 9d56 6dbe 2ae6 35be
000000a0: 5cbf 83bd 611d b53d b109 3fbe 79d9 43bc
000000b0: 61fd bfbc ef0a fcbd ec76 27be 9586 d9bd
000000c0: eea4 083e 8a10 35bd 3250 27bd 3b1e b5be
000000d0: 2c28 05be aff6 6dbd 0bec 16be 7262 ecbd
000000e0: 97fd 693e 89c2 9ebe d42c 92bd e944 82be
000000f0: 0b48 dcbe 29f8 27be 54a9 66bd ce20 84be
-0.057810098 0.047734916 -0.041911807 0.02994719 0.048847076 -0.08856131 0.033271294 -0.05485386
-0.4724983 -0.09825637 0.1657353 -0.25068632 0.09261194 -0.0729642 0.2116346 -0.14475189
-0.1062185 -0.08323216 -0.038192872 -0.18879695 -0.20280805 -0.108983964 -0.2927661 -0.23133537
-0.24601792 -0.20886783 -0.07932802 -0.27054083 -0.0047320123 -0.33650413 -0.19797151 -0.034354925
-0.3361428 -0.089240946 -0.07658432 -0.111070715 0.22988726 -0.10708051 -0.23177572 -0.17763582
-0.06432983 0.08843494 -0.1865604 -0.011953705 -0.02343625 -0.12306773 -0.16353959 -0.106213726
0.13344166 -0.044205226 -0.040847965 -0.35374627 -0.13003606 -0.058096584 -0.14738481 -0.115422145
0.22850643 -0.31007794 -0.071374565 -0.254432 -0.43023714 -0.1640326 -0.056313828 -0.25806278

layer_2.weight f4 [32, 64]
00000000: 9455 2b3d 3429 afbd ae57 69bd 5879 85bd
00000010: 6c32 ddbd 438a bdbd 9431 aabd c08d a0be
00000020: 68ff d3be 7cbd 4d3e 8476 a0bd 9730 f0bc
00000030: f4c0 3cbc f2db ac3d 5288 4e3b eaca 8bbb
00000040: 3d0f bf3d 6c47 9abc bc08 c13d 0906 cf3c
00000050: b893 07be c3d0 5c3c 5c74 203e 68fa a8bd
00000060: 636f eb3d 8bff 4d3d 2bd4 a63d b597 543d
00000070: 7ba6 243d 62b7 ecbd d81c 73be f76f 87be
00000080: e418 0e3e 1538 f7bb 054e e0bc b98d 083e
00000090: 25ce 17bc 4063 e63d b81a f4bd fe4a fabc
000000a0: cb99 e5bd 6800 0b3e 4273 40be 91ab be3a
000000b0: d69b 10bd 75fd 453d 3ba6 fabc e168 a4bc
000000c0: 06d7 a93d bf5d bb3d 01bc c2bd e320 5f3d
000000d0: 88f2 c7bd 9651 163e e81a 9c3d a6b6 903e
000000e0: d104 a4bd 2611 273d a5ab f1bd e035 96be
000000f0: 5933 47be b012 e53d db39 12be 7317 203e
00000100: 1067 a23d 787f 443e c400 f33d a6f8 b8bd
00000110: 2d05 2fbe b32d 003d 4aff 9fbd e3d2 91bd
00000120: a55f 2a3e 034e e93c 63cb 4b3d 5ace fa3c
00000130: 9847 bd3d c88f 24be 4598 aabd 8836 b83c
00000140: af84 093e 3bc8 d0bd 3d99 18bd beaa babd
00000150: 8ec7 263d 81f4 70bd 60ed 093e f667 66bc
00000160: d2a7 0ebd 257e d7bd 60d2 ce3d d8ff e53d
00000170: be9c dbbd b798 623c 0c9b 30bc 51fe 20bd
00000180: 2dd4 103e cbe8 4abd 2bfa c7bd 00bb 36bd
00000190: 65a5 d93c 6bb4 363d 3614 0d3e 671c af3d
000001a0: ba34 553d 5ae1 073c 42d3 93bb 8ac1 c33d
000001b0: cf5a b83c e1bd efbd 699d 183e 4305 4bbc
000001c0: c5db 06be f851 3c3c cb30 8bbb 8b9e 02be
000001d0: 68d3 d0bc 9319 8fbb 32b3 333d 8d08 f3bc
000001e0: 3758 c23d 2366 02be c666 2d3c 7a53 8fbb
000001f0: 11a2 a53d 3867 76bd f2f3 c3bd 073f 133e
00000200: 70ee 613d 33c8 8e3d 6a55 7abd 66bd 8f3d
00000210: 1826 85bc 3aed 9c3d 23a6 92bd 18ea 00be
00000220: 8162 4ebd 347a 0b3e 3929 093e 7cf9 1cbe
00000230: ac71 493c 1d69 263e 19b9 ffbc e9b7 1e3e
00000240: 47f0 ffbc a023 f13a a80a a73d 548b 0dbe
00000250: 8425 f13d a0ed 3ebd e75e 923c 31f9 2f3d
00000260: a12a 30be 1c05 f53b de35 7d3d 3d58 40ba
00000270: 5837 a73d 5601 223e 69ff e43d 8f20 febd
00000280: 1fc0 cd3d 54d2 50be 2f32 4cbd 32fe 033d
00000290: 56ac 593c 9911 083e 400e 75bc 31e3 61bc
000002a0: 3df7 6e3d 65cc 16be 4d1b 003e 8c4a 553d
000002b0: d26a ee3c c0e9 38be c981 6b3c 2eb2 01be
000002c0: 4c3c 13bc 5130 be3d be35 dcbd c5ad 263e
000002d0: bbfc 4cbd 7eda 94bc a5e8 2f3e fb39 8abd
000002e0: bf33 133e 3a7d 1ebe 464b 553e 7d33 0fbe
000002f0: ebd6 a13d a63a 18be eec7 383d 5bb5 c03d
00000300: 6353 dfbc 58f4 f5bd 4ee0 c0bd 466a 353e
00000310: c30b 3ebe a092 8bbd 4cdf e8bc c03d e0bd
00000320: 88c4 e9bd ff1d 68bc b280 67bd 38f5 3a3e
00000330: 46c7 213e e999 6d3d a84d 0c3d b28f 3abe
00000340: 5dcc bf3d cdc8 003e 9aac b33d e9a2 9f3d
00000350: f513 853d 2e44 26bd 381b 12bd ebc8 233e
00000360: 211e c0bc d858 d3bd 3a10 dfb9 2b7e ac3d
00000370: cb6a d13b 5d25 c3bd 46b5 f5bd e27b 303d
00000380: 9c95 fd3c 3f96 00bd 0f3b f93d bb7a d33d
00000390: ee1f 07bd 53fb e7bb 8eb0 863d 6173 8abe
000003a0: 230c 07be 6410 893d 6f61 f2bd 4687 493d
000003b0: c742 84ba 701b 5d3c b801 a03d 2d3a a3bd
000003c0: 3086 2e3e 115d 443c 4d29 25be 91ff 853d
000003d0: f70a 333b c385 1f3c e25f 0dbe fbd5 0ebd
000003e0: c1dd 933d c924 ca3d 615e 08be 70b0 b7bd
000003f0: 23d9 683c e42e 0a3e d036 133e 713a bd3d
0.04182966 -0.08552781 -0.056968383 -0.06517285 -0.10800633 -0.09254887 -0.083102375 -0.31358147
-0.41405797 0.20091814 -0.07835105 -0.029320044 -0.011520613 0.08440389 0.0031514359 -0.0042661326
0.09329078 -0.018832885 0.09425494 0.025271432 -0.13239944 0.013477507 0.15669388 -0.08250886
0.11495855 0.050292533 0.081459366 0.05190249 0.04019783 -0.11558415 -0.23741472 -0.2645261
0.13876683 -0.0075445273 -0.027380953 0.13335313 -0.009265457 0.11249399 -0.11919159 -0.030553337
-0.11210974 0.13574374 -0.18793967 0.001454698 -0.035304867 0.04833742 -0.030596843 -0.020069541
0.082929656 0.0914874 -0.09508515 0.054474723 -0.09763056 0.1467956 0.076223195 0.2826435
-0.08008731 0.04078784 -0.11800317 -0.29337978 -0.19453181 0.11185205 -0.14279883 0.15633945
0.07929814 0.1918925 0.118653804 -0.09031801 -0.17091818 0.031293582 -0.078123644 -0.071203016
0.16638048 0.028479582 0.04975451 0.030615974 0.09242171 -0.16070473 -0.08329824 0.02248694
0.13429521 -0.10194441 -0.037255514 -0.09114598 0.040717654 -0.058826927 0.13469458 -0.014062872
-0.034828015 -0.10522107 0.100987196 0.11230439 -0.107232556 0.013830355 -0.010779154 -0.039305035
0.14143439 -0.049538415 -0.09764513 -0.04461193 0.026568124 0.044605654 0.13777241 0.08550339
0.052052237 0.008293474 -0.004511268 0.09558399 0.022504238 -0.117061384 0.14903797 -0.012391391
-0.13169773 0.011494152 -0.00424776 -0.12755792 -0.025491431 -0.0043670624 0.043872066 -0.029667163
0.09489482 -0.12734275 0.010583585 -0.004373965 0.08087552 -0.06015703 -0.09568013 0.14379512
0.055159032 0.06971779 -0.061116613 0.07018547 -0.016253516 0.07662435 -0.07160594 -0.125893
-0.05038691 0.13620836 0.13394631 -0.15329546 0.012295168 0.16251035 -0.031216191 0.15499844
-0.031242503 0.0018397458 0.081563294 -0.1382268 0.11774734 -0.046613336 0.017867519 0.042962257
-0.17203762 0.0074774157 0.06181895 -0.0007337367 0.08164853 0.15820822 0.11181528 -0.12408554
0.1004641 -0.20392734 -0.049852546 0.03222484 0.013285717 0.13287963 -0.014957011 -0.013787077
0.058341254 -0.14726408 0.12510414 0.052073047 0.02910367 -0.18057919 0.014374205 -0.12665626
-0.008986544 0.092865594 -0.10752438 0.16277225 -0.05004571 -0.018170591 0.1717859 -0.0674934
0.14375208 -0.15477458 0.20829496 -0.13984485 0.079023205 -0.14866123 0.045112543 0.09409591
-0.027261442 -0.120094955 -0.09417783 0.17716321 -0.18559174 -0.06815076 -0.028426789 -0.10949278
-0.114144385 -0.014167308 -0.056519218 0.18257606 0.15798673 0.05800811 0.034253746 -0.18218878
0.09365151 0.125766 0.087731555 0.077947445 0.06497947 -0.040592365 -0.03567049 0.15994613
-0.023451867 -0.1031968 -0.00042545964 0.08422502 0.0063909045 -0.09528611 -0.11997466 0.043086894
0.030955128 -0.031393286 0.12169468 0.10326143 -0.032989435 -0.0070795207 0.06576644 -0.27041152
-0.13188224 0.066925794 -0.1183499 0.049201272 -0.0010090702 0.013495311 0.07812828 -0.079700805
0.17043376 0.011985079 -0.16129036 0.06542886 0.0027319768 0.009736481 -0.13806108 -0.034872036
0.072200306 0.098702975 -0.13317253 -0.089692 0.014211926 0.1349445 0.14376378 0.092396624

layer_2.bias f4 [32]
00000000: 1671 9fbd bfb3 403e 3c48 b7bd 792e 6bbe
00000010: ff5a ac3e e86a 053e 97b2 e2bd 03e5 873c
00000020: 18b7 ebbd afb4 0bbd 5ed8 8e3d 27cc 893e
00000030: 0dfc b93d f2b6 fc3d 476e dfbd 7881 7ebd
00000040: 5a42 803d b925 063b 2857 18be df92 c73e
00000050: c154 27bd c65b 783c 83e6 9cbe e03d 1cbd
00000060: c36b 49bd 5964 483e ac9d 16be abbc df3e
00000070: 2861 103e 9658 77bd f511 7c3d fb3c 563e
-0.07785241 0.18818568 -0.089493245 -0.22966947 0.33663175 0.13029063 -0.110692196 0.016588693
-0.11509532 -0.03410786 0.069748625 0.26913568 0.09081278 0.123395815 -0.109097056 -0.06213519
0.062626556 0.0020469262 -0.14876997 0.3897924 -0.040852312 0.015158599 -0.30644616 -0.038144946
-0.049175035 0.1956953 -0.14708585 0.4369863 0.14099562 -0.060387217 0.061540563 0.209217

layer_3.weight f4 [1, 32]
00000000: 2990 153f 2932 70be 25b7 a13e dfcc ac3e
00000010: 3097 b0be b2d9 6ebe e745 b03e c567 95be
00000020: 2a36 823e b12f ae3e d565 95be 1477 89be
00000030: 6726 8cbe 7701 8a3e e77f 3a3f c320 8f3e
00000040: 595e bfbe 8a18 a33e ddaf 273f 50f3 b2be
00000050: 90ba 58be c9a6 6dbe 14fe eb3f 7e1b 003f
00000060: 4cd8 873e e8d2 67be 0c4b 3c3f b17b 3b3f
00000070: 5659 c6be 372e 863e f598 87be b3f7 1140
0.58423096 -0.23456635 0.3158504 0.33750054 -0.34490347 -0.23325232 0.3442833 -0.29180732
0.2543195 0.3402076 -0.29179254 -0.26848662 -0.2737305 0.26954243 0.72851413 0.27954683
-0.3737667 0.3185466 0.6550272 -0.34951258 -0.21164918 -0.23208155 1.8436913 0.5004195
0.2653221 -0.22639048 0.7355201 0.73235613 -0.38740033 0.26207134 -0.26483884 2.2807434
