checkpt/isolated/client_2_4.pth (torch, 69463 bytes, 5 tensors)

layer_1.weight f4 [64, 197]
0	0xbd45e419	-0.048313234
1	0xbd70786a	-0.058708586
2	0x3d0932e6	0.033495806
3	0xbd7e8351	-0.06213695
4	0x3d682ad2	0.05668146
5	0xbc9dff92	-0.019286904
6	0xbcaee589	-0.021349685
7	0xbc96fdaf	-0.018431513
8	0x3aeec148	0.0018215561
9	0xbd790c17	-0.060802545
10	0xbd5f4cda	-0.05451665
11	0x3c62e7f1	0.013849244
12	0xbcaa5375	-0.020791749
13	0x3d6a778d	0.05724292
14	0xbc9cc04e	-0.019134667
15	0xbd1faf77	-0.038985696
16	0x3d865b0a	0.06560333
17	0xbc8eb5c4	-0.017420657
18	0xbd589fed	-0.052886892
19	0x3d1b613a	0.03793452
20	0xbd0e7cb3	-0.03478689
21	0xbc28fb41	-0.01031381
22	0x3a9d6ace	0.001200998
23	0xbd369e1f	-0.04458439
24	0x3c76de27	0.015067614
25	0x3d65de72	0.056120344
26	0x3d19d6d0	0.037558377
27	0xbd48f272	-0.04905934
28	0x3c062e8e	0.00818981
29	0x3c34e73d	0.01104146
30	0xbcdd8a7f	-0.02704358
31	0xbd2dee9a	-0.042463876
32	0xbcb3fc56	-0.02197091
33	0x3d461f01	0.04836941
34	0x3d763588	0.060109645
35	0x3ae3c3c1	0.0017377065
36	0xbc1ce5db	-0.009576286
37	0x3d10498d	0.035226393
38	0xbcac268d	-0.021014476
39	0x3d74d5ca	0.059774198
40	0xbd7eb728	-0.06218639
41	0x3c94ae1e	0.018149432
42	0xbc555b00	-0.013022184
43	0xbd116cde	-0.035504214
44	0xbd291c57	-0.041286793
45	0xbd727f48	-0.059203416
46	0x3cc13817	0.023586316
47	0x3b9ba9b8	0.0047504567
48	0x39a0a444	0.00030639966
49	0x3d2ab3c9	0.041675363
50	0x3cf597c7	0.0299796
51	0xbd92596e	-0.071459636
52	0xba8f5dcc	-0.0010937988
53	0xbd1b3a00	-0.03789711
54	0x3ce5090c	0.027958415
55	0x3d5a62a6	0.053316735
56	0xbb1e506b	-0.002415682
57	0xbd823f49	-0.06359727
58	0xbb9cda11	-0.0047867377
59	0x3d88aeb9	0.06673951
60	0xbd200618	-0.03906831
61	0x3d76099e	0.060067765
62	0x3d83456a	0.06409724
63	0xbca8f732	-0.020625684
64	0x3d5e097a	0.054208256
65	0x3d84f7eb	0.06492599
66	0x3d42be87	0.047544982
67	0x3ca42738	0.020038232
68	0xbc8c77d2	-0.017146979
69	0x3d75bd88	0.059995204
70	0xbd16c5b7	-0.03680965
71	0x3d88feeb	0.06689247
72	0x3c98815c	0.01861637
73	0xbbfbf8c0	-0.0076895654
74	0xbd26f14e	-0.04075747
75	0x3c323ef8	0.010879271
76	0xbd2df563	-0.042470347
77	0x3d32cbd3	0.043651413
78	0xbd144913	-0.0362025
79	0x3d2ebf06	0.042662643
80	0x3da847ed	0.08216844
81	0x3dbf2c4b	0.0933462
82	0x3d558658	0.052130073
83	0x3cd56f24	0.026053973
84	0xbd4757c9	-0.048667703
85	0xbcb0740b	-0.021539709
86	0xbc918f66	-0.017768573
87	0x3ca50716	0.02014498
88	0xbd394f7c	-0.045241818
89	0xbc2ea03c	-0.01065832
90	0xbcc92c03	-0.02455712
91	0x3d76af7f	0.06022596
92	0x3d2b7533	0.041859817
93	0xbd466575	-0.0484366
94	0x3d6d5f86	0.057952426
95	0xbb5a0316	-0.0033266
96	0xbcef86a6	-0.02923901
97	0xbd538f0f	-0.051650103
98	0xbd8063a3	-0.06269004
99	0xbd8b1681	-0.06791402
100	0x3d52dc20	0.05147946
101	0x3c51cf48	0.012805767
102	0xbd100095	-0.035156805
103	0xbcfba901	-0.030720236
104	0x3d84ec99	0.0649044
105	0xbc972e77	-0.018454773
106	0x3d7b2be4	0.061321154
107	0xbd19183c	-0.037376627
108	0xbc3ba6f5	-0.01145338
109	0x3ab9b048	0.0014166916
110	0xbd3464b2	-0.044041343
111	0x3d7b1c2d	0.061306167
112	0x3d36c061	0.04461706
113	0x3d018c85	0.03162815
114	0xbd5e2c0f	-0.054241236
115	0xbd3d80c4	-0.04626538
116	0x3cde7b8d	0.027158523
117	0xbad57d18	-0.0016287891
118	0x3d837157	0.06418102
119	0xbcf9fb17	-0.030515237
120	0xbc1df381	-0.009640575
121	0x3d49d20b	0.04927258
122	0xbd713278	-0.05888602
123	0x3d3468bc	0.044045195
124	0x3ce9b7b0	0.028529972
125	0xbd8c55bf	-0.06852292
126	0x3d289940	0.041161776
127	0x3d764446	0.060123704
128	0x3cd53b8d	0.026029373
129	0x3cadd03a	0.021217454
130	0xbcfaeb54	-0.030629791
131	0x3c12743f	0.008938848
132	0x3cdc1fcb	0.026870629
133	0xbd23e98a	-0.040017642
134	0x3ca7cab5	0.0204824
135	0xbd49b62e	-0.049246006
136	0xbc64a18c	-0.013954531
137	0x3c0ba818	0.008523963
138	0xbccc1ded	-0.024916613
139	0xbd679a74	-0.056543782
140	0x3bf40f43	0.0074481084
141	0x3c5dfd38	0.013549142
142	0xbc7b0cbe	-0.015322862
143	0x3c5e1581	0.013554932
144	0xbd2264d3	-0.039646935
145	0x3b89880f	0.0041971277
146	0xbc5658fc	-0.013082739
147	0xbd048637	-0.03235456
148	0x3d6cf0d3	0.057846855
149	0xbd4af824	-0.04955305
150	0x3bc884e4	0.0061193574
151	0x3d6bc253	0.05755837
152	0x3d762e7a	0.060102917
153	0x3d586c80	0.05283785
154	0x3d39b7a7	0.04534116
155	0x3d43c05d	0.047790874
156	0x3d60eb21	0.054911736
157	0xbd162ff9	-0.036666844
158	0xbc315feb	-0.010826091
159	0xbc9269a3	-0.017872637
160	0xbcbfb410	-0.02340129
161	0xbd8b8c45	-0.06813864
162	0xbd909a78	-0.070607126
163	0xbc29bc30	-0.010359809
164	0x3c72783a	0.014799172
165	0x3b781df1	0.0037859643
166	0xbc342a02	-0.010996344
167	0xbd8ac686	-0.067761466
168	0xba2a89c7	-0.0006505516
169	0x3d6b3ae6	0.057429217
170	0xbd4e9bae	-0.050441436
171	0xbb977d30	-0.004623078
172	0xbd482875	-0.048866708
173	0x3c007bb9	0.007841998
174	0xbd6186c7	-0.055060174
175	0x3d61d682	0.05513621
176	0xbb2afeec	-0.0026091887
177	0x39a329aa	0.00031120825
178	0x3ce879ec	0.02837845
179	0x3d3f2be2	0.04667271
180	0xbd2999e5	-0.04140653
181	0xbb8c10d6	-0.004274468
182	0xbcc3b8b1	-0.023891779
183	0xbd8782d7	-0.066167526
184	0x3c96e9d3	0.018422043
185	0x3d0c42a3	0.034243237
186	0xbc79568c	-0.015218388
187	0xbce14b98	-0.027501866
188	0x3d388a86	0.04505398
189	0x3da935f9	0.082622476
190	0xbae0c10b	-0.0017147375
191	0x3d249df6	0.040189706
192	0xbd378ccb	-0.044812005
193	0x3d47a2a0	0.048739076
194	0xbc4492ef	-0.011997922
195	0x3d592df7	0.05302235
196	0x3ccf5010	0.025306731
197	0xbd668d40	-0.05628705
198	0xbcc9000c	-0.024536155
199	0xbd861cbc	-0.065484494
200	0xbc51b9c2	-0.012800636
201	0x3ca298f1	0.019848319
202	0x3d5634aa	0.052296318
203	0x3d3678a7	0.044548657
204	0x3cf72e1d	0.030173356
205	0xbb8b7aab	-0.0042565665
206	0x3d76c544	0.06024672
207	0x396f8184	0.00022841064
208	0x3c4fd4c8	0.012685008
209	0x3d3f9fc5	0.046783227
210	0xbc0984b5	-0.008393456
211	0x3c3e0796	0.011598488
212	0xbd65f981	-0.05614615
213	0xbcc83889	-0.02444102
214	0x3d372189	0.044709716
215	0xbd6e2867	-0.058144
216	0xbd844f2e	-0.06460415
217	0xbd297752	-0.04137356
218	0x3cfbeb15	0.030751744
219	0xbc90716d	-0.01763221
220	0xbd828eca	-0.06374891
221	0x3b8077ae	0.003920517
222	0xbcf7d837	-0.030254466
223	0x3c8192cd	0.01581707
224	0xbbc25470	-0.005930476
225	0x3d87a902	0.066240326
226	0x3d8b1e80	0.06792927
227	0xbcbf79c4	-0.023373492
228	0xbb1b3351	-0.002368171
229	0x3c3131da	0.010815108
230	0x3cbfaf09	0.023398893
231	0xbbb3290b	-0.005467539
232	0x3cb4a26e	0.022050109
233	0x3d31621c	0.043306455
234	0x3d7c5949	0.061608586
235	0xbc090e08	-0.008365162
236	0x3c468830	0.012117431
237	0x3cb43893	0.021999633
238	0xbd828bbd	-0.06374309
239	0xbc11c53d	-0.008897123
240	0x3902c809	0.00012472285
241	0xbd8c88ef	-0.068620555
242	0x3d1ec5f1	0.03876299
243	0x3cbfda29	0.023419457
244	0x3d8fe7ff	0.070266716
245	0xbbf5b66a	-0.007498552
246	0x3d56d604	0.052450195
247	0xbbc016f2	-0.0058621103
248	0xbd0daa81	-0.034586433
249	0x3d8340e5	0.06408862
250	0x3d8c6d9f	0.06856846
251	0x3d9de463	0.07709577
252	0xbd9e576a	-0.07731517
253	0x3d45f077	0.04832503
254	0x3d203b32	0.039118953
255	0x3cf59cd5	0.02998201

layer_1.bias f4 [64]
0	0x3d87506a	0.06607135
1	0x3c043a30	0.008070514
2	0x3c54b5b1	0.012982772
3	0x3c9fb523	0.019495552
4	0xbca15686	-0.019694578
5	0xbd377003	-0.044784557
6	0x3ce0b862	0.02743167
7	0x3c899604	0.016795166
8	0x3c9a9820	0.018871367
9	0xbd8990bd	-0.0671706
10	0xbd7739c3	-0.06035782
11	0xbc6650fe	-0.014057396
12	0x3d2f998c	0.042871043
13	0xbce7e6bb	-0.028308263
14	0xbc9750a2	-0.018471066
15	0xbd8dbfeb	-0.06921371
16	0x3d637276	0.05552908
17	0xbd324126	-0.04351916
18	0x3c78a562	0.015176149
19	0x3d877ddd	0.066158034
20	0x3d1ddd5a	0.038541175
21	0x3c4d6579	0.0125364
22	0x3d86a01e	0.06573509
23	0x3d320a46	0.04346683
24	0xbca2a98e	-0.01985624
25	0xbd83bd9b	-0.06432649
26	0x3d67be3c	0.056577906
27	0x3d8565c3	0.0651355
28	0xbd0721ac	-0.032991096
29	0x3cd6ff24	0.026244707
30	0x3cdad705	0.026713857
31	0x3ccdfe43	0.025145655
32	0xbd923a71	-0.07140053
33	0xbcdb05e4	-0.026736207
34	0xbc844722	-0.0161472
35	0x3c9ab7f1	0.018886538
36	0xbd1f3a26	-0.038873814
37	0xbd536063	-0.051605593
38	0x3d30d770	0.043174207
39	0x3d563ed1	0.052306
40	0xbcd9a078	-0.026565775
41	0x3d825009	0.06362922
42	0x3cb01f9d	0.02149945
43	0xbd225b19	-0.03963766
44	0x3d590e38	0.052992076
45	0xbcd6876c	-0.026187621
46	0x3d044ab1	0.032297794
47	0x3d0c5306	0.034258865
48	0x3cc2bd31	0.023771854
49	0x3d8b7ae9	0.068105526
50	0xbd660498	-0.056156725
51	0x3b1de6f3	0.0024093955
52	0xbc5a7c9d	-0.013335374
53	0x3d85d4c2	0.06534721
54	0x3cf24308	0.029572979
55	0x3d49e2c4	0.049288526
56	0xbd0022af	-0.031283077
57	0x3d0730cd	0.033005524
58	0xbc080c1f	-0.008303671
59	0xbcb16afa	-0.021657456
60	0xbd356034	-0.0442812
61	0x3c04b9be	0.008100925
62	0x3cc0379e	0.02346402
63	0xbbb4f4be	-0.0055223396

layer_2.weight f4 [64, 64]
0	0x3ccacf53	0.024757063
1	0x3d359b8d	0.044337798
2	0x3da80d7a	0.082056955
3	0xbd0eaac0	-0.03483081
4	0xbc6eab99	-0.014567279
5	0x3d9ec3a1	0.07752157
6	0x3c368713	0.011140603
7	0xbc897f92	-0.016784463
8	0xbd2287e2	-0.03968037
9	0x3d2f9ccf	0.042874154
10	0x3d1beb6f	0.038066324
11	0x3ddd84a7	0.10816317
12	0xbc7263af	-0.014794274
13	0xbc9d8819	-0.019229935
14	0x3cc57178	0.024101958
15	0x3de77d0a	0.11303146
16	0x3d583da7	0.05279317
17	0x3c65be05	0.014022355
18	0xbde46abd	-0.11153171
19	0xbd76c565	-0.060246844
20	0x3c245a6c	0.010031324
21	0xbddad013	-0.10684218
22	0xbd48a4be	-0.048985235
23	0xbd1efa0e	-0.03881269
24	0x3d8418c1	0.06450034
25	0xbbff2e19	-0.0077874777
26	0xbcfc6404	-0.03080941
27	0x3dbb8ee3	0.09158113
28	0x3cd67577	0.026179058
29	0xbcb86cce	-0.02251282
30	0x3c8c1b45	0.017102847
31	0x3d83d8f0	0.06437862
32	0x3cf40a77	0.029790146
33	0xbcbc4874	-0.022983767
34	0xbd592a10	-0.05301863
35	0x3dfca1df	0.12335562
36	0xbc4be725	-0.012445246
37	0x3cc5b351	0.024133356
38	0x3c24e57f	0.010064482
39	0xbbdb9372	-0.0067009265
40	0x3cdb38a8	0.026760414
41	0xbca1b898	-0.019741341
42	0xbd8313d5	-0.06400267
43	0xbcf2255f	-0.029558836
44	0xbdd86fb3	-0.1056818
45	0x3df67bee	0.120353565
46	0xbbb3bb1c	-0.0054849517
47	0xbdf78a3c	-0.12086913
48	0x3dd48ea1	0.10378767
49	0x3dd78ca3	0.10524871
50	0x3dc07359	0.09397001
51	0x3c7c3633	0.0153937815
52	0x3d979582	0.07401563
53	0x3b5fde11	0.0034159462
54	0xbda40a1f	-0.08009743
55	0xbd9baa5f	-0.07600855
56	0xbda67222	-0.08127238
57	0xbda05003	-0.07827761
58	0xbdaa9e47	-0.0833097
59	0x3dd1dcf3	0.10247221
60	0xbd8deeaa	-0.06930287
61	0xbdf9e542	-0.122019306
62	0xbd9f5337	-0.07779544
63	0xbb1ee914	-0.0024247812
64	0x3c40e933	0.011774349
65	0xbdb5ba44	-0.08873418
66	0x3debb655	0.115093865
67	0xbcff15f7	-0.031138403
68	0x3d21b994	0.03948362
69	0x3d84cef4	0.06484786
70	0xbd6eabb5	-0.05826922
71	0x3c823606	0.015894901
72	0x3d94a599	0.07258148
73	0x3d3ff0c5	0.046860475
74	0x3c5e2b41	0.013560117
75	0xbdf500e0	-0.119630575
76	0x3d03cf87	0.032180335
77	0x3de8dae9	0.11369879
78	0x3c6007cb	0.013673733
79	0x3db480e5	0.08813647
80	0xbde18996	-0.110125706
81	0xbdf3678b	-0.11884984
82	0xbd98ec41	-0.07466937
83	0x3dd356ed	0.10319314
84	0xbdbab15d	-0.091158606
85	0x3c720f97	0.014774225
86	0xbbe1de69	-0.0068929684
87	0x3da43b61	0.08019138
88	0x3d92a854	0.07161012
89	0xbd3d0a21	-0.046152238
90	0xbd75f64a	-0.060049333
91	0xbddf04e9	-0.108896084
92	0xbde5923b	-0.11209532
93	0xbdc702a2	-0.09717299
94	0x3d0b7d6d	0.034055162
95	0x3cdee83b	0.027210345
96	0xbcd06ede	-0.02544349
97	0x3c8fb845	0.017543921
98	0x3ddcb7db	0.10777255
99	0xbdbb25ff	-0.091381066
100	0xbd01085f	-0.031502124
101	0xbc857813	-0.016292607
102	0xbd87d2e7	-0.06632023
103	0x3c8e56f7	0.017375452
104	0x3dd9f4e8	0.10642415
105	0xbd429e3a	-0.047514178
106	0x3cfbb7b2	0.030727241
107	0xbdb82f85	-0.08993439
108	0xba709c10	-0.00091785286
109	0x3dc2fa01	0.09520341
110	0xbd9ce140	-0.076601505
111	0x3d95eb81	0.073203094
112	0xbcd9dc3c	-0.026594274
113	0x3d2fb837	0.04290029
114	0x3e043e14	0.12914306
115	0xbdace932	-0.08442916
116	0x3d69abfc	0.057048783
117	0x3d4413f8	0.047870606
118	0x3d50794b	0.050896924
119	0x3e04d2ae	0.12970993
120	0xbdf06ed5	-0.117398895
121	0xbd482143	-0.048859846
122	0x3dce667c	0.10078141
123	0xbd0a193f	-0.033715483
124	0x3dc77391	0.097388394
125	0xbd1541ae	-0.03643959
126	0x3ddf51af	0.10904252
127	0xbcd89c3a	-0.026441682
128	0x3d9e3ec4	0.07726815
129	0x3d61bdbb	0.05511258
130	0xbd04d1dd	-0.032426704
131	0x3ddfbcea	0.109247044
132	0x3c0073af	0.007840081
133	0xbd035892	-0.03206689
134	0x3d0d2d9f	0.034467336
135	0x3c900689	0.017581241
136	0xbc4fdc98	-0.012686871
137	0xbda8904d	-0.08230648
138	0xbd6a3d3f	-0.057187315
139	0xbc293648	-0.010327883
140	0x3db61cfe	0.088922486
141	0x3dbd571a	0.09245129
142	0xbde1b3ff	-0.1102066
143	0xbd188cbf	-0.0372436
144	0xbcbe97d0	-0.02326575
145	0x3dd9d2c2	0.10635902
146	0xbc1431f3	-0.009045112
147	0x3d51bce4	0.05120553
148	0x3e140240	0.14453983
149	0xbd2bbd17	-0.041928377
150	0x3c9876bc	0.018611304
151	0x3d64636c	0.05575888
152	0xbd1df306	-0.038561843
153	0xbcf4b5a2	-0.029871766
154	0x3d2fb194	0.04289396
155	0xbd54b0ea	-0.05192653
156	0xbdc7c44d	-0.09754238
157	0xbb90684e	-0.0044069653
158	0xbd952ef1	-0.07284344
159	0xbdea59e4	-0.114429265
160	0x3d21ced8	0.039503902
161	0x3c464432	0.01210122
162	0xbd8a037b	-0.06738945
163	0x3bb71d2b	0.005588194
164	0x3d2f5e9d	0.04281484
165	0xbd4b8029	-0.04968277
166	0xbd866433	-0.0656208
167	0xbce2ed72	-0.027701113
168	0xbd8171f2	-0.063205615
169	0xbdaadaf9	-0.08342547
170	0x3dcfb19f	0.101413004
171	0xbd1cedd3	-0.038312744
172	0x3e143a6a	0.14475408
173	0x3d347a45	0.044061918
174	0xbd28c042	-0.041198976
175	0xbc7625e5	-0.015023683
176	0x3d34fd55	0.04418691
177	0x3a44180a	0.0007480389
178	0x3d16dc45	0.03683116
179	0x3d862c6f	0.06551444
180	0xbbae821f	-0.0053255702
181	0x3db9c22b	0.09070238
182	0xbdd62d6f	-0.104578845
183	0xbcf86ec4	-0.030326255
184	0x3e18f395	0.14936669
185	0x3de8ad28	0.11361152
186	0x3c65fc3d	0.014037189
187	0xbdc42973	-0.09578218
188	0xbdf528bd	-0.11970661
189	0x3d16611c	0.036713704
190	0x3d858c6b	0.06520923
191	0xbdc90a23	-0.098163866
192	0xbd90f5a1	-0.070781
193	0xbd1cf2e0	-0.03831756
194	0xbd860668	-0.06544191
195	0xbd87ba42	-0.06627323
196	0x3d29129e	0.04127752
197	0x3dcd8b6e	0.1003636
198	0xbd1e3d9a	-0.038632967
199	0xbd403fe5	-0.046935935
200	0x3d9724a1	0.07380033
201	0xbd039229	-0.03212181
202	0x3d09370e	0.03349977
203	0xbdef0411	-0.116706975
204	0x3cf4f1d2	0.029900465
205	0x3c970d86	0.018439066
206	0xbd9af00a	-0.07565315
207	0x3d968660	0.07349849
208	0xbb93adfe	-0.0045068255
209	0x3d957918	0.072984874
210	0x3ddcbb09	0.107778616
211	0xbd2ea3e4	-0.042636767
212	0x3d2e8ebd	0.042616595
213	0x3d993e9a	0.074826434
214	0x3dcf4209	0.10120017
215	0x3e0034d3	0.12520151
216	0x3d8af310	0.06784642
217	0x3d926691	0.07148469
218	0x3de90212	0.11377348
219	0xbdd99183	-0.10623457
220	0xbdd75c13	-0.10515609
221	0x3dd2bbbe	0.10289715
222	0x3db6a5d9	0.08918352
223	0x3cd8c7ab	0.026462397
224	0xbdb20913	-0.08693137
225	0x3c998fc1	0.018745305
226	0x3c9de49a	0.019274045
227	0xbc8b0fc4	-0.016975291
228	0x3d06e829	0.03293625
229	0xbbe6e9a2	-0.007046894
230	0xbdc5ec7b	-0.09664246
231	0x3dadb64f	0.08482038
232	0x3d9e478c	0.0772849
233	0x3dddc128	0.10827857
234	0xbde219ab	-0.11040052
235	0x3da6bd67	0.081415944
236	0x3d989393	0.074500225
237	0x3c1b5c95	0.0094825225
238	0x3d8152ad	0.06314597
239	0xbdd904ef	-0.10596644
240	0x3c3e0d80	0.011599898
241	0x3dd45579	0.10367865
242	0xbdc9fe56	-0.09862964
243	0xbd5d4cd5	-0.05402835
244	0xbd803ed7	-0.06261986
245	0xbd04c7a8	-0.03241697
246	0xbdc67291	-0.096898206
247	0x3dce22f2	0.10065259
248	0xbde983af	-0.1140207
249	0x3d78445f	0.06061208
250	0x3e001928	0.12509596
251	0xbdbde749	-0.0927263
252	0x3d912114	0.07086387
253	0xbdb6faae	-0.08934532
254	0xbdb334fc	-0.0875034
255	0x3d4610b7	0.048355784

layer_2.bias f4 [64]
0	0x3d966243	0.07342961
1	0x3d629361	0.055316333
2	0xbca338d8	-0.019924566
3	0x3dc7b9a6	0.097522065
4	0x3e061cbe	0.13096902
5	0x3d10e734	0.035376742
6	0xbcff44a3	-0.031160658
7	0xbca6cac4	-0.020360358
8	0xbd72514e	-0.05915957
9	0xbdd637a4	-0.10459831
10	0xbd0e5647	-0.03475025
11	0x3d76348f	0.060108718
12	0xbd99d794	-0.075118214
13	0xbdc1b6b3	-0.09458675
14	0x3d83f96e	0.06444059
15	0x3d32fb5c	0.043696746
16	0xbce5a63d	-0.02803337
17	0x3db37c43	0.087639354
18	0xbcf2414c	-0.029572152
19	0x3dd972dc	0.10617611
20	0x3dc752fd	0.09732626
21	0x3d84ae5b	0.06478568
22	0xbda9b60b	-0.08286675
23	0x3cdfa7fa	0.027301777
24	0xbd7e7896	-0.06212672
25	0x3e1a6aae	0.15079758
26	0xbdbdda5d	-0.09270165
27	0x3d378a42	0.044809587
28	0x3bf00757	0.0073250937
29	0x3d9feff1	0.07809437
30	0xb7814bfd	-1.5413383e-05
31	0xbcb93ecf	-0.022612957
32	0x3d9305ed	0.07178865
33	0xbdd73524	-0.10508183
34	0x3ddce709	0.10786254
35	0xbd6e64e1	-0.058201674
36	0xbdfb0ee4	-0.122586995
37	0xbe02419b	-0.12720339
38	0xbd1c27e0	-0.038123965
39	0x3dd3e0ca	0.103456095
40	0x3c22bad6	0.0099322405
41	0x3d1dd551	0.038533513
42	0x3e117702	0.14205554
43	0xbde5bb95	-0.11217419
44	0x3c54d8fd	0.012991187
45	0x3d3ee410	0.046604216
46	0x3d809f4b	0.06280383
47	0x3de29c49	0.11064965
48	0xbd0df17d	-0.03465413
49	0x3de487fa	0.11158748
50	0x3ce5e2cd	0.028062249
51	0x3d68b731	0.05681533
52	0xbdfb38fb	-0.122667275
53	0xbd3ffe9e	-0.04687368
54	0x3da25a51	0.07927383
55	0xbc9c05a8	-0.019045666
56	0x3d3a18f2	0.045433946
57	0x3d9b4e1a	0.07583256
58	0x3b41a306	0.0029546632
59	0x3d3ab337	0.04558107
60	0xbcc7723d	-0.024346465
61	0xbd0e3152	-0.034715004
62	0x3d5c6af5	0.05381294
63	0xbddc1284	-0.10745719

layer_3.weight f4 [1, 64]
0	0xbc234cb2	-0.009967016
1	0xbdef9420	-0.116981745
2	0x3e17bad9	0.1481737
3	0xbe17f350	-0.1483891
4	0xbd8f428d	-0.069951154
5	0x3b907d17	0.004409443
6	0x3e91e6f3	0.28496513
7	0x3db549ab	0.08851942
8	0x3d057e31	0.03259105
9	0x3c4caaec	0.012491923
10	0x3db3a6d7	0.087720565
11	0x3c40eeeb	0.0117757125
12	0x3d60c5e4	0.054876223
13	0xbc93e13d	-0.018051738
14	0xbdb5c5a1	-0.08875585
15	0x3d979876	0.074021265
16	0x3dc0d8ee	0.09416376
17	0xbdd516d5	-0.104047455
18	0xbd5c3722	-0.053763516
19	0xbdf4460a	-0.119274214
20	0x3d862d1c	0.06551573
21	0xbcc5a61d	-0.02412706
22	0x3d074d5c	0.03303276
23	0xbdec6798	-0.115431964
24	0x3deab82b	0.114609085
25	0xbe8682f1	-0.26271775
26	0x3c47e996	0.012201687
27	0x3c646dad	0.013942164
28	0x3dd0c275	0.1019334
29	0xbe2af6f9	-0.16695775
30	0x3dc9dac9	0.09856183
31	0x3dfb8787	0.12281709
32	0x3e414325	0.1887327
33	0xbd8f012f	-0.06982648
34	0xbce3ffa3	-0.027831858
35	0x3d6b4113	0.057435106
36	0xbd899a14	-0.06718841
37	0xbda4aff6	-0.080413744
38	0x3d9d43e8	0.07678968
39	0xbe209d49	-0.15685
40	0xbdf45562	-0.11930348
41	0x3d90591b	0.070482455
42	0xbe19179d	-0.14950414
43	0x3b23fdc2	0.0025023078
44	0x3d99ebe7	0.07515698
45	0x3e1d09eb	0.15335815
46	0x3b69acc6	0.003565596
47	0x3e550328	0.20801985
48	0x3d4c2640	0.049841166
49	0xbda0ebd8	-0.078574836
50	0x3d710901	0.058846477
51	0x3db3c3f7	0.08777612
52	0x3d4609b5	0.0483491
53	0xbd11447a	-0.035465695
54	0xbb5dac4b	-0.0033824618
55	0x3d03ad53	0.032147717
56	0x3e817378	0.25283408
57	0xbdd2fb14	-0.103017956
58	0x3d9891ff	0.074497215
59	0x3d56d992	0.052453585
60	0x3d11a384	0.03555633
61	0xbcf0dda3	-0.02940256
62	0xbce58d6c	-0.028021537
63	0x3dee2d92	0.116297856
