checkpt/isolated/client_1_1.pth (torch, 69463 bytes, 5 tensors)

layer_1.weight f4 [64, 197]
0.022407643 -0.004185092 -0.013891013 0.05463845 0.03526527 0.028764606 0.007508596 -0.020623269
-0.010468745 0.033924993 -0.064027354 0.009073357 -0.022005443 0.0595148 0.050238743 0.053545877
-0.0021063015 -0.061755855 -0.008783065 -0.059209567 0.052020065 0.049735516 -0.0135426745 0.052183915
-0.050022118 -0.040375937 -0.063960254 0.027301721 0.05033936 0.0542594 0.018916463 0.06342215
-0.015699845 0.039688516 -0.0024109809 -0.016243719 0.006581587 0.02267167 0.06549252 -0.06523336
0.068005465 0.010193755 0.037587658 -0.008796471 -0.057438947 0.0070193387 -0.07097209 0.031471454
0.0036265424 0.054264627 -0.008730139 0.06559761 0.004399126 0.0105553465 -0.002324551 0.06364362
0.010994032 -0.05029513 0.03163491 0.0034951046 0.008904546 -0.029716302 -0.053828634 -0.009358258
-0.0021873638 0.049450442 -0.050966166 -0.007840149 0.068520814 -0.036194287 0.022231124 0.026708007
-0.054607783 0.05955685 -0.033039548 0.029963933 -0.052859448 0.033218026 0.034744997 -0.05948473
0.021589989 -0.04359031 0.0024206974 -0.04878699 0.050359428 0.026111271 -0.016425211 -0.06586801
-0.023097768 -0.014996307 -0.05591434 -0.06286039 -0.040400386 -0.05939169 -0.07168392 0.049984343
-0.0402198 0.06846394 -0.023773635 0.035150856 -0.012172043 0.0074541066 0.03962656 -0.05665717
-0.011843827 -0.0583717 0.060162075 -0.052468363 0.034812067 -0.023716431 -0.06453544 0.05191726
0.009609436 0.028367272 -0.03514997 -0.019358683 -0.012091856 -0.052998763 0.011133875 -0.066369824
0.05726157 0.020750238 -0.00558265 0.060141183 -0.013221495 0.015970012 0.06410036 -0.060861234
0.040859558 -0.04707452 -0.060632546 0.06358735 -0.05814098 0.023846773 -0.061492473 -0.03274223
-0.051870942 -0.03364961 -0.054119952 -0.06751595 0.024733672 3.2931566e-06 -0.034883462 0.031073079
-0.026059117 0.014248477 0.05515588 -0.03027251 0.0112038525 -0.014511147 0.05558982 -0.009478743
-0.036936413 0.065800175 0.023342418 -0.043045282 0.031503614 -0.009886944 0.05438797 0.062453017
0.018458132 0.06261094 -0.024425503 0.03042466 0.022425035 0.03928391 -0.025150694 -0.0013236223
0.0022827664 0.05948693 -0.0016102336 0.06992502 0.010235596 0.06539138 0.06102158 0.06418859
-0.047281787 0.059907716 0.06697611 -0.015834777 -0.053491965 0.06899206 -0.049901266 0.014082409
0.0380785 0.0690868 -0.07076671 -0.040832266 -0.050684527 0.04005107 -0.029272089 0.06036494
0.05426595 -0.016430542 -0.061341546 0.008297533 -0.033262033 -0.07072242 -0.047616865 -0.0037742076
0.046507273 -0.06224612 0.016140148 0.029822642 0.029070156 0.05059828 0.036046162 -0.06103443
0.011827637 -0.049389973 0.012304403 0.034725994 0.02220469 0.071063615 -0.033250723 -0.05876911
0.04866702 0.011038106 -0.043507475 -0.049514532 -0.004881825 -0.015113943 -0.001840875 0.05721207
-0.025175557 -0.006623976 -0.032761045 -0.048351053 0.034642886 -0.029571753 0.049273223 0.052090943
0.0015216857 -0.026709108 -0.023576755 -0.056113668 -0.05453269 0.008838329 0.006495845 0.07038785
0.010457476 -0.018815048 -0.044456545 0.012753111 0.014285544 0.04492415 -0.026169406 -0.05754909
-0.027501628 0.049040653 0.03474349 0.029795416 -0.07068372 -0.028777476 0.007891239 0.021436146
00000000: 3c90 b73c 1923 89bb 2297 63bc 91cc 5f3d
00000010: 5172 103d c0a3 eb3c ab0a f63b 21f2 a8bc
00000020: 1985 2bbc eff4 0a3d c620 83bd 6ba8 143c
00000030: c244 b4bc cac5 733d 24c7 4d3d ec52 5b3d
00000040: e009 0abb b5f3 7cbd d8e6 0fbc bb85 72bd
00000050: fe12 553d 78b7 4b3d 18e2 5dbc cdbe 553d
00000060: fee3 4cbd 3d61 25bd 98fd 82bd dca7 df3c
00000070: a530 4e3d 1b3f 5e3d b3f6 9a3c 79e3 813d
00000080: f69c 80bc 6d90 223d 8c01 1ebb 8c11 85bc
00000090: 5aaa d73b f0b9 b93c f120 863d 1199 85bd
000000a0: 7346 8b3d b503 273c 84f5 193d 131f 10bc
000000b0: 1a45 6bbd 7b02 e63b d159 91bd 36e8 003d
000000c0: 49ab 6d3b 9644 5e3d db08 0fbc 0a58 863d
000000d0: 8b26 903b 55f0 2c3c 7f57 18bb 9657 823d
000000e0: 5020 343c 4402 4ebd 9b93 013d 200e 653b
000000f0: 5fe4 113c 9a6f f3bc 6a7b 5cbd 6153 19bc
00000100: e059 0fbb 8c8c 4a3d e6c1 50bd f873 00bc
00000110: a454 8c3d 7640 14bd 0c1e b63c c0ca da3c
00000120: 69ac 5fbd e2f1 733d 7a54 07bd ec76 f53c
00000130: 2683 58bd a00f 083d c550 0e3d 43a6 73bd
00000140: 7ddd b03c c18b 32bd 90a4 1e3b ded4 47bd
00000150: b045 4e3d 4ee7 d53c 2a8e 86bc cfe5 86bd
00000160: 8837 bdbc 12b3 75bc 6f06 65bd f3bc 80bd
00000170: e07a 25bd b344 73bd 05cf 92bd 62bc 4c3d
00000180: 84bd 24bd d236 8c3d edc0 c2bc 58fa 0f3d
00000190: 406d 47bc 9441 f43b 764f 223d 5911 68bd
000001a0: 9c0c 42bc 2a17 6fbd 826c 763d 11e9 56bd
000001b0: 1997 0e3d f648 c2bc 282b 84bd 31a7 543d
000001c0: e570 1d3c 7b62 e83c 6af9 0fbd 1a96 9ebc
000001d0: ec1c 46bc 3b15 59bd db6a 363c e7ec 87bd
000001e0: 1c8b 6a3d 67fc a93c aaee b6bb 9a56 763d
000001f0: f89e 58bc 8bd3 823c 0d47 833d a149 79bd
00000200: 5a5c 273d 36d1 40bd d559 78bd 163a 823d
00000210: 3c25 6ebd 4f5a c33c 88df 7bbd b71c 06bd
00000220: a076 54bd 2cd4 09bd e2ac 5dbd cd45 8abd
00000230: 459e ca3c 0000 5d36 f6e1 0ebd f88c fe3c
00000240: ee79 d5bc 7272 693c 22eb 613d 0efe f7bc
00000250: 5d90 373c 29c0 6dbc 27b2 633d bb4c 1bbc
00000260: a34a 17bd 3ec2 863d 9938 bf3c 4050 30bd
00000270: ef09 013d d9fc 21bc ecc5 5e3d bcce 7f3d
00000280: 8235 973c 2a3a 803d fe17 c8bc 233d f93c
00000290: b5b4 b73c 2ae8 203d d408 cebc 657d adba
000002a0: 779a 153b 91a8 733d 790e d3ba d934 8f3d
000002b0: 34b3 273c eaeb 853d c4f1 793d 4f75 833d
000002c0: 8caa 41bd cb61 753d c52a 893d efb7 81bc
000002d0: 641a 5bbd b64b 8d3d 4565 4cbd e8b9 663c
000002e0: 34f8 1b3d 617d 8d3d 23ee 90bd bc3f 27bd
000002f0: 949a 4fbd 970c 243d 05cc efbc 3a41 773d
00000300: f945 5e3d 5899 86bc 4641 7bbd 60f2 073c
00000310: c53d 08bd ebd6 90bd e709 43bd b258 77bb
00000320: 697e 3e3d caf5 7ebd 5838 843c 9d4e f43c
00000330: 8924 ee3c 2440 4f3d 24a5 133d 3dff 79bd
00000340: b5c8 413c 244d 4abd 6898 493c d83c 0e3d
00000350: 9ce6 b53c cd89 913d e931 08bd e1b7 70bd
00000360: 1257 473d 2cd9 343c e534 32bd c0cf 4abd
00000370: b7f7 9fbb 79a0 77bc 8449 f1ba 3457 6a3d
00000380: f83c cebc f00d d9bb 7230 06bd c10b 46bd
00000390: b3e5 0d3d 7640 f2bc b8d2 493d 505d 553d
000003a0: 4d73 c73a 0fcd dabc 0a24 c1bc 72d7 65bd
000003b0: ac5d 5fbd a4ce 103c 19db d43b 8127 903d
000003c0: d555 2b3c 0422 9abc 1118 36bd 6df2 503c
000003d0: ea0d 6a3c 6302 383d 3961 d6bc 98b8 6bbd
000003e0: 184b e1bc dade 483d 314f 0e3d 8415 f43c
000003f0: a0c2 90bd bebe ebbc 414a 013c db9a af3c

layer_1.bias f4 [64]
-0.055269454 -0.035655648 0.0685862 0.0017164191 -0.017044587 0.015090003 -0.062405594 -0.05514476
0.040600024 -0.00025512866 0.03105756 -0.023918647 -0.010289876 -0.011804678 -0.00031755381 -0.043834563
-0.02830507 -0.03472356 -0.038841117 -0.03240428 -0.058170706 0.01634667 0.009044494 0.055830147
0.026453417 -0.05437567 -0.049389508 -0.026434802 0.030333731 0.0043145465 0.01673886 -8.078664e-05
-0.01971358 -0.024601106 0.015741326 -0.00042021356 -0.00014608656 -0.063961424 -0.020655226 -0.015385146
0.014034289 -0.022104912 0.038877442 0.046933025 -0.017241618 -0.055730186 -0.025673341 -0.031703137
-0.06591579 -0.010326512 -0.0421508 -0.032581024 0.0055746906 0.0761052 -0.05599372 -0.06506081
0.07128053 0.018905886 0.0011010307 -0.059970383 -0.0147169465 -0.04774677 -0.013168306 -0.0013175831
00000000: 3962 62bd a80b 12bd ec76 8c3d 78f9 e03a
00000010: 17a1 8bbc 0f3c 773c 029d 7fbd 79df 61bd
00000020: 364c 263d cac2 85b9 6d6c fe3c 0af1 c3bc
00000030: de96 28bc 6868 41bc 5a7d a6b9 df8b 33bd
00000040: 09e0 e7bc 4b3a 0ebd dd17 1fbd 5aba 04bd
00000050: 6844 6ebd 74e9 853c 5b2f 143c 27ae 643d
00000060: d6b4 d83c 06b9 5ebd a74c 4abd cc8d d8bc
00000070: 727e f83c 0a61 8d3b ef1f 893c ff6b a9b8
00000080: 607e a1bc 4288 c9bc f4f3 803c 1c50 dcb9
00000090: d02e 19b9 35fe 82bd 2635 a9bc fb11 7cbc
000000a0: 13f0 653c 5c15 b5bc f43d 1f3d d83c 403d
000000b0: 4b3e 8dbc 5645 64bd e650 d2bc 26db 01bd
000000c0: dcfe 86bd 8830 29bc 51a6 2cbd ae73 05bd
000000d0: e5ab b63b 0bdd 9b3d ac59 65bd 9a3e 85bd
000000e0: 87fb 913d 84e0 9a3c 7650 903a 81a3 75bd
000000f0: 591f 71bc 1e92 43bd e1bf 57bc c1b2 acba

layer_2.weight f4 [64, 64]
0.04863928 0.03171044 0.10985808 -0.07472454 0.0053906688 -0.06311026 -0.06659747 0.009318486
0.008249802 -0.06472591 0.0312386 0.10078635 -0.079113185 -0.11624101 -0.09231821 -0.12310888
0.040404685 -0.089639835 0.096602544 0.11110145 0.076631635 -0.0013930541 -0.0070085907 0.075818025
-0.10832141 0.09218683 -0.052764133 -0.06930884 -0.008974454 -0.021033762 -0.112867564 0.07269046
0.062930115 0.011213084 0.00041576134 -0.02104587 -0.020162946 0.08650501 -0.052320305 0.10345841
0.01128531 -0.028842688 -0.110636294 0.113183066 -0.075937495 -0.08504361 0.11817268 -0.09088389
0.041981947 -0.06575469 -0.09576856 0.027797615 0.05532695 -0.0723106 -0.06712486 -0.10207727
0.047125597 0.11012002 -0.020826455 0.0303027 -0.0938221 -0.0014378665 -0.099651836 0.055462837
-0.12617111 -0.0056669856 -0.017105801 0.028276034 -0.08203453 0.09670094 -0.009963367 -0.05020797
-0.066122435 0.04289355 -0.06891523 -0.044933487 -0.08854214 0.11524388 0.12878945 0.06984603
0.04216584 0.03385786 0.070341796 -0.05579892 0.10536224 0.08577645 0.096476406 -0.04601222
0.011487841 -0.01630746 0.09055811 0.1317094 0.1218254 -0.05768008 0.038238946 0.12342704
0.031201633 0.0017891455 -0.024801062 0.030699298 0.07728552 0.0753658 -0.06755407 0.002517262
-0.05660734 -0.017844608 0.02785467 0.09524725 0.072082765 -0.10721583 -0.024587667 -0.052105013
-0.082376935 0.10275328 -0.07438101 0.07784921 0.023638338 -0.015590598 -0.020542039 0.06736154
0.112877205 0.024873119 -0.0981805 -0.11736155 0.10310324 -0.11006156 0.13650395 -0.033654075
-0.017322984 -0.061336685 0.07357316 -0.07229744 0.065587685 0.07263552 0.11617385 -0.11582137
-0.096858576 -0.005975066 -0.09922559 -0.069411896 0.1248303 -0.12000469 -0.027985271 0.104935996
0.026407292 -0.111314006 -0.060593933 -0.101956144 -0.09132106 -0.093178794 -0.045999322 -0.023665247
0.04356449 -0.0020984136 -0.07696432 -0.07831403 -0.017001105 0.048488323 -0.06771507 -0.05079676
-0.032301094 0.02913171 -0.0076988596 -0.010798148 0.1178339 -0.08317926 0.036540274 -0.111492746
-0.026981851 0.0020426994 0.10481754 -0.07513176 0.056619518 0.059041526 -0.01591524 -0.0510362
-0.021097926 0.1211063 0.047289208 -0.04515881 0.051639277 -0.104170315 -0.08927665 -0.013238834
-0.0031652048 -0.11568172 0.0981301 -0.07554694 -0.102414586 0.010810148 -0.051140796 -0.0051393406
-0.035423674 -0.112390496 -0.053852573 -0.008333281 -0.08545532 0.014827013 0.0145699745 0.12527665
0.0682261 -0.11530168 0.025077749 -0.03240111 0.1006152 -0.0006401373 0.08750112 0.008957888
-0.02023113 0.12402582 0.0049631908 0.0051209223 -0.044289712 -0.08167055 -0.00087047723 -0.049715757
-0.07329656 -0.1145929 0.07127392 -0.09140175 0.07739477 -0.06492232 -0.033119783 -0.09012598
0.11154249 -0.09606536 0.10403888 -0.1088801 -0.107381426 -0.09193949 -0.0060967137 -0.09074751
0.10772878 -0.0076918053 -0.058175642 -0.027684523 0.10503929 -0.119411774 0.046955634 -0.055101186
-0.009728997 0.08571106 -0.112199716 -0.03550251 0.020543009 0.054181185 -0.0997796 -0.016482187
-0.098734595 -0.12126117 0.069098935 0.004613841 0.11215863 0.007980849 0.057229336 0.08895857
00000000: fb39 473d cee2 013d 46fd e03d 2e09 99bd
00000010: 35a4 b03b f43f 81bd 4164 88bd 90ac 183c
00000020: 2d2a 073c 058f 84bd 18e8 ff3c 1369 ce3d
00000030: 1806 a2bd c40f eebd 5411 bdbd 8220 fcbd
00000040: 627f 253d 1795 b7bd 8ed7 c53d 2889 e33d
00000050: 0cf1 9c3d 2497 b6ba 52a8 e5bb 7b46 9b3d
00000060: 9ed7 ddbd 73cc bc3d 341f 58bd cbf1 8dbd
00000070: 9709 13bc ff4e acbc 1c27 e7bd bcde 943d
00000080: 81e1 803d 15b7 373c 8bfa d939 6368 acbc
00000090: c32c a5bc 8a29 b13d d14d 56bd 01e2 d33d
000000a0: 05e6 383c 8047 ecbc 4895 e2bd 86cc e73d
000000b0: 1e85 9bbd 582b aebd 8504 f23d 5521 babd
000000c0: 43f5 2b3d 65aa 86bd 4f22 c4bd d3b7 e33c
000000d0: 839e 623d 9417 94bd c278 89bd e30d d1bd
000000e0: c506 413d 9b86 e13d 3e9c aabc 5e3d f83c
000000f0: cd25 c0bd cb76 bcba 4316 ccbd 002d 633d
00000100: 0033 01be 1fb2 b9bb 7721 8cbc 24a3 e73c
00000110: b801 a8bd 240b c63d 643d 23bc dfa6 4dbd
00000120: 336b 87bd 26b1 2f3d 6e23 8dbd 2d0c 38bd
00000130: 9555 b5bd fc04 ec3d 62e1 033e 6f0b 8f3d
00000140: 16b6 2c3d 8aae 0a3d 5c0f 903d 698d 64bd
00000150: 28c8 d73d 90ab af3d 6c95 c53d 4f77 3cbd
00000160: 7f37 3c3c 3997 85bc 8876 b93d d4de 063e
00000170: 987f f93d f341 6cbd 71a0 1c3d 51c7 fc3d
00000180: 919a ff3c c381 ea3a 992b cbbc 187d fb3c
00000190: df47 9e3d 6259 9a3d ca59 8abd a6f8 243b
000001a0: 19dd 67bd db2e 92bc 7a2f e43c fd10 c33d
000001b0: 21a0 933d f993 dbbd 136c c9bc 116c 55bd
000001c0: 3db5 a8bd 5070 d23d 1255 98bd 686f 9f3d
000001d0: 30a5 c13c b56f 7fbc c747 a8bc d9f4 893d
000001e0: 2a2c e73d b6c2 cb3c dc12 c9bd 415b f0bd
000001f0: cb27 d33d f567 e1bd b1c7 0b3e dbd8 09bd
00000200: eee8 8dbc 2d3c 7bbd 86ad 963d ae10 94bd
00000210: d652 863d eec1 943d 8eec ed3d c133 edbd
00000220: ca5d c6bd 7dca c3bb c936 cbbd d327 8ebd
00000230: 07a7 ff3d 05c5 f5bd 5e41 e5bc afe8 d63d
00000240: 1b54 d83c 99f8 e3bd 5831 78bd 62ce d0bd
00000250: 8906 bbbd 86d4 bebd c969 3cbd 9fdd c1bc
00000260: ae70 323d 8a85 09bb 789f 9dbd 1b63 a0bd
00000270: e745 8bbc b19b 463d 33ae 8abd 4310 50bd
00000280: 274e 04bd a0a5 ee3c b746 fcbb b7ea 30bc
00000290: e652 f13d e359 aabd 41ab 153d 4f56 e4bd
000002a0: 0b09 ddbc cfde 053b 94aa d63d aede 99bd
000002b0: dee9 673d 87d5 713d ad60 82bc 560b 51bd
000002c0: 8fd5 acbc 9406 f83d 54b2 413d 72f8 38bd
000002d0: b583 533d 3f57 d5bd add6 b6bd b2e7 58bc
000002e0: 536f 4fbb 8aea ecbd 6ff8 c83d 5bb8 9abd
000002f0: bdbe d1bd 0c1d 313c 0379 51bd ea67 a8bb
00000300: 6a18 11bd fd2c e6bd 8494 5cbd 5088 08bc
00000310: 3303 afbd 00ed 723c e7b6 6e3c 8648 003e
00000320: 20ba 8b3d 4a23 ecbd da6f cd3c 07b7 04bd
00000330: 580f ce3d e3ce 27ba ca33 b33d 1bc4 123c
00000340: c1bb a5bc 4001 fe3d 43a2 a23b 69cd a73b
00000350: 2169 35bd e442 a7bd bd30 64ba c0a2 4bbd
00000360: 821c 96bd afaf eabd 10f8 913d d730 bbbd
00000370: 2681 9e3d fef5 84bd 9ca8 07bd f893 b8bd
00000380: 6470 e43d eabd c4bd 5612 d53d 88fc debd
00000390: cbea dbbd c54a bcbd f1c6 c7bb d5d9 b9bd
000003a0: e8a0 dc3d 8a0b fcbb 9549 6ebd a7ca e2bc
000003b0: d71e d73d 298e f4bd 8d54 403d c8b1 61bd
000003c0: 5f66 1fbc 4889 af3d f7c8 e5bd 146b 11bd
000003d0: d049 a83c 17ed 5d3d 3f59 ccbd a705 87bc
000003e0: 5d35 cabd c757 f8bd be83 8d3d b42f 973b
000003f0: 6cb3 e53d 1bc2 023c 4f69 6a3d e92f b63d

layer_2.bias f4 [64]
0.097335175 0.068176284 0.08677937 0.025499785 0.047029614 -0.0970817 0.10181494 0.08735108
0.09199629 0.024184257 -0.086984485 0.042136338 0.049752474 0.044273827 0.055601783 0.0518094
-0.058581162 -0.04672086 -0.066001914 -0.10662973 0.122132495 -0.019652497 0.12769803 -0.096082106
0.037916023 -0.049243215 0.009268138 -0.048680533 0.086957335 -0.029517666 0.005626152 0.089574315
-0.015957328 0.03002849 -0.08624824 0.07706864 -0.0077606523 0.11184094 0.059261918 0.008196901
0.014139868 -0.08138443 -0.10230847 0.0885965 -0.01680656 0.033106104 -0.022119941 -0.06975104
-0.117065825 0.118856214 0.12524417 0.07108569 0.0768925 -0.0011756958 -0.085062556 0.11331734
0.0563939 0.103023544 0.051274255 0.052915026 -0.10006735 0.11030593 0.007883931 0.13870665
00000000: aa57 c73d 02a0 8b3d 62b9 b13d ede4 d03c
00000010: 20a2 403d c5d2 c6bd 5a84 d03d 1fe5 b23d
00000020: 8d68 bc3d 101e c63c ec24 b2bd 2797 2c3d
00000030: 40c9 4b3d 7958 353d b2be 633d 1836 543d
00000040: cdf2 6fbd 5f5e 3fbd 032c 87bd b060 dabd
00000050: 9a20 fa3d 46fe a0bc 46c3 023e b2c6 c4bd
00000060: d54d 1b3d 41b3 49bd 63d9 173c 3d65 47bd
00000070: b016 b23d 08cf f1bc 955b b83b bd72 b73d
00000080: f1b8 82bc 4ffe f53c eba2 b0bd 2ad6 9d3d
00000090: 124d febb dd0c e53d a0bc 723d 4b4c 063c
000000a0: e8aa 673c e1ac a6bd 1a87 d1bd 1572 b53d
000000b0: e9ad 89bc 449a 073d e134 b5bc a2d9 8ebd
000000c0: 35c0 efbd e36a f33d 0240 003e 6095 913d
000000d0: d179 9d3d ce19 9aba 4735 aebd ec12 e83d
000000e0: 4afd 663d 02fe d23d f404 523d 6dbd 583d
000000f0: 1cf0 ccbd 13e8 e13d 9a2b 013c 1e09 0e3e

layer_3.weight f4 [1, 64]
-0.068542436 0.18232056 0.01995048 -0.033622663 0.021355763 0.08028252 0.0051438906 0.090633735
0.13891838 -0.13524146 0.11032138 -0.011908273 -0.16000165 0.09849794 0.048844736 0.07306279
0.04417251 -0.0053860047 0.07457151 -0.07237885 -0.14384289 0.036428902 -0.10709541 -0.03076012
-0.04233033 -0.10033136 -0.03529232 0.08532705 -0.1514736 -0.01701066 0.10881524 -0.15444726
0.035590116 0.20789821 0.031532135 0.004385272 -0.043316785 -0.050632227 -0.05795697 0.103795394
0.027319 -0.04014525 -0.107443064 -0.143411 -0.011026678 0.13184871 0.081787445 0.06398527
0.04576599 -0.11237036 -0.10465917 -0.10280837 0.10740911 -0.13090478 0.088552944 0.02733383
0.114604056 0.083361395 -0.15024866 0.069563344 0.0051369644 -0.08286283 0.08948033 -0.10566107
00000000: fa5f 8cbd 3eb2 3a3e 306f a33c ebb7 09bd
00000010: 48f2 ae3c 296b a43d 158e a83b 2e9e b93d
00000020: 9f40 0e3e bd7c 0abe 2df0 e13d eb1a 43bc
00000030: 79d7 23be 4ab9 c93d 6b11 483d f2a1 953d
00000040: 3cee 343d 157d b0bb f3b8 983d 5d3b 94bd
00000050: 8d4b 13be 7936 153d d754 dbbd a6fc fbbc
00000060: 9162 2dbd 877a cdbd ae8e 10bd f3bf ae3d
00000070: e51b 1bbe f159 8bbc 86da de3d 6c27 1ebe
00000080: f1c6 113d 45e3 543e d727 013d 54b2 8f3b
00000090: f16c 31bd bd63 4fbd 4a64 6dbd ae92 d43d
000000a0: 18cc df3c 586f 24bd 1c0b dcbd 55da 12be
000000b0: 3da9 34bc 5903 073e 2d80 a73d b60a 833d
000000c0: 1e75 3b3d 6e22 e6bd 8c57 d6bd 328d d2bd
000000d0: 4ff9 db3d e70b 06be 3f5b b53d 32eb df3c
000000e0: 88b5 ea3d 61b9 aa3d c9da 19be 3a77 8e3d
000000f0: fb53 a83b fdb3 a9bd 7741 b73d d564 d8bd
