checkpt/isolated/client_0_1.pth (torch, 69463 bytes, 5 tensors)

layer_1.weight f4 [64, 197]
000000 28 72 01 3c 38 dc a2 bc a9 33 76 3d 01 8b b3 3c
       0.007900752 -0.0198804 0.06010786 0.021916868
000010 30 f7 7d bd 40 fe fd bc 88 d1 21 3c 5c 28 70 3d
       -0.062003314 -0.031005025 0.009876616 0.05863224
000020 68 db 27 3d ba 8c 87 3d cb 98 56 bd 4c 9d b2 bc
       0.040980726 0.06618638 -0.05239181 -0.02180352
000030 4b b0 90 bb 1a 30 f0 bc 42 47 2e bd e6 e0 36 3d
       -0.004415547 -0.029319812 -0.042548425 0.044648074
000040 70 12 89 bd dc 66 44 bd 59 aa 33 bc 56 bb 6a bd
       -0.0669297 -0.047949657 -0.010965907 -0.057307564
000050 84 15 ed bb eb ea 26 3d 5b 89 3b bd 88 ba 07 3d
       -0.007235231 0.04075138 -0.04578529 0.033136874
000060 3f 2e af 3c f3 a9 19 3d 7c 00 96 bd 29 4e 43 bd
       0.021384357 0.03751559 -0.07324311 -0.04768196
000070 d7 c2 dc 3c 8d a0 cb 3a 91 c1 82 bc 02 ca ad 3c
       0.026948376 0.0015535519 -0.01596144 0.021214489
000080 fb 1c 73 3d 54 73 bc bc b6 41 87 bd 49 1d 20 3d
       0.05935381 -0.023004211 -0.0660433 0.03909043
000090 c6 64 0c 3c aa c7 68 3d db a6 8e 3b 60 96 28 bb
       0.008568948 0.05683104 0.004353387 -0.0025724396
0000a0 a9 bb 08 3d e2 63 31 bd 73 1b 45 bc 56 2c 0a bd
       0.03338209 -0.043308146 -0.01203047 -0.03373369
0000b0 7f 30 33 3d eb 2f 62 3c 99 68 37 bd b0 14 dc bb
       0.04374742 0.01380537 -0.044777486 -0.0067163333
0000c0 88 5f f6 bc b5 72 8c 3c 23 83 04 3d 50 24 88 3d
       -0.03007485 0.01714454 0.032351624 0.06647551
0000d0 a4 63 58 bd 7c f3 03 3c e5 bc 05 3d 1d 3b af bb
       -0.0528294 0.008053657 0.032650847 -0.005347623
0000e0 d6 fc b0 bc c3 42 8e 3d 09 8c bb 3c 0d 15 17 3d
       -0.021604937 0.069463275 0.022893922 0.03688531
0000f0 ce a4 03 3d bc 5d 16 bd 74 f8 13 bd fd c6 83 bd
       0.032139592 -0.036710486 -0.036125615 -0.064344384
000100 5e e6 01 3d 6a c9 4f 3c 49 8e 0d 3d 83 46 01 bd
       0.031713836 0.012682298 0.03455952 -0.031561386
000110 43 3f 69 3c 7a 8a 85 bd e1 05 d7 bb 4c 28 fc 3c
       0.014236274 -0.06520553 -0.00656198 0.030780934
000120 69 44 81 3c 80 26 08 ba 73 ad 0f 3d 0a cd 33 3d
       0.01577969 -0.0005193725 0.035077523 0.043896712
000130 03 26 10 3d ce 24 3e bd cf 93 1f 3d a2 0e 0e bd
       0.0351925 -0.04642182 0.03895932 -0.034681924
000140 be e1 bf bc 6e 40 30 3c 19 78 71 bb 80 d2 ac bb
       -0.023423072 0.010757549 -0.0036845265 -0.005274117
000150 78 10 34 bd ed 26 81 3d a0 ec 82 bd f4 fa 96 3c
       -0.04396102 0.06306253 -0.06392789 0.01843021
000160 50 9a 03 3d 4b ea d2 3c 6c dc 87 3d c4 61 a9 bc
       0.032129586 0.025746485 0.06633839 -0.020676501
000170 0d 68 82 bd 9c 9d 30 bd 4a 12 21 3d f2 4c ef 3c
       -0.06367502 -0.043119058 0.039324082 0.029211495
000180 94 7c 64 bd fc ab a1 b9 9c 04 33 bd 87 41 4b 3c
       -0.05578287 -0.0003083645 -0.043705568 0.01240576
000190 10 66 cd 3b fb 4c f2 bc 51 fb ab 3c d7 1e 7c 3c
       0.0062682703 -0.029577723 0.02099386 0.015388212
0001a0 50 07 de bb 40 75 89 3d 2f 5b a3 bc c8 20 9e bb
       -0.006775774 0.06711817 -0.01994094 -0.004825685
0001b0 49 2b 8d bd 9a f2 b5 ba 4b 7b 57 bc cc df cb bc
       -0.068930216 -0.0013881505 -0.013151954 -0.024886988
0001c0 6d 19 d2 3c d9 ba 5a bc e7 45 70 3d dd 68 22 3d
       0.02564689 -0.013350212 0.058660414 0.039650787
0001d0 34 4b 66 bd 73 83 34 3d 29 c7 6e ba 8e d5 43 3c
       -0.056224063 0.044070672 -0.00091086567 0.011952771
0001e0 3e 7f be 39 2d cd 8c bd ad 93 81 3c c0 e8 ba 3a
       0.00036334427 -0.06875072 0.015817488 0.0014260039
0001f0 50 45 46 3d 35 a1 84 bc ed 4f 69 3d 1f d2 b9 3c
       0.048405945 -0.01619015 0.05696099 0.022683201
000200 34 55 b5 3c 4f 74 2c 3d e7 e0 8d bd 35 44 e4 3c
       0.022135355 0.042103108 -0.06927662 0.027864555
000210 79 be 3c 3d 45 ab ce bc ff dd 6a bd 7c de 10 bc
       0.046080086 -0.025228152 -0.05734062 -0.008842107
000220 30 6b 2c 3c 4b 31 54 bd 76 5f fc bc 2e 83 34 bb
       0.010523602 -0.051804822 -0.030807238 -0.002754401
000230 b0 5e 43 bd 00 21 2c bb 51 13 32 bd 65 c4 1a bd
       -0.047697723 -0.0026264787 -0.043475453 -0.037784953
000240 2a 04 f6 3c 2a a1 1e 3b d0 10 75 bd 38 82 b1 bc
       0.030031282 0.0024204948 -0.059830487 -0.021668538
000250 8e 36 83 3d 51 c5 10 3c d6 d0 8d bc 97 7c c7 3c
       0.0640689 0.008836106 -0.017311495 0.024351401
000260 1a 6e 21 3d 56 aa 85 3c 8e a9 40 bd c9 2c 9c bc
       0.03941164 0.016316574 -0.0470367 -0.019064324
000270 2c af 12 3b 51 73 15 bd 76 b5 42 bd b7 98 84 3d
       0.0022382243 -0.036486927 -0.047536336 0.064744405
000280 08 b9 fd bc d9 ef 48 3c ec 03 92 bd 50 83 c1 bc
       -0.030972019 0.012264215 -0.07129654 -0.023622185
000290 2d 35 13 bd d0 2c 5f bd 36 5d 8d bd 28 d7 f5 3c
       -0.035939384 -0.054486096 -0.06902544 0.030009821
0002a0 8b 59 76 3d d2 f7 7f bd e6 12 8f 3d b2 ba 19 3d
       0.06014399 -0.0624922 0.069860265 0.037531562
0002b0 48 e8 6d 3d cc f4 74 3c 87 99 e0 b9 24 09 92 bc
       0.05808285 0.014950942 -0.00042838996 -0.017826624
0002c0 6a 8c 2b bc f0 49 5c bd dd 4e 2e bd be 01 da bb
       -0.010470489 -0.05378145 -0.04255568 -0.0066530397
0002d0 9c 25 fb bc 00 1a b9 3c 7f eb 2a bd a9 b6 89 3d
       -0.030657582 0.022595406 -0.041728493 0.06724293
0002e0 94 bd 5e 3d 48 48 bb 3c 4e 84 5f 3d 06 e4 0c 3d
       0.054380015 0.022861615 0.054569535 0.034397148
0002f0 a5 2f fe bc f7 c3 8e 3d b7 ba a2 3c e8 ec d5 bc
       -0.031028578 0.06970971 0.019864423 -0.026113942
000300 1f 79 80 3d 4e 56 98 b7 36 dc 00 bb da 34 a0 bb
       0.06273102 -1.816e-05 -0.0019662506 -0.004889113
000310 1d c1 a6 bc d7 7d 8d 3d 5c 39 3c bd 26 6f 08 3d
       -0.020355755 0.06908768 -0.04595314 0.033309124
000320 10 9f 36 bd 17 fe 85 3d 2a 01 59 3d be cf 75 bd
       -0.044585288 0.065426044 0.052979626 -0.06001257
000330 c3 64 8d 3d 7b bd c4 bc 97 a2 58 bd b5 c2 8c bd
       0.069039844 -0.024016133 -0.052889433 -0.06873075
000340 fe 69 a4 bc ec a7 7a bb 3c a5 de 3c 90 3a 03 bd
       -0.020070072 -0.0038247062 0.0271784 -0.03203827
000350 10 95 68 bd c9 f9 76 3d 2e a4 7b 3d 22 fa 78 bd
       -0.056782782 0.060296807 0.06143587 -0.06078542
000360 55 62 8c 3d d5 aa 86 3d 6b 1d dd 3c ab 31 04 bd
       0.06854693 0.065755524 0.026991567 -0.03227393
000370 e2 4f 88 3d 3c dd 07 bd e5 d0 09 3d 36 d2 d8 bc
       0.066558614 -0.03316997 0.033646483 -0.026467424
000380 32 28 77 3d 91 e3 72 3d 84 35 f1 bc 3b 45 33 3d
       0.060341068 0.059299055 -0.029444464 0.043767195
000390 c4 59 2f bd 52 45 db bc 1c 30 63 3d 3d 03 03 bd
       -0.042810217 -0.026766453 0.055465803 -0.03198551
0003a0 53 78 93 bd 5d ca 58 bd 10 fc 89 3d 56 17 47 3c
       -0.072006844 -0.052927364 0.0673753 0.01215156
0003b0 66 58 75 3d ca 66 50 3d ad fc 71 3d 6c ef 53 bc
       0.059898756 0.050879277 0.05907886 -0.012935501
0003c0 ba de 04 3d 8d e6 82 3d 8d 31 43 bc 66 84 83 bc
       0.03243897 0.0639163 -0.011913669 -0.016054343
0003d0 e0 fc 85 bd d1 86 0d bc 31 d0 2a 3d 9c 2f 2a 3d
       -0.06542373 -0.0086381 0.041702453 0.04154931
0003e0 cd 3f 6b 3d 84 f4 7a bd 08 ad 8e bd c1 0f a2 3d
       0.057433892 -0.061268345 -0.06966597 0.07913161
0003f0 84 52 82 3b 1f 7c 19 3d b8 86 12 bd 0c d4 03 3d
       0.003977122 0.037471887 -0.03577301 0.032184646

layer_1.bias f4 [64]
000000 2c 34 5c 3c 9c 2c 97 3b fe 98 5d 3d 1f a2 8a 3d
       0.013440173 0.004613472 0.054100983 0.067692034
000010 c8 dc ed ba 0e 92 35 bd 54 cc 18 bc bc b3 5b 3d
       -0.0018147463 -0.04432874 -0.009326059 0.053638205
000020 ee 0f 62 3d 55 9f 58 3b 54 a1 62 bd b7 a4 cf bb
       0.055190973 0.0033053954 -0.055329636 -0.006336774
000030 39 52 40 bd 62 e1 0e 3c ae 4a 58 bd 86 34 b5 3c
       -0.046953414 0.008720728 -0.052805595 0.022119772
000040 fd 67 eb bc 38 b0 12 3c 11 3e 58 3d e9 51 95 3c
       -0.028736109 0.008953147 0.052793566 0.018227534
000050 32 c1 41 3d 75 ac 87 3d 5e c0 39 bb 75 c9 21 3d
       0.047303386 0.066246904 -0.002834342 0.039498765
000060 32 6c 48 bc f3 09 69 bd f3 2d 46 3b 42 e0 15 bc
       -0.012232827 -0.056894254 0.003023979 -0.0091477055
000070 7b 83 6c bd 22 98 82 bd e7 70 b6 bc fe 9d 81 3d
       -0.057742577 -0.06376673 -0.022270633 0.06328963
000080 f4 03 10 bb 5b 90 6a bd 75 11 27 bd 61 31 be 3b
       -0.0021975012 -0.057266574 -0.040788133 0.0058042263
000090 1c 94 70 bd 45 c8 b0 bc 99 35 54 bd 0d 1d 05 3d
       -0.058734998 -0.021579871 -0.051808927 0.032498408
0000a0 3f 43 9b bc e2 0f 4a bc af b6 ee 3c 00 bc 71 bd
       -0.018952964 -0.012332888 0.029139845 -0.05901718
0000b0 e0 4a 74 3c 88 fb 46 3d 50 6b 0b 3d 62 f8 5c bd
       0.01491043 0.048579723 0.034037888 -0.053947814
0000c0 a5 79 5f 3d 4e f8 3b 3d 89 e1 29 3d b4 58 4e 3c
       0.05455937 0.0458911 0.041474853 0.012594391
0000d0 0f 45 2e 3d 9a 71 0b bc 2f fc 23 bc 88 51 38 3d
       0.04254633 -0.008510971 -0.010008856 0.04499963
0000e0 de a9 e3 bc 1a 88 6d bc cb 08 c7 bc 67 91 b1 bb
       -0.02779096 -0.014497781 -0.024296185 -0.0054189446
0000f0 e6 a6 47 3d 81 6a df bc 6d 60 b0 3c eb 3a 65 bd
       0.04874315 -0.027272465 0.021530354 -0.05596439

layer_2.weight f4 [64, 64]
000000 b0 8b d9 bd b0 44 9b 3d d7 f2 77 3d 35 64 24 bd
       -0.106223464 0.075814605 0.060534324 -0.040134627
000010 b5 bf cc 3d 95 1d bc bc e1 f5 d0 3d eb b8 0f bd
       0.09997503 -0.022963325 0.10203148 -0.03508846
000020 a4 66 fa bd 4a 61 04 3e 87 d4 f4 3d 0f 33 60 3c
       -0.122266084 0.12927738 0.11954599 0.013684048
000030 2d 0f ad 3d 46 79 f1 bd 93 76 8a 3d 76 25 fd 3c
       0.0845016 -0.11790709 0.067608975 0.030901652
000040 02 3c 6a 3d 3e 63 84 bc 13 eb 97 bb ac 1d f0 3b
       0.057186134 -0.016160604 -0.0046361773 0.007327756
000050 50 ac b5 bd 43 9e ea 3d 6d 93 da 3d 59 27 11 bd
       -0.088707566 0.11455967 0.106726505 -0.035437915
000060 ac 3f 36 3d c6 db af bd 76 a3 66 bd f0 4b 6a 3d
       0.044494316 -0.0858684 -0.056308232 0.057201326
000070 41 ff e7 3c 13 d4 9c 3b 75 6f dd 3d da 97 39 3d
       0.028319957 0.0047860234 0.10812274 0.045310833
000080 d7 e8 96 3b 8c bf 00 3e 42 e1 be 3d 1a 1f 31 3d
       0.0046053934 0.1257307 0.09320308 0.04324255
000090 43 1a c7 3d f8 21 c5 3c 16 79 86 bc a1 70 ea 3c
       0.09721806 0.02406405 -0.01641516 0.028618159
0000a0 cf 08 b7 bb ac b5 d7 3d c4 4d b8 bd 89 25 11 bd
       -0.005585767 0.10532698 -0.089992076 -0.035436187
0000b0 be af 9c bd 62 ad d8 3d f9 84 5d 3d 4b aa 09 3d
       -0.07650708 0.10579945 0.05408189 0.03360967
0000c0 4c 80 1b 3d f2 04 cb bd d0 ef b5 3c c7 24 97 3c
       0.03796415 -0.099130526 0.022209078 0.018450154
0000d0 92 75 86 bd 8f a9 70 3d 28 e7 9a bd ea 42 9c 3d
       -0.065653935 0.058755454 -0.07563621 0.0762995
0000e0 5d b6 cf 3d 03 63 0c 3d 2a e9 38 3c a0 98 4d bd
       0.10142205 0.034274112 0.011286059 -0.050194383
0000f0 1b f8 d9 3d 55 ef 76 bd 6a 5e a0 3d ea 0b 05 3e
       0.106430255 -0.06028684 0.07830508 0.12992826
000100 44 ee 72 3c af 56 a4 3c 07 33 82 3d 3e 05 63 bd
       0.014827315 0.020060865 0.06357389 -0.05542492
000110 6f 80 a3 3d 1d 4f d8 3d 48 ef 24 3d 60 8d c5 3d
       0.07983481 0.10561965 0.04026726 0.09646106
000120 37 b1 98 bd b6 37 61 3c ff 7f fe 3d 8d 26 fa 3d
       -0.07455676 0.013746193 0.12426757 0.12214384
000130 0f a6 f3 bd 11 d2 fd 3c 5a 3e 83 bd 52 f5 c8 3d
       -0.118969075 0.030983957 -0.06408377 0.09812416
000140 87 db 96 3c bc 17 a2 bd fd 3c d1 3d 85 8c 94 3c
       0.018415226 -0.07914683 0.10216711 0.018133411
000150 da 3c ba 3c 0a 5a b3 bd f4 ab 47 bd b8 42 a0 bd
       0.022734094 -0.08757408 -0.04874797 -0.078252256
000160 72 55 5d 3c 83 9a 82 bc f2 f2 1b bd 95 26 26 bc
       0.013509141 -0.015942818 -0.038073488 -0.010141035
000170 c7 e2 e0 3d f7 be 49 3d 08 07 b9 3a cd fc f7 3d
       0.10980754 0.049254384 0.0014116475 0.12108765
000180 11 73 b6 3d 72 18 2d bd 83 db 07 3d e9 af 62 3d
       0.08908666 -0.04225964 0.033168327 0.055343542
000190 a6 5d f2 3d 4d bb 11 3d 88 14 b4 bd 91 3b b4 bd
       0.11834268 0.035579015 -0.087929785 -0.08800424
0001a0 c0 f0 4c bb 1d 77 b5 bd 1b 18 b2 bd 53 75 38 3d
       -0.0031271428 -0.0886061 -0.08696004 0.045033764
0001b0 c0 c3 6b 3d 26 c2 ce bd c5 75 b2 bb 87 1b 15 bd
       0.05755973 -0.100956246 -0.005446168 -0.036403205
0001c0 c0 07 24 bd 36 03 24 3d 74 6d ec 3d 68 e6 ca bd
       -0.040046453 0.040042125 0.11544314 -0.09907228
0001d0 41 9a ed 3d 75 c4 0a bd 20 cb d2 3d c5 a6 3a 3d
       0.11601687 -0.033878762 0.10292649 0.0455692
0001e0 1c 90 61 3d c7 97 b2 bd f1 b4 3c 3d a5 cd ac bd
       0.055069074 -0.087203555 0.046070997 -0.08437661
0001f0 25 18 e4 bc c5 1b 43 bd aa 0b ab 3d 01 10 fc bd
       -0.027843544 -0.047633905 0.08351834 -0.1230774
000200 79 70 c3 3d 42 71 86 bd fb 46 b3 3d 40 d2 c9 bc
       0.09542937 -0.06564571 0.08753773 -0.024636388
000210 fd 2d b3 3d eb 11 df 3c 08 bc d8 3d 0a 8f 2f bd
       0.08749006 0.027230224 0.10582739 -0.042861022
000220 7c fb 87 bd fc ff b6 3d 52 f1 9f 3d 2c 7d f2 bd
       -0.06639764 0.08935544 0.078097 -0.11840281
000230 e0 eb 94 bd 35 7d 69 bd 6a 8f ed bd 3c 30 da 3d
       -0.07271552 -0.057004172 -0.1159962 0.10653731
000240 6e c4 d9 3d ea e0 bf 3c 83 2c 79 3d 7b 8b d6 bd
       0.10633169 0.023422677 0.060833465 -0.104758225
000250 bb 6b 52 3d 56 b6 91 bc 91 23 cb 3c 8c 9d e1 3c
       0.05137227 -0.01778714 0.024797233 0.027540945
000260 64 da 6b 3d 4d 1e 9d ba 9d 6f a5 bd 7d 60 89 3d
       0.05758132 -0.001198718 -0.08077929 0.06707857
000270 c9 f4 9f b7 f3 07 f1 bd e7 62 30 3c 77 b0 98 bd
       -1.9068264e-05 -0.11769094 0.010765768 -0.07455533
000280 70 3e 91 bc 12 b5 93 3d 26 a1 a0 3d 64 c1 81 bd
       -0.017729968 0.07212271 0.078432366 -0.063357145
000290 94 70 f6 bd f5 5c 95 3c 61 de fb 3d 42 b4 7e bd
       -0.12033191 0.018232802 0.12298275 -0.062183626
0002a0 c0 04 a9 bd 77 e0 81 bc 40 2f fe 3c 0d 2f c4 bc
       -0.08252859 -0.015854103 0.03102839 -0.023948217
0002b0 e8 b2 00 be c5 1d 86 3d 25 ab e4 bc aa a7 97 bb
       -0.12568247 0.06548647 -0.02791364 -0.0046281414
0002c0 eb b2 05 bc c6 5e 04 3d 06 3d e5 bd d0 be ef 3d
       -0.008160333 0.032316945 -0.1119328 0.117063165
0002d0 f2 fd 63 bd 7b a5 ed 3d aa 4c c1 3d 52 b1 3d 3d
       -0.055662103 0.116038285 0.09438451 0.046311684
0002e0 33 b4 e7 3d 13 31 16 bd 24 44 39 3d 86 4a 28 3c
       0.11313667 -0.036667895 0.045231 0.010271674
0002f0 e8 c2 c0 bd 49 ab b2 bd 93 0f 81 bd 8c 54 9c 3d
       -0.094121754 -0.08724076 -0.06301799 0.076333135
000300 ef 2e 78 3d b8 cc bd bd 69 b3 bb 3d c2 be 2d 3c
       0.060591634 -0.09267563 0.09165079 0.010604562
000310 04 7c 23 3d 45 31 c5 3d 0c 7d 44 bd fe 56 b2 bc
       0.039913192 0.09628538 -0.047970816 -0.021769997
000320 fe 04 77 bd 97 4f b5 3d 85 aa f8 3d 1c d8 df bd
       -0.060307495 0.08853071 0.12141899 -0.109298915
000330 00 ec 82 bd f5 f0 52 3d 50 d5 da 3c 3d 97 cc 3d
       -0.0639267 0.051499326 0.026713043 0.09989784
000340 72 45 5c 3d 29 b9 f1 bc 81 55 c1 bc 1b 5b cb bd
       0.053777166 -0.029507237 -0.023600342 -0.09929486
000350 d5 db 07 3d fe d4 a1 bd a5 b1 b6 3d 0b 37 ea bb
       0.033168633 -0.07901953 0.08920602 -0.007147675
000360 79 1b 5d bc 37 21 d1 bd d9 58 e3 3d 9a f1 85 3c
       -0.0134953195 -0.10211413 0.11100931 0.016350556
000370 76 7b 38 3b c1 87 fb 3c 1e 54 dc bd 7f 1d 5a bd
       0.002814976 0.030704381 -0.107582316 -0.053250786
000380 1f 1c 2e bd af a7 30 bd 8e 96 4b 3c 5c 6e be 3d
       -0.042507287 -0.043128666 0.012426032 0.09298393
000390 d5 87 1b 3d cb 54 81 bd f1 94 bd bc 79 ac f4 bd
       0.037971336 -0.06315001 -0.02314231 -0.11946959
0003a0 a2 c5 e4 bd 89 4d da 3d 25 b5 e9 bd d4 90 86 3d
       -0.11170508 0.1065932 -0.11411504 0.065705925
0003b0 ca 18 55 ba 37 1d 63 3c 63 f8 f6 bd e5 75 5a 3d
       -0.0008128999 0.013861946 -0.12059095 0.05333509
0003c0 38 e7 9f 3b fb bc a8 3d a8 60 89 bd d9 1e f1 3d
       0.0048798583 0.0823917 -0.06707889 0.11773462
0003d0 c8 e1 47 bd c9 17 db bd 92 8a 79 bd 68 fe 88 bd
       -0.048799306 -0.10697896 -0.060923167 -0.06689149
0003e0 60 a8 ca 3d d8 8e c3 bc 6b 1f bd bd a9 ac e4 3d
       0.09895396 -0.023871824 -0.09234508 0.11165745
0003f0 e9 07 7a bd f2 d4 06 3e c7 d4 e2 3d 1e c1 8c 3d
       -0.0610427 0.1316717 0.1107574 0.06872772

layer_2.bias f4 [64]
000000 19 c1 8a bd 30 d1 c4 3d 4a 19 be 3d 88 85 c5 bb
       -0.06775112 0.09610212 0.09282167 -0.006027881
000010 1b ae a1 bd e8 5e a0 3d 99 ca 4f 3d 9d 08 c1 bc
       -0.07894536 0.07830602 0.05073032 -0.023563677
000020 0e f5 57 bd e2 c7 a9 bd da 5d 54 3d b8 e3 09 3e
       -0.052723937 -0.08290078 0.051847316 0.13465774
000030 05 54 d8 bc 70 55 df 3d cf c3 22 3b 03 51 84 3d
       -0.026407251 0.10904968 0.002483595 0.06460764
000040 16 5b 62 3d 06 b4 54 bd b5 cd 10 3d df 39 7a 3d
       0.055262648 -0.051929496 0.035352428 0.061090346
000050 9d f1 39 3c bb 5f 1c 3d 6c 2f 89 3c 98 b8 db 3d
       0.011349109 0.038177233 0.016746245 0.10728568
000060 04 61 c1 3d 77 57 b0 3d 99 84 0c bc 68 e6 82 3c
       0.094423324 0.086104326 -0.008576536 0.015979007
000070 56 3f d4 3d 39 88 0e 3e c8 c9 4a bd 43 05 a5 bd
       0.10363643 0.13919152 -0.04950884 -0.08057644
000080 ce e0 d8 bd 08 2e a4 3d c8 65 1d bc ac 64 58 bd
       -0.10589753 0.08016592 -0.009606786 -0.052830383
000090 1f 78 f5 3c bf 4f 8d 3d 3f f7 97 bd 5a 81 bc 3b
       0.029964505 0.06899976 -0.07420205 0.0057527246
0000a0 1b e9 e5 bd 51 2c ae bd 11 53 77 3c 44 31 af bc
       -0.11226102 -0.085045464 0.015095488 -0.021385796
0000b0 95 2c 59 3d 92 38 37 3c 90 f2 24 3d c4 e8 a4 3d
       0.053021032 0.011182921 0.040270388 0.08052209
0000c0 7c 9f 59 3c cf a7 c5 bd ef 5f 77 3d b7 35 7b bd
       0.013282653 -0.096511476 0.060394224 -0.061330523
0000d0 c8 ab 39 3d 01 02 65 3c 7f 98 63 ba 6a 0f 8c bd
       0.04532984 0.013977529 -0.00086820865 -0.068388775
0000e0 26 b2 e8 bd c2 7b a8 bc 3f e9 45 3d fc 40 72 3d
       -0.11362104 -0.020566825 0.048318144 0.059144005
0000f0 6d 7c ed 3c 12 69 35 3d bf 69 89 3d c1 81 ec bd
       0.028989995 0.044289656 0.067096226 -0.11548186

layer_3.weight f4 [1, 64]
000000 2d 2a da 3d db 10 0b bd 37 35 90 bd c7 92 eb 3d
       0.10652576 -0.03395162 -0.070414 0.11502605
000010 3c 43 8d bd f8 94 18 3c c2 7f 9c 3d 31 5f 62 3d
       -0.068975896 0.009312861 0.07641555 0.055266563
000020 df b6 68 3d ee a6 b0 3d 82 ba dd bd 15 ac 0b be
       0.056815024 0.08625589 -0.10826589 -0.13639863
000030 27 60 be 3d 2b fc 2c bc f8 45 10 3c 94 8d 28 bd
       0.09295683 -0.010558168 0.008805744 -0.041150644
000040 2d 91 ff bb 32 5d 9f bd fd b5 05 3e ed 40 de 3b
       -0.0077992887 -0.077814475 0.13057704 0.006782642
000050 b2 30 e8 3c 34 e9 19 bd dd 45 83 3c c5 37 08 be
       0.028343532 -0.037575915 0.016024524 -0.13302524
000060 c7 93 28 bd 8d 42 20 be ed 5b f3 bc bc 1c df bc
       -0.041156556 -0.15650387 -0.02970692 -0.027235381
000070 4d 13 d1 bc c1 a3 2b be 4e 42 d9 3d e8 de d6 bd
       -0.025521899 -0.16761686 0.1060835 -0.10491735
000080 0c e0 7e bd c5 99 f1 bd d2 f2 73 3d 18 60 8a bc
       -0.062225387 -0.11796907 0.059557743 -0.016891524
000090 40 bd 0b be 98 ca 40 3e 6b c4 82 bc d8 fe b1 bc
       -0.13646412 0.18827283 -0.0159628 -0.021727964
0000a0 43 63 66 3d 57 dd 3c bd 6a 6c a7 3d fb 3a 59 3d
       0.056247007 -0.046109524 0.08174975 0.053034764
0000b0 84 e1 8b bd 01 2b 88 3d e9 16 12 3e 65 24 67 3d
       -0.06830123 0.06648827 0.14266552 0.056431193
0000c0 a1 f3 ef bd 6d f0 66 3d 7b a2 a2 bc 1a c6 e0 3d
       -0.117163904 0.05638163 -0.019852867 0.10975285
0000d0 2f cd fd 3d 62 e9 bc 3d 16 86 81 bd aa be 31 3d
       0.12392651 0.09224202 -0.06324403 0.043394722
0000e0 66 da 66 bd 93 7c d9 bd a1 1f 91 3d ee be f0 bd
       -0.056360625 -0.10619464 0.07086111 -0.11755167
0000f0 00 0a a0 bc 87 43 16 3e ca 37 a0 3d d9 43 25 39
       -0.019536018 0.14674197 0.07823141 0.00015760901
