checkpt/isolated/client_16.pth (torch, 69799 bytes, 5 tensors)

layer_1.weight f4 [64, 197]
000000 24 c4 7f bc 33 a3 d3 ba c1 8d c1 bc c6 59 07 bd
       -0.015610728 -0.001614666 -0.023627164 -0.0330446
000010 1c 20 3a bc f7 11 8f bd 20 cc 0c bd 68 ce 1b 3d
       -0.0113601945 -0.069858484 -0.034374356 0.03803864
000020 47 be 0a 3d aa ea 5b bc 4e 5d 97 3b 70 1f af bd
       0.03387287 -0.0134226475 0.004619277 -0.08550918
000030 11 13 6d bd 50 04 52 bd fb 54 34 3d a4 21 3e 3d
       -0.05787951 -0.051273644 0.044026356 0.0464188
000040 bd b5 4f 3d 20 ed c8 bc 75 77 06 3d 16 52 32 bd
       0.05071043 -0.024527133 0.032828767 -0.043535315
000050 26 03 f4 3c de 53 87 bd 43 79 97 3d 18 d8 26 3d
       0.029786658 -0.06607793 0.07396176 0.040733427
000060 27 f6 33 3d eb ba 51 bc 0b 82 3d 3d e0 45 1e 3d
       0.04393592 -0.012800912 0.046266597 0.038640857
000070 9c cd 35 bc 6b 70 61 3d 21 6a 95 3b 4a e1 7e bd
       -0.011096384 0.05503885 0.0045597707 -0.06222657
000080 b6 e3 76 bd b6 90 7c 3d 5c 86 87 bd 4c 01 5e bd
       -0.060275756 0.061661445 -0.06617424 -0.054200456
000090 aa 74 f6 bc 17 48 b1 bc 15 ef 8b bd 4a 7b 2c bd
       -0.030084927 -0.02164082 -0.06832711 -0.042109765
0000a0 59 1a 9e 3c 77 32 6b 3d 94 bf 00 bd 6c 27 09 3d
       0.019299673 0.057421174 -0.031432703 0.03348486
0000b0 a3 3f 73 bd 5b 76 f0 3c c2 23 91 b9 92 87 b8 3c
       -0.05938686 0.029353311 -0.00027683197 0.022525582
0000c0 07 a2 eb 3c 3e 64 14 3d cb 56 55 3d 15 46 a3 3c
       0.028763784 0.03622841 0.052084725 0.019930879
0000d0 41 7d 58 3c 24 bf 71 bd 73 49 58 3d 2b 6e 08 bd
       0.013213457 -0.059020177 0.05280442 -0.03330819
0000e0 f5 ff b0 bc de 9c 33 bd 58 e5 7f bd ed 9c d6 3c
       -0.021606425 -0.043850772 -0.06247458 0.026197875
0000f0 f9 01 04 3d 37 c0 45 bd 7e b2 12 bd 71 e7 5d 3d
       0.032228444 -0.048279013 -0.035814755 0.054175798
000100 80 38 80 3c 79 1a 5f bd 31 32 59 bc 70 ea e4 3b
       0.015651941 -0.054468606 -0.0132565955 0.006985955
000110 b2 a1 6a bc af 77 fd bc 50 93 16 bc c8 e2 41 bd
       -0.014320778 -0.030940859 -0.0091903955 -0.047335416
000120 9c 3d 82 3d bf f7 1d bd 71 bb 70 3d fe bb 26 bd
       0.06359407 -0.038566347 0.058772508 -0.040706627
000130 11 6d 71 3c 4e f4 7c bd 18 f1 87 3d b5 cc 75 bd
       0.014735476 -0.061756425 0.06637782 -0.060009677
000140 43 b5 2c bd 32 a4 9e bc cf 99 4f bd 08 27 8f bd
       -0.042165052 -0.019365404 -0.050683793 -0.069898665
000150 c2 ad 4a 3d 10 94 41 3d 94 e1 25 3d 33 17 f2 bb
       0.049482115 0.047260344 0.04049833 -0.0073880195
000160 88 d4 ec 3c a5 02 80 bd 62 70 9c 3c 90 cd 3b bd
       0.028909937 -0.062505044 0.019096557 -0.045850337
000170 14 f8 43 3d 31 db 9d bc e5 c4 8c 3c 2d e9 fc bc
       0.047844008 -0.019269558 0.01718373 -0.030872906
000180 18 32 fb bc a4 12 5a 3c dd cd 6f 3d 09 46 91 bd
       -0.030663535 0.013310108 0.058545936 -0.07093436
000190 2c db 3b 3d 61 a7 8f 3d 31 4c 76 3d c8 6a 43 3c
       0.045863315 0.07014347 0.060131256 0.011927314
0001a0 48 be 28 3d 08 26 8a 3d c0 af 5c 3b be c6 e4 bc
       0.04119709 0.06745535 0.003367409 -0.027926799
0001b0 f7 ed bf bc 33 bc ce 3c 03 eb a1 3c a4 01 16 bc
       -0.0234289 0.025236225 0.019765383 -0.009155665
0001c0 47 6b 77 bd d5 c4 87 3b d2 b2 a8 39 c4 e3 7d 3d
       -0.060405042 0.0041433373 0.0003217669 0.061984792
0001d0 ac bf 77 3c a7 ab df bc 53 f3 ef 3c 2d ab bb bb
       0.015121382 -0.02730353 0.02929083 -0.005727193
0001e0 75 50 71 3d 65 ac 96 bd 23 4f 1c bd a7 e4 7d bd
       0.05891462 -0.073571004 -0.03816141 -0.061985638
0001f0 f5 9d 7c bd 6c c0 8c 3d 80 97 08 bd 74 0b 83 3d
       -0.061674077 0.06872639 -0.033347607 0.06398669
000200 84 1f 68 3d d7 db 86 bd af 28 58 3d 7e c6 50 3d
       0.05667068 -0.065849 0.052773174 0.050970547
000210 ac e9 3f bd 6c 22 ef 3c 0b 3f 8f 3d 81 ca 29 bd
       -0.046853706 0.029191218 0.06994446 -0.04145289
000220 de 32 15 3b 5c e6 4c 3b 61 04 84 3c f9 a4 08 bd
       0.0022765915 0.0031265235 0.01611537 -0.033360455
000230 cd 08 15 bb d8 b3 3c bc b4 62 81 bd c4 35 66 3d
       -0.0022740841 -0.0115174875 -0.06317654 0.05620362
000240 fe c3 4e 3d 3e 7a 7e bd be 77 0b 3d 59 3c 31 bd
       0.05047988 -0.062128298 0.034049742 -0.043270443
000250 5d b9 12 bc 87 78 09 bc 18 ea 23 3c 57 1e ac 3c
       -0.008955327 -0.008390552 0.010004543 0.02101056
000260 a9 4d 58 3d 8f c2 2e bc ad 6c bc 3c 06 7a 65 3d
       0.052808437 -0.010666504 0.02300104 0.056024574
000270 c3 4c df bc bd 24 7c bd 69 89 5d 3d 09 59 a2 3c
       -0.027258283 -0.061558474 0.054086123 0.019817846
000280 4c ae 50 3b ea 1a fb 3c ed 11 3e bd 81 d8 3b bd
       0.003184217 0.030652482 -0.046403814 -0.04586077
000290 4e 30 f2 bb ed 19 eb 3c 3d 23 95 3d a5 c9 17 bc
       -0.0073910123 0.028698886 0.07282112 -0.009264384
0002a0 01 19 1c bc 40 6c c9 3c 13 99 33 bd 5f 7e 83 3d
       -0.009527446 0.02458775 -0.043847155 0.06420588
0002b0 1c a8 17 bd 7e 99 3c 3a a9 d0 a4 bc 60 5c 59 bc
       -0.037025556 0.0007194503 -0.020119028 -0.013266653
0002c0 bd ce 53 bd 04 28 fa bc af f4 78 bd 54 b4 0b 3d
       -0.051710833 -0.030536659 -0.060780223 0.03410752
0002d0 07 3b 50 3d 32 37 87 bd 78 ca 68 bd b5 59 70 bd
       0.050837543 -0.066023245 -0.056833714 -0.0586793
0002e0 33 7a 9c bc e8 9d dc 3c bf 83 13 3b fc 32 cf 3c
       -0.019101238 0.026930764 0.0022508947 0.025292866
0002f0 fe 82 97 bb 3b 29 c4 3c 02 12 07 3d b5 42 05 bb
       -0.00462377 0.023945441 0.032976158 -0.002033395
000300 da eb 91 3c e4 bd 67 bd 18 3e 50 3d d0 62 b3 bc
       0.017812658 -0.05657758 0.050840467 -0.021897703
000310 40 c6 3f bc 46 a9 33 3d 75 d2 81 bc 1e 4e 7b 3d
       -0.011704981 0.043862604 -0.015847424 0.061353795
000320 61 46 a4 bb c2 60 7a bd 96 17 61 bd 75 12 be 3b
       -0.0050132726 -0.06112743 -0.054954134 0.00580054
000330 9c 22 a8 3c 4f 95 4c 3a bf e3 88 3d e9 2b 34 bb
       0.020524316 0.0007804231 0.06684064 -0.0027491993
000340 a7 b7 4f bc 9e 1b 1f bd b5 7b 19 bc cf 66 3a bb
       -0.0126780635 -0.038844697 -0.009367873 -0.0028442626
000350 46 6b 1d 3d 22 37 2c 3c 70 68 88 bc 02 fb 8a bd
       0.038432382 0.010511192 -0.016651362 -0.06786157
000360 7b 72 2b bd 3a 9f 81 3d ee b5 0c 3c fa 0a 20 bd
       -0.041857224 0.06329198 0.008588297 -0.039072968
000370 94 ec 3d b9 fb 15 50 bd 84 ff ff bc 51 ec cb 3b
       -0.00018112577 -0.050802212 -0.031249769 0.0062232395
000380 d2 6b 5d 3d a4 b6 33 bd bc d6 6c 3d 0e a0 8e bd
       0.054057904 -0.04387535 0.057821974 -0.06964122
000390 92 41 72 bc a0 1d 2d 3d 91 00 e5 3c 55 35 90 bc
       -0.014786141 0.04226458 0.027954372 -0.017603556
0003a0 d9 86 b9 3c 98 6a e9 bc 43 ec 30 bb 17 bb 86 bd
       0.022647308 -0.02849321 -0.0026996292 -0.06578653
0003b0 16 30 2b 3d c2 bc 2c 3d 6e 5c 86 bd 31 6b 68 bd
       0.041793905 0.0421722 -0.06560598 -0.05674285
0003c0 c5 7f 26 3d f1 a1 80 bd c5 ef 96 3c d3 f0 3e 3c
       0.040649194 -0.06280888 0.018424878 0.011654097
0003d0 cf da 41 bd da d3 47 3d 2a a9 8a bd 03 c3 7a bd
       -0.047327813 0.04878602 -0.06770547 -0.061221134
0003e0 d3 44 75 bb 54 2d c4 3c 37 a2 90 3a 27 5d 50 bd
       -0.0037425056 0.023947395 0.0011034672 -0.050870087
0003f0 95 77 31 3d 40 cc d6 3c c8 5b 34 bd fe 54 92 3d
       0.043326933 0.02622044 -0.044032842 0.07145117

layer_1.bias f4 [64]
000000 97 c9 61 3d fc b8 73 3d e9 56 93 3d f9 c0 ea bc
       0.05512389 0.059502587 0.07194311 -0.02865647
000010 6a a8 16 3c a2 22 8d 3d d7 48 7d 3d b3 98 a1 3c
       0.0091954265 0.06891371 0.061837044 0.019726133
000020 65 56 01 bd d2 17 87 3d 1e 08 b8 3d b3 fb 83 bd
       -0.031576533 0.0659634 0.08985923 -0.06444492
000030 6b 0e 28 3d cb 69 b2 3c 70 80 18 3d b7 05 88 bd
       0.041029375 0.021778962 0.037231863 -0.06641715
000040 c5 ba 67 3d 2d 3c 72 3d 87 46 ee 3c ac 36 53 bd
       0.0565746 0.05913942 0.029086364 -0.05156581
000050 f2 cb a3 3c 37 64 86 3d 31 f0 4a 3c 96 12 0c 3c
       0.01999471 0.06562083 0.012386368 0.008549353
000060 3a 5d aa 3c aa 87 23 bd 43 85 9d bc 09 1e 4c bd
       0.020796407 -0.0399243 -0.019228583 -0.04983333
000070 a8 6d 91 bd 26 80 5a bd a5 71 00 bd e7 11 50 bc
       -0.071009934 -0.053344868 -0.03135838 -0.012699581
000080 5b 34 b3 3b 7a 8f b8 3c 59 58 8f 3d f1 f8 51 bd
       0.0054688877 0.022529352 0.06999273 -0.0512628
000090 cd b9 74 3c d5 d7 0d 3d ad 8f 06 3d fd da 81 3d
       0.0149368765 0.03462966 0.032851864 0.06340597
0000a0 eb e8 8b bd 86 a7 1e bd b0 b4 07 3d fc 69 89 3b
       -0.06831535 -0.03873398 0.0331313 0.0041935425
0000b0 e7 75 85 bd 1d d3 b8 bc 83 ee 34 3c 7c 04 79 bd
       -0.06516629 -0.022561604 0.011043194 -0.060795292
0000c0 4c 13 4b 3d 60 e1 7f bc 3d 2a 0c bd b4 b9 96 bc
       0.04957895 -0.015617698 -0.03421997 -0.018399097
0000d0 c2 e5 ea bb 11 5c 42 3d 49 fb 22 bc 6a c5 27 bc
       -0.0071685025 0.047451083 -0.009947606 -0.010239938
0000e0 1e b1 b7 bc a8 12 2f 3d 68 08 35 3d 6b 7a 23 bd
       -0.022423323 0.0427424 0.04419747 -0.03991167
0000f0 87 32 8d bd a8 06 84 bd b8 21 94 3c 4d 48 19 bd
       -0.06894403 -0.06446582 0.018082485 -0.037422467

layer_2.weight f4 [64, 64]
000000 68 a8 d8 bd 29 02 9d 3d 38 dd dd 3c d6 9e e2 3c
       -0.10578996 0.07666428 0.027083024 0.02766363
000010 dd 6c cf bd 5d f8 93 3d 3e 5b 48 3d 69 d0 72 3d
       -0.10128186 0.07225106 0.04891514 0.059280787
000020 64 56 c0 3d 78 0a a7 3c 71 e4 33 bd a8 10 20 3d
       0.09391478 0.020390734 -0.04391903 0.039078385
000030 ae 8e e7 3d 11 ee e2 3d c8 a3 1b bd 10 28 d3 bd
       0.11306511 0.11080564 -0.03799799 -0.10310376
000040 96 60 82 3c 8a c5 d9 3d 28 83 41 bd ca 5d 3b 3d
       0.015915196 0.10633381 -0.04724422 0.04574374
000050 52 26 fe 3d a5 47 f9 bd dd 84 e6 3c 1e 90 51 3c
       0.12409653 -0.12171868 0.028139526 0.012790708
000060 8c 06 b2 3d 93 70 dd bd 9e fb 34 3c e7 0c e2 bd
       0.08692655 -0.108124875 0.011046318 -0.11037617
000070 f4 0c 90 bd 43 a7 b4 bd 38 85 bf bd ed bb be bb
       -0.070337206 -0.08820965 -0.09351581 -0.0058207423
000080 b7 ed f2 3d 09 0c a9 3d 43 f0 d9 3d a6 80 48 bd
       0.11861747 0.08254249 0.106415294 -0.048950814
000090 61 4d e1 3d 39 e8 e2 bc a5 5f e5 3d 72 f3 c9 3d
       0.11001087 -0.027698623 0.11199883 0.09860887
0000a0 6b 56 c8 3d ae ac 2d bd 6a 85 95 bd b4 b3 c0 3d
       0.09782108 -0.04240101 -0.07300837 0.09409276
0000b0 82 bb 08 bb 10 90 a5 3c 0e ad fb 3d 2c cb a5 bd
       -0.0020863716 0.020210296 0.12288867 -0.080953926
0000c0 a4 11 a3 bd e6 dc 38 3d 13 79 ac bd 1d d0 eb 3d
       -0.07962349 0.04513254 -0.084215306 0.11514304
0000d0 cc 6b f8 3d 93 bf bc 3d 03 7d 84 bd 25 67 b2 bd
       0.121299356 0.092162274 -0.064691566 -0.087110795
0000e0 81 ff 89 3d ba 86 2f 3d 1d 0b 52 3d f9 ef c3 3d
       0.06738187 0.042853095 0.05128013 0.095672555
0000f0 30 fb ef bb d9 c9 e8 3d 57 56 8b bc 6e 33 9a 3d
       -0.007323645 0.113666244 -0.017008943 0.07529341
000100 40 1d a3 bc ec 7e e3 bd f2 fa a5 3d 62 da 84 3d
       -0.019911408 -0.11108193 0.08104505 0.06486966
000110 29 78 21 3d 53 e3 68 3d 35 c7 47 bd 81 86 de bd
       0.039421234 0.05685742 -0.048773963 -0.10865498
000120 2b b9 dd 3d fe 41 ff 3b b2 a3 d3 bd 0b 6f bf 3d
       0.108263336 0.0077898493 -0.10333957 0.09347352
000130 66 60 d5 bd eb b1 72 3b 6a 4e c7 3d 37 78 b8 3d
       -0.10418777 0.0037032317 0.09731753 0.09007304
000140 04 f2 6d bc b0 fd 38 3d 13 13 e6 3d ea c3 af 3d
       -0.014523033 0.04516381 0.11234107 0.085822895
000150 6b 43 22 3d 48 ad 8e 3d 57 a5 00 bd ee 3c 9a 3d
       0.039615076 0.069666445 -0.03140768 0.07531153
000160 c3 09 ab bd 8d 8d cb bd 32 e7 5a bd 05 25 02 3d
       -0.08351471 -0.09939108 -0.05344314 0.031773586
000170 16 80 b4 bd a0 ae 10 3d f3 02 da 3b 65 66 79 3d
       -0.08813493 0.035322785 0.0066531836 0.060888667
000180 f1 14 e0 3c 9a 47 3c bd 8e a1 96 bd 50 88 a5 bc
       0.027353736 -0.045966722 -0.07355033 -0.0202066
000190 e2 54 c2 bc 65 23 d4 bd 57 10 b9 bd 9c 04 c3 bd
       -0.023722116 -0.103583135 -0.0903632 -0.095223635
0001a0 89 59 ce 3c 55 3f ee bd 41 7f db bd 75 08 19 3d
       0.025189178 -0.116331734 -0.10717631 0.03736158
0001b0 3c 86 e1 3d d5 cd 7d 3d 20 d4 1b bb c3 67 ab 3d
       0.11011931 0.061963875 -0.002377756 0.083694
0001c0 38 c4 5f bc 34 b6 a5 bc 3b 6c 0c bc e4 68 a5 bd
       -0.013657622 -0.020228483 -0.008570726 -0.08076647
0001d0 50 4b 9b 3d 54 2b cb bd 1f b3 35 3c 91 58 86 3d
       0.07582724 -0.099203736 0.011090069 0.065598615
0001e0 15 c7 1b 3c 4b 32 22 3d 35 47 f3 3d 50 c1 ae 3d
       0.009507914 0.039598744 0.11878816 0.08532965
0001f0 3b 89 f6 3c 08 03 4e bb 28 c8 5d bd 09 0c b6 bd
       0.030094733 -0.0031434912 -0.054145962 -0.08889014
000200 fd da 02 3e ab 02 09 bd ee b8 b6 bc 1f c3 e5 bb
       0.1277885 -0.03344981 -0.022304978 -0.0070117856
000210 ab a0 06 3d 67 79 2a 3d 09 39 a8 3d cd 77 7b 3c
       0.03286807 0.041619685 0.082140036 0.015348387
000220 23 74 08 3d 48 48 ee bd 57 66 0d 3d 08 be d0 bc
       0.03331388 -0.1163488 0.034521427 -0.025481239
000230 db b9 e3 ba 9f 5d c4 3d 92 f8 df 3d c5 64 c2 3d
       -0.0017374115 0.09588169 0.10936083 0.094918765
000240 b5 3a 9c 3c 11 75 8e bb 9e 65 08 bd e6 9c 6a 3d
       0.019070962 -0.0043474515 -0.033300035 0.057278536
000250 8c 0e 48 bd 94 b2 f5 3b 6b 51 b3 3a 2c ce 4b bd
       -0.048841998 0.007498095 0.0013680881 -0.049757168
000260 70 2f ce 3d 25 28 eb bd cd b9 99 bd dc e9 39 3d
       0.10067642 -0.11482266 -0.07506142 0.04538904
000270 7b 3e 96 bd 98 0a 47 3c 52 b8 f0 bd a8 ef 8d 3d
       -0.07336136 0.012148522 -0.11753906 0.069304764
000280 3c c6 35 3d 53 0d e2 bd 7c 1f 59 bd 2a 0c eb bb
       0.044378504 -0.11037698 -0.05300854 -0.007173081
000290 ed e7 61 bc b8 10 56 3b 73 fa 86 bd f6 7f c4 bd
       -0.013788206 0.0032663774 -0.06590738 -0.09594719
0002a0 05 d6 90 bc 33 ec e5 3d 84 da 11 3b 4a 88 f0 bd
       -0.017680177 0.11226692 0.002225549 -0.11744745
0002b0 2d 03 90 3d 44 07 24 bd 52 c9 50 bd be af 01 3e
       0.07031856 -0.04004599 -0.050973244 0.12664697
0002c0 82 49 e8 3c 1e 6b b2 bd 11 a2 e6 bc d8 7b f5 bd
       0.028355364 -0.08711837 -0.028153451 -0.11986512
0002d0 3c 40 cd bd bd d5 55 bd 2c f7 36 3d 8b b6 84 3c
       -0.10022017 -0.05220579 0.044669315 0.016200325
0002e0 97 11 fd bc 1b 2d 73 bd ba 26 db bd 24 a9 21 bd
       -0.030892177 -0.059369188 -0.10700746 -0.039467946
0002f0 d4 63 31 3c 40 fc e1 3b 90 c5 1b 3d 2c 0f da 3d
       0.010827024 0.0068965256 0.038030207 0.10647425
000300 58 4e c6 3b d2 90 d2 3d 93 65 7b 3d 84 d1 d2 bd
       0.00605182 0.102815285 0.061376166 -0.10293868
000310 34 7f 27 3c e4 d1 ad bc 8d 38 87 bd b5 b4 59 bd
       0.010223199 -0.021218248 -0.06602583 -0.05315085
000320 3e f2 fc 3d 9d 4b f1 bd 4a 48 52 bd b6 06 bc 3d
       0.123508915 -0.11782 -0.05133847 0.091809675
000330 f2 50 5f 3c a0 d4 59 3d c3 db 02 3d 3c 22 8c 3d
       0.013630139 0.05318129 0.031947862 0.06842467
000340 3e ef b4 bd be d7 a4 3d 29 54 de bc 07 11 00 be
       -0.08834694 0.08048962 -0.02713974 -0.12506495
000350 ab 09 3e bb 14 ee f3 bc f6 82 a2 3d d1 ed bd bd
       -0.0028997462 -0.02977661 0.07935135 -0.092738755
000360 e7 3a dc bd e0 01 1c 3d 20 c0 81 bd 1b de c4 3b
       -0.10753422 0.038087726 -0.06335473 0.0060079223
000370 97 6f 52 3d d5 9d 79 3d 40 6f 24 3d 8a 20 e9 bd
       0.05137595 0.060941536 0.04014516 -0.113831595
000380 50 cd 5f 3d c6 d3 cf bd da 3b 5a bc e3 fb fd 3d
       0.05463916 -0.101478145 -0.013319934 0.12401559
000390 31 de a0 bd 0f 43 b2 bb 26 1a b4 3d 78 48 e0 bd
       -0.0785488 -0.005440123 0.0879405 -0.10951322
0003a0 fe 27 f0 bd 41 b9 90 bd f0 f5 a3 3d b4 fb ba bd
       -0.11726378 -0.070665844 0.08005893 -0.0913004
0003b0 0e e6 fc 3d 4f 8c f0 bc 5e 69 09 bc 7a 6a fd bd
       0.12348567 -0.02936378 -0.008386938 -0.123738244
0003c0 5f f1 0c bd 5b fd 8a 3d 78 72 05 bd 65 11 94 bd
       -0.034409877 0.06786605 -0.03257987 -0.0722988
0003d0 9a 8d 9c 3c 8a 6a 36 bd 79 83 f7 bd e7 58 f6 ba
       0.01911049 -0.044535197 -0.12085623 -0.0018794806
0003e0 17 37 5b 3d a8 83 6f 3d 12 8f 1f 3d da 94 ee 3c
       0.053519335 0.058475167 0.0389548 0.029123712
0003f0 7c 3d db bd 03 db 77 3d 0b e3 e0 bd a9 a4 98 bd
       -0.107050866 0.0605116 -0.10980805 -0.074532814

layer_2.bias f4 [64]
000000 26 bb 8b 3d 26 4c b9 bc 8d ff de bc 19 1d 89 bd
       0.06822805 -0.022619318 -0.027221465 -0.06695003
000010 52 a2 09 bd 22 ff da 3d c3 a8 ff bd 10 96 a2 bd
       -0.033602066 0.10693194 -0.124833606 -0.079387784
000020 44 16 b5 3d 3a b7 e1 3c ff 2a b2 3d c4 7e 98 bc
       0.088421375 0.02755319 0.08699607 -0.018615134
000030 cd e7 46 bd 0e 3d 00 be ff 64 4b 3d 62 e5 4b bd
       -0.048560906 -0.1252329 0.049656864 -0.049779303
000040 52 bf da bc 23 8b 29 bd 1c 8b 30 3b e9 6e 9e bd
       -0.026702557 -0.041392457 0.0026938384 -0.07735998
000050 9f 6a 2e 3b 5a 07 d4 3d 3b 07 bb bc 12 1e 04 3e
       0.0026613844 0.10352965 -0.022830596 0.12902096
000060 39 f4 e0 bd 17 b7 29 bc f2 81 fb 3d fa 41 db 3d
       -0.10984082 -0.010358593 0.122806445 0.107059434
000070 e6 71 d6 3b 92 41 83 bc 0e f8 9f 3d e0 a3 92 3c
       0.0065443395 -0.016022477 0.078109846 0.017900407
000080 09 27 c8 bd 99 62 6e 3d 22 fd 27 3d 01 c3 a5 bc
       -0.0977307 0.0581995 0.04101289 -0.020234587
000090 de de a9 bc 6b 8b 45 3c 9a 79 dd bd d6 08 bc bb
       -0.020736154 0.012057166 -0.10814209 -0.005738358
0000a0 0d 86 6d bd f2 7e 06 be 76 c0 a0 bd af 5e 11 3d
       -0.05798917 -0.13134363 -0.07849209 0.035490688
0000b0 14 ba c2 bd f4 90 99 bc 6e b2 f0 bd fa b6 21 3d
       -0.09508148 -0.018745877 -0.11752783 0.03948114
0000c0 ca af f6 bd 59 ff cf 3d 62 9e 89 bb 8d 14 65 3d
       -0.12045248 0.101561256 -0.004199789 0.055927802
0000d0 3f 67 cb 3d bc 70 9a bd 25 90 5e 3d fc 4c 8f bd
       0.09931802 -0.075410336 0.054336686 -0.069971055
0000e0 90 51 ee bd 02 5d 1a 3e 7e 0d fd 3d 4d 6b a3 3d
       -0.116366506 0.15074542 0.12356089 0.079794504
0000f0 7e 28 d1 bc 33 20 ae 3d 38 10 38 bd 47 f6 65 3d
       -0.025532003 0.08502235 -0.044937342 0.05614307

layer_3.weight f4 [1, 64]
000000 39 9f d5 3c 1c cc 89 3d 76 24 dd bd f9 0a e4 3b
       0.0260769 0.06728384 -0.1079797 0.006959316
000010 b6 94 b2 3d d0 83 9f 3c f0 83 14 3d bf fb ab 3b
       0.087197706 0.019472033 0.036258638 0.0052485163
000020 b8 1f 31 3e b5 d9 13 3d 98 a1 1e be 00 b6 c9 bd
       0.17297256 0.036096293 -0.1549133 -0.09849167
000030 0d eb a4 bd 48 a7 f7 3c b9 54 48 bc 7b dd 9a 3d
       -0.08052645 0.030231133 -0.012227231 0.07561775
000040 b4 d3 61 3d ab 90 d3 3d 38 ef 98 bd 97 fc a4 3d
       0.055133536 0.103303276 -0.07467502 0.0805599
000050 87 85 a6 bd 3a e4 e1 3d 47 45 d5 3d 5b 47 79 bd
       -0.08130937 0.11029859 0.10413604 -0.060859066
000060 40 c4 99 bd dc 44 55 3d 80 ac 3d be f5 7f 12 3d
       -0.07508135 0.052067623 -0.18522835 0.03576656
000070 2a cd a7 3e 4e 70 da bd 8b 10 25 bd d9 56 9e bd
       0.32773715 -0.10665952 -0.04029898 -0.077314086
000080 dc 48 67 3d 66 a6 eb 3d 4c d4 1e 3e f9 3f b3 3c
       0.05646597 0.11506347 0.15510672 0.02188109
000090 58 f6 6e bd 23 b6 b8 b8 cb 90 ce 3d 8c 78 15 bd
       -0.0583404 -8.807729e-05 0.10086211 -0.036491916
0000a0 2b bb 04 3d c5 f1 34 bb 2b 9e a2 3d dd a4 ad bd
       0.03240506 -0.0027609926 0.079403244 -0.08478711
0000b0 81 c6 1e 3d be 4c 3b bb 0c c0 8b 3b f7 0d 05 be
       0.038763527 -0.0028579677 0.004264837 -0.12993608
0000c0 cb a2 81 3d 48 b8 42 be 5e b0 e0 3c 5f 7b c6 bd
       0.063298784 -0.1901561 0.027427848 -0.096915
0000d0 ff 15 8e bc 0d d8 ce bd 1d 7f 67 3e 1a 15 a0 3d
       -0.017344473 -0.10099802 0.22607084 0.07816525
0000e0 c6 f1 e8 3d 00 d5 76 be 89 a2 18 bd d6 66 ac bc
       0.113742396 -0.2410469 -0.03726438 -0.02104513
0000f0 71 f7 37 3d 78 d3 35 3e bc fc 52 3d eb c1 05 3e
       0.044913713 0.1775645 0.051510558 0.13062255
