checkpt/isolated/client_9.pth (torch, 69791 bytes, 5 tensors)

layer_1.weight f4 [64, 197]
0	0xbbc58330	-0.0060276017
1	0xbd5aa69b	-0.053381544
2	0x3d07917d	0.033097733
3	0xbd844454	-0.06458345
4	0xbd6a1942	-0.057152994
5	0x3c157e40	0.009124339
6	0xbd1b055a	-0.0378469
7	0x3d2b33c9	0.041797433
8	0x3d3b0189	0.04565576
9	0xbd33b3d6	-0.043872677
10	0x3c8288c7	0.015934361
11	0x3c43b200	0.011944294
12	0xbd58b0c5	-0.052902956
13	0x3ce1dcde	0.027571138
14	0xbd3d637c	-0.046237454
15	0xbd171b76	-0.036891423
16	0xbd200c41	-0.039074186
17	0xbcb640ac	-0.022247635
18	0xbd135d31	-0.035977546
19	0x3d4b5cfe	0.04964923
20	0xbc918e41	-0.017768027
21	0xbd706fc8	-0.058700353
22	0x3d596cf3	0.053082418
23	0x3d81f3cc	0.06345329
24	0x3d1bef68	0.038070112
25	0xbd11b9d0	-0.035577595
26	0xbc4e0556	-0.012574514
27	0x3ce0370c	0.027369998
28	0xbc4024cd	-0.011727524
29	0x3c68e71b	0.014215256
30	0xbb5eb418	-0.0033981856
31	0xbce05518	-0.027384326
32	0xbd80a1e3	-0.062808774
33	0xbcd761ad	-0.026291693
34	0x3d83c27e	0.06433581
35	0x3d89ade5	0.06722621
36	0xbd50d614	-0.05098541
37	0x3cc7e379	0.02440046
38	0xbc12f872	-0.008970367
39	0xbc6e1b44	-0.014532868
40	0xbc9e70cc	-0.019340895
41	0x3d25d3a1	0.04048503
42	0xbc367898	-0.01113715
43	0x3bb84b46	0.0056242077
44	0x3ce9947b	0.028513184
45	0xbd0353c2	-0.0320623
46	0x3d419f47	0.04727104
47	0x3ce1632e	0.027513113
48	0xbce3f078	-0.027824625
49	0x3d38ef75	0.04515024
50	0x3ae36ed0	0.001735175
51	0x3d83e569	0.06440241
52	0xbd2b8771	-0.041877214
53	0x3d65aefc	0.05607508
54	0x3d884c21	0.066551454
55	0xbd269c9f	-0.04067671
56	0x3d632a12	0.055460043
57	0xbb4dd800	-0.0031409264
58	0xbd505c7a	-0.050869443
59	0x3d81fea7	0.06347399
60	0x3c3141a8	0.010818876
61	0x3bb56ce1	0.005536661
62	0xbc98fc86	-0.0186751
63	0x3ca35f88	0.019943014
64	0x3d8f4213	0.069950245
65	0x3c77860c	0.015107643
66	0x3c127888	0.00893987
67	0x3c31b218	0.0108456835
68	0xbd263946	-0.040581964
69	0x3c9d0cc9	0.019171136
70	0x3d34e31a	0.044161893
71	0x3d70bc02	0.05877305
72	0x3d0ba455	0.034092266
73	0xbc4b061c	-0.012391593
74	0x3d61799d	0.05504762
75	0xbc2ea318	-0.010659002
76	0xbd13cdf4	-0.036085084
77	0xbd3b4c3d	-0.045727003
78	0x3ce14f7e	0.027503725
79	0x3b14bf60	0.0022697076
80	0xbba27ad5	-0.0049584904
81	0x3d630cbc	0.055432066
82	0xbc8342e1	-0.016023101
83	0x3d4ac30e	0.049502425
84	0x3d720742	0.059088953
85	0xbc485d39	-0.012229257
86	0xbc5b0788	-0.013368495
87	0xbd6cdc2e	-0.057827167
88	0xbcb53160	-0.02211827
89	0xbcdebaa3	-0.027188605
90	0xbc45e1ff	-0.012077807
91	0xbba0fe91	-0.004913159
92	0xbbd86923	-0.00660433
93	0x3d458c50	0.048229516
94	0x3d1f0961	0.038827304
95	0x3c63974d	0.013891053
96	0xbc6c8c14	-0.014437694
97	0xbd5c5b8c	-0.053798243
98	0xbd802d66	-0.06258659
99	0x3d77ea90	0.06052643
100	0x3c85c334	0.016328432
101	0xbccbeb65	-0.024892518
102	0xbc00c7f4	-0.007860173
103	0xbd3c498d	-0.04596858
104	0xbc88df04	-0.016707905
105	0xbd6dd1e0	-0.05806148
106	0x3caf09b1	0.021366926
107	0xbc393548	-0.011304207
108	0x3cd53209	0.026024835
109	0x3cb5192a	0.022106726
110	0xbd26d134	-0.040726855
111	0xbc5f49e1	-0.013628454
112	0xbb76552f	-0.0037587394
113	0xbcd71a8c	-0.026257776
114	0x3ae46ff9	0.001742839
115	0xbd0038a5	-0.03130402
116	0xbbdd88b6	-0.006760682
117	0xbd3ead01	-0.046551708
118	0xbd43a240	-0.047762156
119	0xbd16d62f	-0.036825355
120	0xbd52b216	-0.051439367
121	0x3ca381f2	0.019959424
122	0x3d1f2857	0.03885683
123	0xbc7b6b3c	-0.015345391
124	0xbcfaa22c	-0.030594908
125	0xbd049b6c	-0.032374784
126	0x3aba2c1c	0.001420382
127	0xbd329ea2	-0.043608315
128	0x3d42bf8f	0.047545966
129	0x3c29f602	0.010373594
130	0xb9af8ec9	-0.00033484984
131	0xbd5d367e	-0.054007046
132	0xbd2b2df1	-0.04179186
133	0xbada9b34	-0.0016678334
134	0x3d899b26	0.06719045
135	0xbc508383	-0.012726667
136	0xbd87c913	-0.06630149
137	0xbcc8520f	-0.024453191
138	0x3d8af59e	0.06785129
139	0xbd3cc15a	-0.046082832
140	0xbd281a54	-0.041040733
141	0xbcae5754	-0.021281876
142	0xbd6e8362	-0.058230765
143	0x3c191e45	0.009345596
144	0x3d77960a	0.060445823
145	0x3ca24813	0.019809758
146	0x3cdbd5b0	0.026835293
147	0x3d74a21e	0.05972492
148	0x3d380a36	0.044931613
149	0x3d32ae9f	0.043623563
150	0xbd528f8c	-0.05140643
151	0x3b9b6b04	0.004742982
152	0x3d6d6742	0.057959802
153	0x3d077613	0.03307159
154	0xbb060dae	-0.002045493
155	0xbce98762	-0.028506938
156	0xbd3b5562	-0.045735724
157	0xba96aaa3	-0.0011494946
158	0x3d4738cf	0.04863816
159	0x3ce806fb	0.028323641
160	0xbcc1fd9c	-0.0236805
161	0xbba06846	-0.004895243
162	0x3cd2a9e1	0.02571577
163	0x3d255673	0.040365648
164	0x3d7670b4	0.060166076
165	0x3d1d3298	0.038378328
166	0x3cf3194c	0.029675148
167	0xbcf03baa	-0.029325325
168	0xbd0b2b2a	-0.03397671
169	0x3d769025	0.06019606
170	0x3cac21b0	0.021012157
171	0xbd155619	-0.036459062
172	0x3d8d4284	0.068974525
173	0x3ce275cd	0.027644062
174	0x3d67fdf1	0.05663866
175	0x3c3f8260	0.011688799
176	0x3d6a0e72	0.057142682
177	0x3d6811db	0.056657653
178	0x3d4cf238	0.050035685
179	0xbd291c48	-0.041286737
180	0x3cf3cd71	0.029761048
181	0xbd9a3248	-0.07529122
182	0xbd386ac2	-0.045023687
183	0xbd534820	-0.051582456
184	0x3d1276ee	0.03575795
185	0x3cca9936	0.02473126
186	0x3d84a59c	0.064769
187	0xbcb318f0	-0.021862477
188	0xbcf400bd	-0.029785508
189	0xbd6cd4fe	-0.057820313
190	0xbc3b347a	-0.011426086
191	0x3d04dc46	0.03243663
192	0x3d5426c7	0.051794793
193	0xbd968a9f	-0.073506586
194	0x3cf35e1b	0.029707959
195	0xbd7415da	-0.05959115
196	0x3d18a59b	0.03726731
197	0x3d26606e	0.040619306
198	0x3d8232f4	0.06357375
199	0xbd34237d	-0.043979157
200	0xbd7f7184	-0.062364116
201	0xbcdaa394	-0.026689328
202	0xbc9433e0	-0.018091142
203	0xbb800a75	-0.0039074966
204	0x3c862fdc	0.016380243
205	0x3ce37388	0.02776505
206	0xbd5735af	-0.05254143
207	0xbd3b96ec	-0.045798227
208	0xbb11e266	-0.0022260188
209	0xbd1bf141	-0.038071875
210	0xbd107550	-0.035268128
211	0x3d8410c3	0.064485095
212	0x3d73a4c6	0.059483312
213	0xbd90a1fb	-0.07062145
214	0xbdb430ae	-0.087983474
215	0xbda14f95	-0.07876507
216	0xbcc185c2	-0.023623351
217	0x3c3950aa	0.011310736
218	0xbd531e8f	-0.051542815
219	0xbcbb4f60	-0.022864997
220	0x3b348933	0.0027547597
221	0xbd67f500	-0.056630135
222	0xbd0f498d	-0.034982253
223	0x3d82eae2	0.063924566
224	0x3d82622b	0.0636638
225	0xbd0f9d6c	-0.03506224
226	0xbc9cce00	-0.019141197
227	0x3da2d29a	0.07950325
228	0x3cd92ec4	0.026511557
229	0x3d6fc9c4	0.058542028
230	0x3d8280d5	0.06372229
231	0x3d02e1f4	0.031953767
232	0xbd331253	-0.043718647
233	0x3d57eab2	0.052714057
234	0x3d5244e5	0.051335234
235	0xbd81f121	-0.0634482
236	0xbbbcecb0	-0.00576552
237	0x3b73c494	0.0037196027
238	0x3c191984	0.009344462
239	0xbd8b2e72	-0.06795968
240	0x3da54052	0.08068909
241	0xbd2b489a	-0.041817285
242	0xbd1687f5	-0.036750752
243	0xbd929d64	-0.07158926
244	0x3bb2554c	0.005442297
245	0x3c9f87f0	0.019474
246	0xbbb70446	-0.005585226
247	0xbd6c9885	-0.05776264
248	0x3b78a178	0.003793804
249	0xbcadfdd3	-0.021239197
250	0x3d8b09de	0.067889914
251	0xbc00e4d1	-0.007867054
252	0x3d68620a	0.056734122
253	0x3d4ad1c6	0.04951646
254	0xbd467b06	-0.048457168
255	0x3d80f1cb	0.06296118

layer_1.bias f4 [64]
0	0x3c4a490e	0.012346519
1	0xbd0776e6	-0.033072375
2	0x3ccef1a0	0.0252617
3	0x3d35f36a	0.04442159
4	0xbd151650	-0.036398232
5	0xbc806eb1	-0.015677782
6	0xbc933f7a	-0.017974604
7	0x3cd7ae39	0.026328193
8	0xbd56407f	-0.052307602
9	0xbd657d31	-0.056027595
10	0x3d9471e3	0.07248285
11	0x3d9f34e0	0.07773757
12	0xbd7685c6	-0.06018617
13	0x3c4bff11	0.012450949
14	0xbd803a34	-0.06261101
15	0xbd456bd0	-0.04819852
16	0xbd6d58f2	-0.057946153
17	0xbd6b79de	-0.05748927
18	0xbcad09c2	-0.021122817
19	0xbb8079e3	-0.00392078
20	0x3c48b037	0.012249044
21	0xbccf6aa2	-0.025319401
22	0xbd5d7746	-0.054068826
23	0x3d3f62a5	0.046724934
24	0x3d26bf3d	0.040709723
25	0x3cbb4551	0.022860201
26	0xbb52b389	-0.0032150468
27	0x3d49aec4	0.049238935
28	0xbcce7f7e	-0.025207277
29	0x3c9fbb17	0.019498391
30	0xbd455317	-0.048174944
31	0x3d105a9d	0.035242666
32	0x3d1f969c	0.03896199
33	0xbc90a010	-0.017654449
34	0xbc57ec96	-0.013178965
35	0x3d3f2070	0.046661794
36	0x3d8d7398	0.069068134
37	0x3d876cff	0.06612586
38	0xbcd17403	-0.025568014
39	0x3db2691c	0.08711454
40	0xbd8c905d	-0.068634726
41	0xbb87a3ca	-0.004139398
42	0x3d67a5a3	0.056554448
43	0xbd8c7552	-0.068583146
44	0x3d3efd8c	0.04662852
45	0xbd5e9ec2	-0.054350622
46	0x3d1f7dc8	0.038938314
47	0x3db4ea5c	0.08833763
48	0x3c2854d6	0.010274133
49	0xbd7b7165	-0.06138744
50	0x3d3672ef	0.044543203
51	0xbd571f3c	-0.05252002
52	0xbd26a456	-0.040684067
53	0xbcde8f8e	-0.027168062
54	0xbd012334	-0.031527713
55	0x3c9f1f7b	0.01942419
56	0xbc079d93	-0.008277315
57	0x3d4ef26e	0.050524168
58	0x3d82492a	0.06361611
59	0x3d61582c	0.055015728
60	0xbc8eb802	-0.017421726
61	0xbd3d6574	-0.04623933
62	0x3d53a048	0.051666528
63	0xbca24621	-0.01980883

layer_2.weight f4 [64, 64]
0	0x3c43b0b5	0.011943986
1	0xbdda4717	-0.106580906
2	0xbc5c43df	-0.013443916
3	0x3dc7bb2b	0.09752496
4	0xbde0d570	-0.1097821
5	0xbd509fec	-0.050933763
6	0xbd0a7f01	-0.033812527
7	0x3c019083	0.007907989
8	0xbda94f2d	-0.08267055
9	0x3d7bc544	0.061467424
10	0xbd3f3359	-0.04667983
11	0xbded1fd3	-0.115783356
12	0x3cb640b3	0.022247648
13	0xbd4ac0a7	-0.049500134
14	0x3d3fac11	0.046794955
15	0x3d5472dd	0.051867355
16	0x3d84df52	0.064879075
17	0x3da53344	0.08066419
18	0x3d89c308	0.067266524
19	0x3da46ef1	0.08028973
20	0xbdacebd2	-0.08443417
21	0x3dd19625	0.10233716
22	0xbd278478	-0.040897816
23	0x3ddd43af	0.10803925
24	0xbd4f7690	-0.05065018
25	0xbda3b50a	-0.07993515
26	0x3c818a21	0.015812935
27	0xbdfca553	-0.123362206
28	0xba369e6b	-0.0006966355
29	0x3c8f17ab	0.01746734
30	0x3db88bc6	0.09011035
31	0xbda65a84	-0.08122733
32	0x3d69d7b9	0.057090495
33	0x3dc53b7a	0.09630485
34	0xbde1b500	-0.11020851
35	0x3d8d1aa8	0.0688985
36	0x3c6ee385	0.014580612
37	0x3d1748b0	0.036934555
38	0xbddd4134	-0.10803452
39	0xbd255ed3	-0.040373635
40	0xbd119a36	-0.035547458
41	0x3cf54a6c	0.029942714
42	0xbd2fc3e0	-0.04291141
43	0xbd3423f9	-0.04397962
44	0xbdd1a1ea	-0.10235961
45	0x3d3b055a	0.0456594
46	0x3daeb6cf	0.08530962
47	0xbc559c00	-0.013037682
48	0xbd5edbd5	-0.054408867
49	0x3deb46c5	0.114881076
50	0x3d6ed8c9	0.05831221
51	0xbd60d1ca	-0.05488757
52	0xbd19077f	-0.037360664
53	0xbd0bfc6e	-0.034176283
54	0x3dc87dd3	0.09789624
55	0xbd860577	-0.06544011
56	0x3d8a9a66	0.067677304
57	0xbdef6e7b	-0.11690994
58	0x3d99ee39	0.075161405
59	0xbdc71704	-0.09721187
60	0xbdad9495	-0.084756054
61	0xbda47917	-0.080309086
62	0x3d7ec5e6	0.06220045
63	0xbd8a9754	-0.06767145
64	0xbcbf09c6	-0.02332009
65	0x3dc97a5b	0.098377906
66	0xbde50204	-0.11182025
67	0xbcfca090	-0.03083828
68	0x3dde9025	0.10867337
69	0x3d18de17	0.037321176
70	0x3bdbaa31	0.006703638
71	0xbc02df3b	-0.007987793
72	0xbddfea11	-0.109333165
73	0xbde186bd	-0.110120274
74	0x3b079b8c	0.0020692078
75	0x3d76d7f7	0.060264554
76	0xbc53f4c3	-0.012936774
77	0x3da3d22e	0.07999073
78	0x3d4e34ab	0.050343197
79	0xbd25af79	-0.040450547
80	0x3ddc6cbf	0.10762929
81	0x3dc5ddab	0.096614204
82	0x3d354097	0.04425105
83	0xbc0827b2	-0.008310245
84	0x3d24f644	0.04027392
85	0xbdf8b2da	-0.12143488
86	0x3daa2040	0.083069324
87	0xbd32f213	-0.04368789
88	0xbc10f735	-0.008848001
89	0x3debca18	0.11513156
90	0xbde188d7	-0.11012428
91	0x3d229c38	0.039699763
92	0xbd339cff	-0.043850895
93	0xbdcbf732	-0.09959258
94	0xbdab724c	-0.0837141
95	0xbda9bafb	-0.08287617
96	0x3de3d140	0.11123896
97	0x3d1720df	0.036896583
98	0x3d48568e	0.04891067
99	0x3b45d6d8	0.0030187871
100	0xbd0164ee	-0.031590395
101	0x3d83aab5	0.06429044
102	0xbde03c07	-0.10948949
103	0xbdcb41df	-0.09924673
104	0xbdfb93a3	-0.12284019
105	0x3d86c435	0.06580392
106	0xbcf202c8	-0.029542342
107	0x3d958530	0.07300794
108	0x3db59500	0.0886631
109	0xbd86ab62	-0.065756574
110	0xbdb9d7c6	-0.09074359
111	0x3dc9c4a6	0.09851961
112	0x3daed19c	0.085360736
113	0xbd9d4b95	-0.07680432
114	0xbd54206b	-0.05178873
115	0xbb0a34bd	-0.0021088563
116	0x3dd745f4	0.105113894
117	0x3da9d442	0.08292438
118	0x3d9b5408	0.07584387
119	0xbdc6c6b6	-0.0970587
120	0xbdd00f50	-0.10159171
121	0x3dbcc943	0.09218075
122	0xbd7140d3	-0.05889971
123	0x3dbeb151	0.09311164
124	0x3daeb0de	0.085298285
125	0x3ca18420	0.019716322
126	0x3dac67cf	0.084182374
127	0x3db2a090	0.08722031
128	0xbc90adf3	-0.01766107
129	0x3d1d834d	0.038455296
130	0xbd43034b	-0.047610562
131	0xbd2c4db3	-0.042066287
132	0xbd967157	-0.073458366
133	0xbd500684	-0.050787464
134	0x3d02da92	0.031946726
135	0x3d2b1551	0.041768376
136	0x3d467511	0.048451487
137	0x3dc60c11	0.0967027
138	0xbdc436b6	-0.09580748
139	0xbd6e23e1	-0.058139686
140	0x3da73b4d	0.081656076
141	0xbd995c14	-0.07488266
142	0x3d9686a2	0.07349898
143	0xbc55de9d	-0.013053563
144	0x3cfb9f3e	0.030715581
145	0xbde811b9	-0.11331505
146	0x3dfcf3b5	0.12351171
147	0xbb4466af	-0.002996843
148	0x3d210eec	0.03932087
149	0x3dc177b2	0.09446658
150	0x3dcc4abf	0.09975194
151	0xbddbc41b	-0.107307635
152	0xbd4300a6	-0.04760804
153	0x3cb932a9	0.022607164
154	0x3d952126	0.07281713
155	0xbd8301ca	-0.063968256
156	0x3ccb3f3b	0.024810424
157	0xbd9053a5	-0.07047204
158	0x3da1e59f	0.07905125
159	0xbbc20427	-0.005920905
160	0xbc95b3af	-0.018274156
161	0xbbadf190	-0.0053083375
162	0xbd2da1bb	-0.042390566
163	0x3d80d544	0.06290677
164	0x3de6be52	0.112667695
165	0x3dcd21cf	0.10016214
166	0x3c723a80	0.014784455
167	0xbcd464c7	-0.02592696
168	0x3b9a6523	0.0047117635
169	0x39fbcc04	0.00048026454
170	0xbdb8609e	-0.09002803
171	0xbdaafb2c	-0.083486885
172	0xbdd38c49	-0.10329492
173	0x3d8c61b8	0.06854576
174	0xbcd15e75	-0.025557736
175	0xbccfeefa	-0.025382508
176	0xbddee4c0	-0.10883474
177	0x3d31cc14	0.043407515
178	0xbda94eb9	-0.08266968
179	0x3dfe2b50	0.12410605
180	0xbc809bbf	-0.015699266
181	0x3d96e617	0.07368105
182	0xbc1998a7	-0.009374774
183	0xbd8b8601	-0.068126686
184	0x3c40cf78	0.011768214
185	0x3d83da88	0.06438166
186	0x3cd70474	0.02624724
187	0x3d70e92d	0.058816124
188	0xbd2e8393	-0.042605948
189	0xbd97b700	-0.07407951
190	0x3d5d6515	0.054051477
191	0xbba3bf54	-0.0049971733
192	0xbd922246	-0.071354434
193	0xbdca270a	-0.09870727
194	0xbdcfd9e2	-0.1014898
195	0x3d9b7288	0.075902045
196	0x3d556dca	0.052106656
197	0xbc254d3c	-0.010089215
198	0x3d476d23	0.048688065
199	0xbdc5a7fb	-0.0965118
200	0x3d21bd25	0.039487023
201	0xbdfdd681	-0.12394429
202	0x3da0041e	0.07813285
203	0x3a2807a2	0.0006409829
204	0x3d894532	0.06702651
205	0x3c0cd00d	0.008594525
206	0x3b911d48	0.0044285394
207	0x3daf099c	0.08546755
208	0x3d54eb60	0.051982284
209	0xbd94f3d3	-0.07273068
210	0x3d1bc84e	0.038032822
211	0xbdb4bc38	-0.088249624
212	0x3d956777	0.07295125
213	0xbd14fd84	-0.036374584
214	0x3ce08f34	0.027412035
215	0xbd0ca697	-0.03433856
216	0x3ccc3845	0.024929175
217	0xbdc95c64	-0.09832075
218	0x3d069a71	0.03286213
219	0x3dcb1a56	0.099171326
220	0xbd8fefc7	-0.07028156
221	0xbdf040d7	-0.11731117
222	0x3da62824	0.08113125
223	0xbd702bb7	-0.05863544
224	0x3df007f6	0.117202684
225	0x3d935599	0.07194061
226	0x3c83ceac	0.01608976
227	0x3e0035bb	0.12520497
228	0xbde5d237	-0.11221736
229	0xbdaf6158	-0.08563489
230	0xbdfb7276	-0.12277691
231	0x3d904227	0.070438676
232	0xbda0be1d	-0.07848761
233	0x3d3b7dda	0.04577432
234	0x3d1e7906	0.038689636
235	0xbd501a83	-0.050806534
236	0x3d17052f	0.036870178
237	0xbc9db61f	-0.019251881
238	0xbd5e933e	-0.05433964
239	0x3db8e504	0.09028056
240	0x3db4f5ef	0.088359706
241	0xbba7f76a	-0.0051259296
242	0x3dfedfac	0.12445006
243	0xbdcd0bdd	-0.10012028
244	0x3d218806	0.039436363
245	0xbc0497bc	-0.008092817
246	0x3d8ca5b5	0.068675436
247	0x3da2a624	0.07941845
248	0x3d608946	0.054818414
249	0x3be07799	0.0068501947
250	0x3c894a08	0.016758934
251	0xbd8caa78	-0.06868452
252	0x3d801cc3	0.06255486
253	0x3dfe9b67	0.124319844
254	0x3d0b0e8c	0.03394942
255	0x3dbac94b	0.09120425

layer_2.bias f4 [64]
0	0xbcdaff7f	-0.026733158
1	0x3b848bcf	0.004044987
2	0xbdce5620	-0.10075021
3	0x3d1dd60c	0.03853421
4	0x3de86aaf	0.11348473
5	0x3c7f2ce1	0.015574665
6	0x3de5bc19	0.112175174
7	0xbc839155	-0.01606051
8	0xbd649d80	-0.055814266
9	0xbdd78d95	-0.105250515
10	0x3d666640	0.056249857
11	0x3cdd6cf8	0.0270295
12	0x3e222972	0.15836123
13	0x3dcd9f3f	0.100401394
14	0x3cb8575e	0.022502597
15	0xbaf95cbf	-0.0019024833
16	0xbc564d30	-0.013079926
17	0x3cbcf43a	0.023065675
18	0x3da7115f	0.0815761
19	0xbd47c185	-0.04876854
20	0x3dd15c38	0.102226675
21	0x3baa8277	0.005203541
22	0x3dfcb15e	0.123385176
23	0x3d94637f	0.0724554
24	0x3de37076	0.111054346
25	0xbd67a6e7	-0.056555655
26	0xbdb57db7	-0.08861869
27	0xbdd3e81f	-0.10347008
28	0xbcd88b2e	-0.026433554
29	0xbd360bdd	-0.044444907
30	0xbd6752de	-0.056475513
31	0x3d9ed328	0.077551186
32	0xbd6ffb60	-0.05858934
33	0x3c165d3f	0.009177505
34	0x3d9e0b3f	0.07716989
35	0xbc97704a	-0.01848616
36	0x3c27f6a7	0.010251678
37	0xbcc5677d	-0.024097199
38	0xbcd94332	-0.026521299
39	0xbdeb482a	-0.114883736
40	0xbde88b9a	-0.11354752
41	0xbd153bbd	-0.036433924
42	0xbd849751	-0.06474174
43	0x3d8a415b	0.06750747
44	0x3dc31523	0.09525516
45	0xbd1cdcd1	-0.038296524
46	0xbd86e14d	-0.065859415
47	0x3d446dff	0.047956463
48	0x3da19324	0.07889393
49	0xbd258d13	-0.040417742
50	0x3dea030d	0.11426363
51	0xbdc04984	-0.09389022
52	0xbd71c1ad	-0.059022594
53	0x3cde6252	0.027146492
54	0xbddfc7fd	-0.109268166
55	0x3da49a80	0.08037281
56	0xbd897d80	-0.0671339
57	0x3c3ab9df	0.011396854
58	0xbc215a90	-0.009848252
59	0x3c340f2c	0.010989945
60	0xbd8a94ed	-0.067666866
61	0x3d9f877f	0.07789516
62	0xbae18d98	-0.0017208336
63	0x3dc79dde	0.09746908

layer_3.weight f4 [1, 64]
0	0xbda5425a	-0.08069296
1	0xbd259947	-0.04042938
2	0xbdc3522f	-0.0953716
3	0x3dcc6029	0.099792786
4	0xbd0746b4	-0.033026412
5	0xbd07f4ad	-0.033192325
6	0xbdec6cd0	-0.11544192
7	0xbdce389b	-0.100693904
8	0x3c812634	0.015765287
9	0x3df54a92	0.11977114
10	0xbe1f3ae4	-0.15549809
11	0xbddb4499	-0.10706443
12	0xbe1c21af	-0.15247224
13	0xbd5db047	-0.05412319
14	0x3d885a29	0.06657822
15	0xbddcf771	-0.10789383
16	0x3e3a0e10	0.18169427
17	0xbe1b97e8	-0.15194666
18	0x3e5f3c52	0.21800354
19	0x3db14d95	0.08657376
20	0xbd22bbc5	-0.039729852
21	0x3dc93feb	0.098266445
22	0xbdc9ba55	-0.09849993
23	0x3dd01dfb	0.10161968
24	0xbe26d5b5	-0.1629246
25	0x3e2cbc7a	0.16868773
26	0xbdd210d7	-0.10257118
27	0xbd8d984d	-0.06913815
28	0xbe17bf66	-0.14819106
29	0x3cb503a8	0.02209647
30	0x3e7ff9d0	0.2499764
31	0xbdd0ec59	-0.1020133
32	0x3e351187	0.17682467
33	0xbda58077	-0.08081143
34	0x3df7e570	0.121043086
35	0xbd3dab49	-0.04630593
36	0x3d8f7de7	0.07006436
37	0x3e3cced3	0.18438272
38	0xbe0d74bd	-0.13814063
39	0x3d431748	0.047629625
40	0xbd60d0bf	-0.054886576
41	0xbd89192a	-0.06694253
42	0x3e315b01	0.17319871
43	0xbd7e7a51	-0.06212837
44	0xbdb79cd7	-0.08965462
45	0x3dd894e2	0.10575272
46	0xbca280b0	-0.019836754
47	0x3c8a3ff9	0.016876208
48	0x3d002666	0.03128662
49	0xbdc15e9d	-0.09441874
50	0x3d77ebf6	0.060527764
51	0x3da094cf	0.07840883
52	0x3e863899	0.26215056
53	0x3e35fd1b	0.17772333
54	0xbd83eacc	-0.06441268
55	0x3dbb2b3a	0.09139104
56	0xbdb12204	-0.08649066
57	0xbc9073ee	-0.017633405
58	0x3dfce516	0.12348382
59	0x3da49024	0.08035305
60	0x3d9d2839	0.076736875
61	0xbe4b4227	-0.19849454
62	0xbd541aa9	-0.051783238
63	0x3e0f32c6	0.13984212
