checkpt/isolated/client_2_1.pth (torch, 69463 bytes, 5 tensors)

layer_1.weight f4 [64, 197]
00000000: e097 883c db10 133d 2f1b 7f3b 39e1 e33c
00000010: 3907 063b 006c 0c39 8835 033d 098c 91bd
00000020: 474c 7abd 18d3 37bd 657c 563c 6c45 fdbc
00000030: 29bf c7bc 7a8c 423d 16fe 77bd c05f c6ba
00000040: 7d1e 87bd e0af 8abd 89a7 9738 fedc 6dbd
00000050: 4a2f 813b 0c17 433d 3834 38bd 4cf4 133b
00000060: 1639 6abd fb59 5d3d f143 853c f091 253c
00000070: 14e1 90bd 4225 adbc 2078 8c3c 7982 5dbd
00000080: ce2b 90bb c2e4 0c3b c11e adbd c099 79bd
00000090: 4425 5ebb fdf2 1fbd b9d1 22bd 44e8 bf3c
000000a0: 2302 15bc 5a00 e23c fd50 9a3c ec31 733c
000000b0: 69e0 af3c 2b29 183d 9028 363d 1734 5d3d
000000c0: e549 563d d2e9 4e3d 606e 413c 3511 2d3d
000000d0: c21e 84bd b234 96bd a470 223d 12de 20bd
000000e0: bfcf a9bc 0c6c 6cbc de36 dfbc 6086 453d
000000f0: dfc1 ccbc 2d56 6ebd 8b67 053d f77b 1fbd
00000100: 8009 9bbb d5c9 13bd 35a4 5cbd fd40 913d
00000110: 9d05 043d a203 84bd e02c 823d ab33 77bd
00000120: d801 ef3c 0e25 11bd 3447 77bd c598 833d
00000130: ae59 513d 3ebe 843d 1299 0d3d a2b4 3cbd
00000140: fe2a 153c 51eb 043d 695a 5abd 0879 d43c
00000150: c88a bd3c a050 8dbd 611e 89bd 6c59 063d
00000160: f292 003d 300e 5bbd 1520 0a3d 2580 6bbb
00000170: 3511 3fbd 66f9 fcbc 082b cf3c ba7c 1f3d
00000180: d464 b03c ee2d 813c 60a2 5c3d 9a14 68bc
00000190: 63d0 8a3d be9b 63bd b8d8 f63c ada9 b3bc
000001a0: a610 c1bc 6b5a 603d 01c2 88bd 1ce1 cabc
000001b0: 5d85 dfbb 8c0b 6c3d c194 0ebd d80b d738
000001c0: 8c7b 4c3d c62e 053c cdc7 183d e220 52bd
000001d0: 8324 793d e4f0 123d 6b69 13bd 466c 323d
000001e0: 5bb1 21bd f9f7 9abd a57a f8bb e01e 753b
000001f0: 329b 40bd 535b 85bd 3ff1 94bd 8987 7f3d
00000200: 7f4f a6bc 8e5b 713b cfb6 5cbd 61b7 663d
00000210: 2aec 8f3c 4f75 10bd 663e 80bd 4171 b6bb
00000220: afe2 55bc b3c2 5fbd 3eae 6fbd 8476 3dbd
00000230: 4a72 aabc 5fc9 81bd 4a47 7a3d 0597 8cbd
00000240: 0d31 60bd feb8 11bd 05f2 803d 927c 4a3d
00000250: 2ab0 433d d016 853d 6b13 173d e7f3 223d
00000260: 37c9 b23b 0ea3 e33b 506c 23bc d45f 8dbd
00000270: aea7 e33c 1754 a23c 819a d5bc c2a9 d73c
00000280: a62b 62bd 9cf8 6e3d 12bc 383c 2fae 11bd
00000290: 8ace 64bd 4371 cf3b 50dc 893b 1585 853d
000002a0: 8ea2 d8bc b7d9 5dbd 8944 d5bc 2076 123d
000002b0: b539 383d 3921 363d 64e4 82bd 9090 533d
000002c0: 3473 88b9 df88 443d 7d2a 4cbd 87b0 8fbd
000002d0: c535 523c 424e b73c 0a5d 56bd c6ce 26bd
000002e0: ad9c 883d 4a7d 333d 8830 893d 880f f23c
000002f0: 12fe 713a 99fb 4a3d 78a2 38bd 0cb5 1c3d
00000300: 242a a6bc 21d3 583d e004 66bd 7af5 3fbd
00000310: 1376 e03c 0807 5ebd b40b c3bc 8def 70bd
00000320: f84a b73c 3d14 8e3d 4be4 893d 7fe3 eaba
00000330: 8049 47bd 05e3 5dbd e6f6 61bd e1c7 213d
00000340: 14f0 173d b972 7b3d 54a8 28bd 219e 8abd
00000350: 6ccb a63c c177 42bd 380c 9abd d789 7c3b
00000360: 40d6 9a3b 9c0b 64bd 9ccb 843d 355e 4ebc
00000370: 4ee3 e8bc ec7d 4dbc 1eae 5c3d 5d39 0fbd
00000380: c8c4 48bd 9fe7 6fbd a52f 13bd c45a 883d
00000390: 251a 5dbd d549 38ba 210d 953d 7f43 893c
000003a0: 7bf7 2a3d 18c9 debc 9112 833d 9a6c 86bd
000003b0: 4d00 0fbd 4f4a 26bc 91bd 523b b818 2f3c
000003c0: e1cc 0b3d 8603 d4bc 54b6 0bbb e386 0abd
000003d0: 927c 6b3d 3c0a 93bd 361c a33c 427a da3c
000003e0: 86bf 33bd 6243 843d 73ac 2b3d 5dc4 ae3c
000003f0: 5761 413d 5061 70bc 34e7 463d cb27 7f3c
0.016673982 0.035904747 0.0038926115 0.027817355 0.0020451082 0.00013391674 0.032033473 -0.07106788
-0.0611079 -0.04487905 0.013091181 -0.030916892 -0.024383144 0.04749725 -0.06054505 -0.0015134737
-0.06597612 -0.06771827 7.231447e-05 -0.058072083 0.003942405 0.0476294 -0.044971675 0.0022576032
-0.057183348 0.05404089 0.016267749 0.010105595 -0.0707418 -0.02113593 0.017147124 -0.054079507
-0.004399753 0.0021498655 -0.084531315 -0.060937643 -0.0033896724 -0.03905009 -0.03975079 0.023426183
-0.009094748 0.027588058 0.018837446 0.014843445 0.021469312 0.037148636 0.044472277 0.054004755
0.052316565 0.050515957 0.011806101 0.042252738 -0.06451179 -0.073342696 0.039658204 -0.039274283
-0.020728944 -0.014430057 -0.027247842 0.048223853 -0.024994789 -0.058187652 0.03256945 -0.03893658
-0.004731357 -0.036081154 -0.053867538 0.07092474 0.032231916 -0.064460054 0.063562155 -0.06035201
0.029175684 -0.03543573 -0.06037064 0.06425623 0.051110916 0.06481598 0.034569807 -0.046070702
0.009104488 0.032450978 -0.053308878 0.025936618 0.023137465 -0.069001436 -0.066952474 0.032800123
0.031390138 -0.053480327 0.033722002 -0.0035934534 -0.04664727 -0.030880641 0.025289074 0.038937308
0.021532454 0.015768971 0.05386579 -0.014165068 0.06778028 -0.05556845 0.030132636 -0.021931494
-0.023567509 0.05477373 -0.06677628 -0.024765544 -0.006821318 0.0576282 -0.03480983 0.00010254205
0.04992251 0.008128827 0.03729992 -0.05130089 0.060825836 0.035874262 -0.035989206 0.04356029
-0.03947578 -0.07566828 -0.0075829797 0.0037402436 -0.047023006 -0.06511559 -0.072725765 0.062385116
-0.020301579 0.0036828252 -0.053885277 0.056327228 0.017568666 -0.035268124 -0.062619016 -0.0055677
-0.013054534 -0.05462904 -0.05851578 -0.046255603 -0.02080645 -0.063372366 0.061103143 -0.06864742
-0.05473428 -0.035576813 0.062961616 0.049435206 0.047775425 0.06498492 0.036883753 0.039783385
0.0054561156 0.006946928 -0.009974554 -0.069030434 0.027789917 0.019815488 -0.02607465 0.026326064
-0.055217408 0.05834256 0.011275308 -0.035566505 -0.055861033 0.0063306405 0.0042071715 0.06519524
-0.0264447 -0.054162707 -0.026033657 0.035757184 0.04497691 0.044465277 -0.06391218 0.051651537
-0.00026025774 0.047982093 -0.049845207 -0.07016092 0.0128302025 0.022376183 -0.052334823 -0.04072454
0.066705085 0.043820657 0.0669871 0.029548422 0.000923128 0.04955635 -0.045076817 0.038258597
-0.020283766 0.052935723 -0.056156993 -0.046864964 0.027400052 -0.054205924 -0.023809291 -0.058822203
0.022374615 0.06937454 0.067329966 -0.0017920582 -0.04865408 -0.05417158 -0.0551671 0.03949726
0.03709419 0.061388705 -0.041176155 -0.06768442 0.020360671 -0.047477487 -0.07521862 0.0038534307
0.0047252476 -0.055675134 0.06484148 -0.012595703 -0.0284287 -0.012542229 0.05387699 -0.034966815
-0.04901579 -0.0585705 -0.03593411 0.06657937 -0.05398001 -0.0007030045 0.07277895 0.016755817
0.041739922 -0.027195498 0.06400026 -0.06563683 -0.034912396 -0.0101495525 0.0032156447 0.010687046
0.034130935 -0.025880586 -0.0021318393 -0.033820044 0.057491846 -0.071796864 0.019910913 0.026669625
-0.043883823 0.06458165 0.041912507 0.021333868 0.04721197 -0.014671639 0.048560336 0.015573452

layer_1.bias f4 [64]
00000000: d9e6 053c b605 963c f4cb 82bd 35c8 23bc
00000010: 01f7 913c d7e9 47bd dbe6 ae3b 7cff 8b3d
00000020: 05c6 543c 5d78 c7bc 14a7 82bd ce98 753d
00000030: 2768 9a3c 611c 64bd 15f2 8b3d d9e8 5b3d
00000040: aebc df3c 2c30 003d fba6 99bd 5a99 15ba
00000050: e996 b8bb 5e98 94bb c6f2 823d 2254 fdbc
00000060: d9a0 b23a 0acf 3b3d a397 3dbd d5ec 443d
00000070: 7d8a a33d b2cb 3d3d f9f3 bc3d 03b7 d53d
00000080: 815b 003d 3786 e0bc cf8e c73c 7181 6d3c
00000090: 8649 4fbd cc3c 48bd 29ff 883c d1a2 3d3d
000000a0: b400 c93c 6b7c aa3b 4213 76bd 3b0c 42bd
000000b0: 79c0 363d 9602 913d eabf 14bd ba90 3dbd
000000c0: 72f3 943d ea43 bdbc 88cb 51bd c1e0 12bc
000000d0: 24d0 22bd acf3 2a3d f2f1 973c fa2b a93d
000000e0: fd29 56bd 0aa9 f53c ba62 5b3d 89ca 6f3d
000000f0: 0d97 42bd 3ce6 42bc 5a6d 183c 3671 803d
0.008172714 0.01831327 -0.06386557 -0.009996464 0.017817976 -0.04880699 0.0053375787 0.06835839
0.012986665 -0.024349386 -0.06379524 0.05996018 0.018848492 -0.055691127 0.06833283 0.053688858
0.02731165 0.03129594 -0.07502552 -0.000570675 -0.0056332243 -0.004534765 0.063939616 -0.030923907
0.0013628259 0.045851745 -0.04628719 0.048077423 0.07985399 0.046336837 0.092262216 0.10435297
0.031337265 -0.027407749 0.024360089 0.014496193 -0.050607227 -0.048886105 0.016723232 0.046297852
0.024536468 0.00520282 -0.06007696 -0.047374945 0.04461715 0.07080571 -0.036315836 -0.0462806
0.07272996 -0.023103673 -0.051219493 -0.008964718 -0.03974928 0.04173629 0.018547986 0.08260341
-0.052286137 0.02998783 0.05356095 0.058542762 -0.047507335 -0.011895712 0.009303415 0.06271593

layer_2.weight f4 [64, 64]
00000000: aa8d e63d 4ec4 6ebc 93c1 c73b ae80 733c
00000010: 6a0f d0bd 8c2b f13d be22 96bd 63fd adbd
00000020: da83 54bd 9a52 d7bd 1af5 2d3d 81fc aabc
00000030: b94e be3d fc30 72bc 13ce 783d 2461 163d
00000040: c39d 233d 9e73 183c 7099 d5bd 6e8c 62bd
00000050: 3bf7 5abb 9cc3 c5bd d2d8 b23d 104c 983d
00000060: 6355 b8bd ca2e f03d f569 ca3a d9c9 bdbd
00000070: 458d 7cbd 5e65 62bd a95d e1bd 51d8 8d3d
00000080: b9e7 e3bc a1d2 7abd 4222 9b3d 2995 f03d
00000090: 70d0 ec3d 5a80 e0bc bbf0 02bd cf10 05bd
000000a0: 7ad9 5a3d 64b3 ca3d 7b75 c63d 59c8 4fbd
000000b0: 62b1 073e 7761 683d 2e85 ad3d c0ab a93d
000000c0: 45d9 49bd 5fa6 c23d f320 e7bc d9f6 fabc
000000d0: 7c0e a93d dfd1 87bd cca1 433c ba28 bf3d
000000e0: 1de2 b2bd 419c 81bd 712b dd3d 2a80 0d3d
000000f0: 757a 1ebd bb4a a13d e30e c4bb 6d5b dabd
00000100: e26e 45bc 5a9d 783d 2ebe e63d aec9 9f3d
00000110: 1647 7dbd 13f9 50bd 1291 803c b275 92bd
00000120: 9c14 8abd 9992 f83d 2ac4 d13d a575 c23d
00000130: 9d54 3c3d 7063 d93d 5d10 75bb b373 d9bd
00000140: 900a f4bd 36a6 993d b06c d6bd 9644 40bd
00000150: d250 983d 6a51 ee3c 188d 913d 784e cfbd
00000160: ab97 4cbd 22d8 aebd 5a40 6fbc ac8e f3bd
00000170: de35 b9ba c3ce 763d d40c 103d 8e11 d4bc
00000180: 2973 09bd 8a46 f63d deaf b3bc cbb5 d8bd
00000190: fe92 423d fed2 bb3d cf24 a7bd 24e3 a23d
000001a0: 4a55 85bd 4174 2a3c d322 7bbd ae5f b2bd
000001b0: 5c70 80bd 8537 d8bc 25e3 313d 2885 303d
000001c0: 37b1 843d 958a efbd 9a4f 203d ab8a fc3d
000001d0: 778e aebd 5275 a33d d0c8 e9bd 0fb2 9b3d
000001e0: 5d2d 61bd 3c6c cf3d 734e f3bd a204 c93d
000001f0: c33d ccbd 7fca a73d d065 d93d 03fb ac3c
00000200: d073 bbbd 0ada 893d c0f8 b33d a92c 6d3d
00000210: 2146 603c 9c1d 20bd c55b 4b3d 01cf dd3b
00000220: 4479 c13d c005 54bd 992c 39bd 29b7 45bb
00000230: b7bb 25bd 32bd 953d ebec 3cbc 7952 ca3c
00000240: e549 983c a7cc e2bd 403d 56bd a341 96bc
00000250: ea46 5dbc 4bc0 cdbd e11a 57bc cf97 853b
00000260: 17de 2fbb d467 163d d008 1f3d fa32 043d
00000270: 357c b2bd 8e14 99bd 74b5 d6bc f8bb 0a3e
00000280: 4d11 903d d4ed adbd 76f2 f33a 478f 8a3d
00000290: 33ef 56bc 69be 98bd 981f 0a3d 95b9 003e
000002a0: 9a70 9dbd 0b29 663d 8da9 9d3d d0cb e1bd
000002b0: 8b58 1bbd b911 34bc dd43 a0bd 66c7 2e3d
000002c0: 9d14 a13d d1ca c03d 7f02 02bd 9046 95bd
000002d0: 728e b3bc 5fbd 7ebd cd39 04bd a136 42bd
000002e0: f5b6 a43d 80b8 55bd b925 c13d 555a 483b
000002f0: f395 62bd bc42 1dbd d621 3dbc 9d35 0a3e
00000300: 7d94 12bd 9a13 e63d a34f 7cbc 5ebf 173d
00000310: 9f31 d4bd 27fe 3a3c 2e4e b53d fd7c c03d
00000320: 9fbe b23d 859e fd3b 6b64 9d3d 43c1 fe3d
00000330: ff79 66bd 7448 69bd 44a4 cabb 4096 d539
00000340: 957f da3d e1fd 8dbd 5d3d 693c e565 54bd
00000350: e19f 5dbd d5b8 003e 1363 43bc 844f 6fbd
00000360: 520c fc3d 67e6 8fbd 44d6 b23d d88b 543d
00000370: 2e1f c03c be92 773b a51a bd3d 0b4a de3d
00000380: 1173 09be f684 c23d a83e e83d d261 8a3d
00000390: 7938 a33c 9975 48bd 310e 2a3d 33bc 57bc
000003a0: cda4 3dbd 0de9 de3c a819 1ebd a749 9f3d
000003b0: 1188 7e3d 978c 023e fd08 dc3d 7377 1c3d
000003c0: 5e13 89bd 2bf8 f6bd 918b 353c 4cc8 c83d
000003d0: 9135 943d 396e c73d 6907 993d 232d 6abd
000003e0: 2046 42bd 6d34 4c3d 24cc 16bc cd14 763b
000003f0: 3dc6 ab3a a7c2 29bd bca0 55bd 78bc 013d
0.11257489 -0.01457317 0.006096074 0.014862223 -0.1015919 0.11775884 -0.07330845 -0.08495595
-0.051883556 -0.10513802 0.042470075 -0.020872356 0.09292359 -0.014782187 0.060743403 0.036713734
0.039945375 0.009304909 -0.104296565 -0.055309705 -0.003341152 -0.0965645 0.087327614 0.07436383
-0.09000661 0.11727674 0.0015442955 -0.09267015 -0.061658163 -0.055272453 -0.110041924 0.06926025
-0.027820455 -0.061236028 0.075748935 0.117472 0.11563194 -0.027404953 -0.03196786 -0.032486733
0.053430058 0.09897497 0.09690376 -0.050728176 0.1325126 0.056733575 0.08472668 0.08284712
-0.04927947 0.09504389 -0.028213954 -0.030635284 0.08254716 -0.066318266 0.011940431 0.0933394
-0.08734534 -0.06328631 0.107993014 0.034546055 -0.038691003 0.07875582 -0.00598322 -0.10661969
-0.012050362 0.060696937 0.11266743 0.07802139 -0.06183537 -0.051018786 0.015694175 -0.07151355
-0.06742212 0.12137336 0.102424935 0.09495095 0.04597913 0.10614669 -0.0037393786 -0.10617771
-0.11916077 0.07502405 -0.10469949 -0.04694041 0.0743729 0.029091556 0.071069896 -0.101223886
-0.04994933 -0.08537318 -0.014602745 -0.11892447 -0.0014130434 0.060255777 0.035168484 -0.025887277
-0.03355709 0.12025173 -0.021934446 -0.10581549 0.047503464 0.09171103 -0.081613176 0.0795348
-0.06510408 0.010403694 -0.061312508 -0.08709656 -0.06271431 -0.026393661 0.043429513 0.043095738
0.064791135 -0.11696354 0.039138414 0.12331136 -0.08523267 0.079813614 -0.11415255 0.07602321
-0.054974902 0.10128066 -0.118801974 0.09815337 -0.099727176 0.0819292 0.10615122 0.021115785
-0.09152949 0.06731041 0.0878768 0.05790392 0.013688595 -0.039090738 0.049648065 0.0067690616
0.09446958 -0.051763296 -0.045208547 -0.0030168986 -0.040462222 0.07311477 -0.011531095 0.02469753
0.018589923 -0.110741906 -0.052304506 -0.018341845 -0.013505677 -0.100464426 -0.013128967 0.004076935
-0.0026835257 0.036720112 0.038826764 0.032275178 -0.08715097 -0.074746236 -0.02620957 0.13548267
0.0703455 -0.08492628 0.0018611688 0.06765609 -0.013118553 -0.07458193 0.033721536 0.12570794
-0.07687493 0.056191485 0.07698355 -0.11025202 -0.037926238 -0.010990554 -0.07825444 0.04267063
0.0786526 0.09413684 -0.03174066 -0.07288849 -0.02191851 -0.062192317 -0.032281686 -0.04741538
0.08042709 -0.052177906 0.09431023 0.003057142 -0.055318784 -0.03839372 -0.011543712 0.13497014
-0.03578614 0.112342075 -0.015399846 0.037047736 -0.10361027 0.011413134 0.08852802 0.093988396
0.08727764 0.0077398443 0.07685169 0.124392055 -0.05626869 -0.056953862 -0.006184133 0.0004073847
0.106688656 -0.06933189 0.014235822 -0.051854987 -0.05410755 0.12570508 -0.011925477 -0.05842544
0.123070374 -0.07026368 0.08732274 0.051891178 0.023452368 0.0037776674 0.09233598 0.10853966
-0.134228 0.094980165 0.11340076 0.06756939 0.01992439 -0.048940275 0.04151744 -0.013167429
-0.046299744 0.027210737 -0.038598686 0.0777772 0.06214148 0.12748943 0.10743902 0.038199853
-0.06693147 -0.12059053 0.0110806385 0.098038286 0.072367795 0.0973782 0.074721165 -0.057171952
-0.047430158 0.049854685 -0.009203944 0.003754902 0.0013105344 -0.0414454 -0.05215524 0.03167388

layer_2.bias f4 [64]
00000000: c036 f33d 20fb 2ebd d276 953d c1ee 0fbd
00000010: 878a 28bd 444b b83d 6fd1 4f3d b2fc 84bc
00000020: 7aa4 94bd 5882 18bd 3293 fa3c cb04 1d3d
00000030: f385 da3c 0edc b1bd efe0 19bd 682b c0bd
00000040: d369 c3bd 890f babd c1db bebd 2432 db3d
00000050: 21b5 023d 77df 9fbc 2181 94bc 1923 e53d
00000060: ce8b 473d 41ac 5b3d 38bb 7b3c e0ba 2ebd
00000070: 55e7 dcbc 544a e4bd 40e1 53ba d7b4 08bd
00000080: 83b6 7a3a 920e d4bd 69ce a33c 9ea7 eebd
00000090: 7aad 41bd c5f3 29bc 1ab4 3a3d 5365 c73d
000000a0: 92e8 af3d 607a f93d 7d8f c0bd 9ed2 c23d
000000b0: df7a 2ebd 0683 a13d 404b 943d 2dd0 92bc
000000c0: 1ef0 0f3d 6d0d 56bd a5c9 b6bd dac6 53bd
000000d0: aba6 44bd d108 b83d 4c72 163d 52d7 c13d
000000e0: 1291 d93c b8b9 68bd 72ce 693b 4292 e63c
000000f0: 6ccd f93d 9796 abbd b06f e23c 6010 1c3d
0.11875677 -0.04271996 0.07298054 -0.035139803 -0.041147735 0.08998731 0.05073684 -0.016233776
-0.07257934 -0.03723368 0.030587766 0.03833465 0.0266752 -0.0868455 -0.03756803 -0.09383279
-0.09541669 -0.09084994 -0.093192585 0.10702923 0.03191102 -0.019515736 -0.01812798 0.11188335
0.048717313 0.05363107 0.015364461 -0.042658687 -0.026965776 -0.111469895 -0.0008082576 -0.033375587
0.00095639395 -0.103543416 0.019995885 -0.11653064 -0.04728458 -0.010373061 0.045581914 0.09736123
0.08589281 0.12181544 -0.09402368 0.09512828 -0.042597648 0.07886319 0.07240915 -0.017921532
0.035141103 -0.052258898 -0.089251794 -0.05170331 -0.04801051 0.089860566 0.036730096 0.09464897
0.026558433 -0.05681774 0.003567603 0.028145913 0.12197384 -0.08378332 0.027641147 0.038101554

layer_3.weight f4 [1, 64]
00000000: 8f95 3bbe 53c2 033e b3b9 f3bd 629e 04be
00000010: feb2 22bc 1dd6 71bd 87f3 c3bc c804 1cbe
00000020: a70f d6bc 635b d5bb 1d2b 1abd 1b14 a2bd
00000030: 973b eabd 009e bbbd d349 d0bd 50f2 e4bd
00000040: 2e3d 08bd c3d3 4fbd 039d f73d fdf1 dabd
00000050: db45 d23c 3ae8 113e f7a6 0e3d c883 5abd
00000060: cae6 a53d 53da c7bc bf9a e9bd 33ed a13d
00000070: 0580 e7bb 6003 25bd 3edf b53d 078d 17be
00000080: a911 3b3e f25c 8cbb ce8c 323e a07c 613d
00000090: 0620 ddbd 1e48 46bc 5446 183d 44dd bbbd
000000a0: b7d2 06bd 2fbf e0bd a213 93bd 9d18 f73d
000000b0: 7a65 9d3d 400e 27bd e037 23bd 42cc 64bd
000000c0: 18a1 18bd 0679 283d b259 a83d 923a 6f3c
000000d0: 3382 783e 6c85 f43d 0706 163d 81c2 f3bd
000000e0: aa55 893c a48a 563c 7c51 08be 6263 073c
000000f0: c365 09be 9e91 46bd 068a e9bd 6bb0 923e
-0.18318771 0.12867098 -0.11900654 -0.12951043 -0.00993037 -0.059042085 -0.023919834 -0.15236199
-0.02613051 -0.0065111383 -0.037638772 -0.07913991 -0.11437147 -0.091609955 -0.10170331 -0.1117903
-0.03326147 -0.05073906 0.120904945 -0.10690687 0.025668075 0.14248744 0.0348272 -0.053348333
0.0810066 -0.024396097 -0.114064686 0.0790657 -0.0070648217 -0.04028642 0.08880471 -0.14799891
0.18268456 -0.004283541 0.17436525 0.055050492 -0.107971236 -0.012102155 0.037176445 -0.091730624
-0.032915797 -0.109739654 -0.07181479 0.120652415 0.07685371 -0.040785074 -0.03984821 -0.055858858
-0.037263006 0.041131042 0.08220233 0.014601367 0.24268417 0.11939511 0.036626842 -0.11902333
0.01676448 0.013094578 -0.13312334 0.008263441 -0.13417725 -0.048478715 -0.11403279 0.2865022
