checkpt/isolated/client_0_0.pth (torch, 61015 bytes, 5 tensors)

layer_1.weight f4 [64, 197]
00000000: 7d6b 69bd 8dce f83b 7b81 933c 3f9a 8b3c
00000010: 22f7 6aba a71f 903d 6436 47be 2bc6 87bd
00000020: cc88 23be 9385 303d a69d ac3c 2bfc 5ebc
00000030: f66e 2dbe 4003 b23c 54c3 6ebd a787 73bd
00000040: ac00 583d dbf0 b63d 1bc7 e9bd 0cb5 a7bc
00000050: 6d3c be3b c749 163e 6d7e bebc 7a4c 493c
00000060: d3af adbd 2890 f73b 0603 24bd b294 06bd
00000070: a0a1 5b3d a6b4 bbbd bc4a 133e ac72 5fbd
00000080: 6cb9 c5bb 4ee2 17bc 7846 fbbd cb1d 013d
00000090: 1224 6dbd f960 66bd 7e12 a4bd 281e 41bc
000000a0: 0289 813d 6fd0 5bbd 9ba5 02bd df63 f5bd
000000b0: 2df8 52bd 3b6f 1bbe cb6d 31bd 01b0 2d3b
000000c0: 7bce b23d afc8 123d 885c 9f3b adb6 e3bc
000000d0: bf33 c4bc 46d8 0d3d 0990 173e 6492 99bd
000000e0: 0d07 693d 3608 bbbd 20ef 4dbc 7caf a03d
000000f0: 2d71 803c 5332 753d c42b 6f3d 279c 683d
00000100: 2521 853d c414 c6bd 9881 a2bc 74d8 f03c
00000110: 162c 66bd 085a 353e 1084 42be 4ba6 833d
00000120: b234 3bbc e0cf 29bd 2e58 c6bd 101c aa3c
00000130: d8cc f6bd 9668 e6bc 188d eb3d 7faf 913d
00000140: a1f8 cb3d 7176 22be adf7 3dbb 208f 74bd
00000150: 9ec3 1e3d c411 ac3d 97d8 893d a6f6 ac3c
00000160: 76fc 81bd b532 023e 0bdf 863d c7c5 a0bd
00000170: af82 fc3d 54f2 813d 6fb9 c33d 3f17 35bd
00000180: 94df eb3c 452c 813e d4c6 c238 c1bf 49bd
00000190: 4e1f 7e3d a5fa 20bd 7b66 94bc 38ca 703d
000001a0: 64bc 75bd 4f8c 66bc 1e8b 8a3d 685e a3bd
000001b0: d09f 24be d1b5 d6bc d430 503d f1a2 be3c
000001c0: 7683 343d cfd1 cb3b 7193 2ebd 877c 7a3d
000001d0: e07d 3cbd c8a4 9c3c eafd 19be 70cd 1b3e
000001e0: ceb7 36bd 2b7f 0abd 2e93 163e d0b1 d0bb
000001f0: a4e4 84bd 476e a2bd 01ed 343d 06aa 333d
00000200: 95a5 c3bd 1111 76bd 4609 f73d 623e cf3d
00000210: a558 1f3d 9a65 263d 8648 d43b 23eb 533b
00000220: 18fe 9dbd f5c1 1abd 0f6a 3dbd 21a8 ecbd
00000230: c92d 27bc f0e7 943c 176a c33c 7752 0e3d
00000240: 7eb2 733d 9ee3 e33d ba40 72bd 42b4 653d
00000250: eb14 4cbc f3f8 36bc 3976 ab3d 1bd4 fbbb
00000260: 16fe 1cbe 1996 823c 069a a13e aa90 0bbd
00000270: dda6 263b 5e1f f73d ebef 363c bb0d a4be
00000280: 1db7 1ebc f8bb 16bd acf1 b03d fa5a e2bc
00000290: 6046 813d fe9b efbc 0502 ca3d e541 faba
000002a0: b432 263c 5c48 f6bc 5bec 253d 8adc e23c
000002b0: f98e 143e 0726 743d 826d 9e3d 5806 83bc
000002c0: bf7b 05be 3af2 e3bc e443 2b3d 784e 653e
000002d0: 3464 46bc ce4e be3d 5ff9 ec3c 046c 72bd
000002e0: 6035 91bc 54ac 033d ba57 4bbe 2e22 61bd
000002f0: babd 18bd 7886 9c3b b712 2f3d f256 5abe
00000300: 9dc8 973d c0ea 383d f76f 84bd efb5 e9bc
00000310: 1c97 52be d235 723d 3935 983d 997a 573d
00000320: 2f12 823d 0ce7 c43b 702b 28bd 7d45 023e
00000330: 66e2 40bd 6bee 9e3d 5b3e a6bc 4c48 783e
00000340: 31ec 9dbd b12f 5cbd 6ac7 c73d 9b21 913d
00000350: d695 053d d46a 61bc 1e31 71bc 5bd4 6f3d
00000360: 1ed7 9cbc 1dc1 303c 5ecf 59be 5f42 4fbd
00000370: 12e2 253d b754 0abd 7d63 a1bb 5eb8 bfbd
00000380: 2f31 90bd aa47 f5bc 7dee 743d ef5f 743d
00000390: 8f50 48be 02df 03be d100 0abd 5703 7dbc
000003a0: 5f18 f3bd 9b88 393c 01ec 4c3e 05d2 17be
000003b0: 654a 07bd f715 adbd 1e9d da3c c97a 193e
000003c0: bbb8 3d3e 36c3 d6bc ac84 cdbc 8815 a23d
000003d0: cfae 2ebc 1f30 f03c 14da ed3c ffa6 a23d
000003e0: 39d6 11bd 1eb1 4c3d 41fe 293d a6e9 803d
000003f0: b8f8 cfbb c0de 1fbd 2622 0cbb 5114 b6bc
-0.056987274 0.007592982 0.018006077 0.017041324 -0.0008963217 0.07037287 -0.19454342 -0.066295944
-0.15970153 0.043096136 0.021071266 -0.013609926 -0.1693686 0.021730065 -0.05829175 -0.05945554
0.052735016 0.08932658 -0.114149295 -0.020472072 0.005805543 0.14676581 -0.023253644 0.0122863
-0.084808014 0.0075550266 -0.040041946 -0.03285665 0.053620934 -0.09165315 0.14383978 -0.05455272
-0.006034067 -0.009270264 -0.122693 0.031522553 -0.057895727 -0.056244824 -0.080113396 -0.011786975
0.0632496 -0.053665575 -0.031896215 -0.119819395 -0.05150621 -0.1517915 -0.043317597 0.0026502612
0.08730789 0.035835918 0.0048633255 -0.027797068 -0.023950456 0.034630083 0.14801039 -0.07498625
0.05689149 -0.091324255 -0.012569219 0.07845971 0.015678966 0.059862446 0.058391348 0.056789543
0.065004624 -0.096719295 -0.019837186 0.029400088 -0.056194387 0.17710125 -0.1899569 0.06428202
-0.011426138 -0.04145801 -0.09684788 0.020765334 -0.120507896 -0.028126042 0.11501521 0.07113551
0.099595316 -0.15865494 -0.0028986738 -0.059706807 0.038760774 0.08401826 0.06730764 0.021113705
-0.06346981 0.12714656 0.06585511 -0.07850223 0.123296134 0.063450485 0.09556853 -0.044211622
0.028793134 0.25229087 9.2876755e-05 -0.049255136 0.062041573 -0.039301533 -0.018115273 0.0587866
-0.059994116 -0.014071538 0.06764816 -0.07976991 -0.16076589 -0.026209744 0.050827816 0.023271056
0.044070683 0.0062200795 -0.04262108 0.061153915 -0.04601848 0.019121543 -0.15038267 0.15215087
-0.044608884 -0.033812683 0.14704582 -0.006368853 -0.06488922 -0.0793119 0.044171337 0.04386332
-0.09553067 -0.06007487 0.12062316 0.101193205 0.038902897 0.04062424 0.006478372 0.0032336197
-0.0771448 -0.037782628 -0.046243723 -0.115555055 -0.010203787 0.018177003 0.023854299 0.034746613
0.059496395 0.11127399 -0.05914376 0.05608011 -0.012456159 -0.011167753 0.083721586 -0.007685197
-0.15331301 0.015940713 0.31562823 -0.03407351 0.0025429048 0.1206653 0.011165599 -0.32041726
-0.009687212 -0.036800355 0.08639845 -0.027631272 0.06312251 -0.029249188 0.098636664 -0.0019093124
0.0101439245 -0.0300638 0.04050861 0.027693052 0.14507665 0.05960658 0.07735731 -0.015994236
-0.13035487 -0.027825464 0.041812792 0.22393215 -0.012108851 0.092923746 0.028927503 -0.059185043
-0.017725646 0.032146767 -0.19857684 -0.054964237 -0.037290312 0.004776772 0.042742457 -0.2132223
0.07411311 0.04514575 -0.06466668 -0.028529136 -0.20565456 0.05913336 0.074320264 0.052607153
0.063511245 0.0060089882 -0.04105705 0.1272182 -0.04709091 0.07760318 -0.020293405 0.24246329
-0.077110656 -0.05375642 0.09754832 0.07086488 0.032613598 -0.01375838 -0.014721183 0.058552127
-0.019145545 0.010788229 -0.2127051 -0.050600406 0.0404988 -0.033772197 -0.00492519 -0.09361337
-0.07040631 -0.029941399 0.059797753 0.059661802 -0.1956198 -0.1287804 -0.033692185 -0.015442691
-0.11869883 0.011324073 0.20011903 -0.1482621 -0.033029933 -0.08451455 0.026686247 0.14988245
0.185275 -0.02621613 -0.025087677 0.07914263 -0.010661795 0.02931982 0.029034652 0.07942008
-0.03560469 0.0499736 0.04150224 0.06294565 -0.0063467883 -0.03903079 -0.0021382659 -0.022226484

layer_1.bias f4 [64]
00000000: 2ef9 a3bd f72b f83d ab58 8ebc 35c2 80bd
00000010: e29a 54bd e67d 40be 5fd0 9cbb 46a5 2dbd
00000020: f3af 8dbd 77e0 5e3d dd40 a1bd 8db0 92bc
00000030: 0922 0abd 4eb5 2ebe 1a2c 1abd 4876 62be
00000040: b896 2ebd b1cd 2a3d 2562 44be 30ac c73d
00000050: 14e3 3e3d 43bb 18be fad9 3dbe 1b50 44bd
00000060: 3813 07bd a731 35be e762 9abd e8e6 9cbd
00000070: d349 263e 7269 32bd c640 97bd a197 25be
00000080: a7a5 7abd 1a8b e7bd 7886 8b3b 5866 22be
00000090: b5b9 4e3d fe0b aebd a547 983d 7218 efbd
000000a0: 2302 91be 4437 c3bc e203 c7bd d28b 52be
000000b0: 917e 9cbe 36f9 6fbb f575 83be 4929 41bd
000000c0: 8957 55be a617 d1bd 8d90 ef3d 428a ccbd
000000d0: 57a8 48be 42f4 f2bc 5fd8 ef3c 3830 a7bd
000000e0: 89ac 11be c8ba 25bd bb9e 16bd 9dd7 333d
000000f0: 5ca8 b1bd 2e1e 87bd 6598 093d 80b5 903d
-0.08006512 0.12117761 -0.017376265 -0.06287042 -0.05190552 -0.18798026 -0.004785582 -0.042393945
-0.06918325 0.054413285 -0.078737 -0.017906452 -0.033723865 -0.1706135 -0.037639715 -0.22115433
-0.042624205 0.04170007 -0.19178064 0.09749639 0.046603277 -0.14915185 -0.18540183 -0.047927957
-0.032977313 -0.17694722 -0.075383954 -0.07661229 0.16239099 -0.04355759 -0.073854014 -0.16171123
-0.061193135 -0.113058284 0.0042579733 -0.15859354 0.050470073 -0.08498381 0.0743554 -0.116745844
-0.28321943 -0.023830064 -0.097175375 -0.2056115 -0.30565313 -0.0036617047 -0.25675932 -0.047158513
-0.20834173 -0.10209589 0.11697493 -0.09987308 -0.19595467 -0.029657487 0.029277978 -0.08163494
-0.14225973 -0.04046133 -0.03677247 0.043906797 -0.0867469 -0.06597553 0.0335926 0.070658684

layer_2.weight f4 [32, 64]
00000000: c744 50bd 8f6e 6b3d d3b0 be3d c263 d23c
00000010: a9ec 2fbe cc3b 063e edf6 b9bc 139f c5bd
00000020: aaf3 8b3d 08b1 96bd d0c3 17bd 45a2 a4bb
00000030: cb70 d6bd 537c 33be e6a0 3fbc 7b29 c03d
00000040: 3eb7 10be 30c7 01bc 311a aabd d235 a7bd
00000050: 5ac3 0abc 72b7 02be 651d 2b3e c9b5 063e
00000060: 17c8 dc3c 21e6 c43c a3e9 c5ba f564 533c
00000070: 727b 2cbd 58a9 1cbd 1ffa 02be 0c5b 1d3d
00000080: 3a00 85bd 6d6c ef3c a8f1 3ebe aa58 83bc
00000090: c4b3 dd3a d82d f93d faa2 93bd 857d 98bd
000000a0: 5fbd bfbc bed7 d03d 6c1c bd3d d8c2 2d3d
000000b0: 6f66 56bc d445 943d 54d3 fb3d 5bb9 cf3c
000000c0: e87e 993d 38f6 423c f58a 243d 9840 25bd
000000d0: 94c6 c23c 14c1 febb 026a 41bd ab80 8bbd
000000e0: 2ec4 3bbd 63a7 afbd 5094 eb38 2d9c 4e3d
000000f0: 2d3f a83d b93d e6bd 3a4c a93d 848c d73d
00000100: 8a57 ea39 685e afbd fb60 f5bd 24ac a9bd
00000110: 8cbb 9bbd 2133 adbd 45d3 0fbe cc92 d53d
00000120: 9f11 cf3c b069 493e 4bdb 3f3e e5d8 333c
00000130: a29e 7a3d 7914 c33c 0887 b93c eb8e d0bb
00000140: df64 923d 3380 acbd eb58 a33d ac78 81bc
00000150: ebcd cabc 8612 963d fb17 38bd c14c 7cbd
00000160: 010c 4c3b 43af 6fbd 8d25 623d bfb0 d1bd
00000170: 717d 2dbe ad33 0ebd 8e7b d1bd 94eb 9d3c
00000180: 6ae5 d83b 575f d7bd 40da 23bd 29fb 823d
00000190: 83b3 b4bd e41c a0bd d225 393d 3318 15be
000001a0: 4b4c f53d 47a0 993d eec7 fb3c 8c1d 06bc
000001b0: 7a70 013e 38cc f43d 1d9f cfbc e709 cabb
000001c0: 7cb9 e8bc c906 033e fd60 683d 94b8 58bc
000001d0: 5dcf 33bd a5a5 18bd f7e1 0c3d f7b6 333d
000001e0: fdfc 8a3d d1a1 853d 65e3 f33a fa3f ed3d
000001f0: 85dc 1c3b 0cc3 59bc 5ce9 3d3d 1e3a caba
00000200: efcd e33c 0db0 0fbd 89ac a3bc 007f 8bbd
00000210: 6968 083e d331 c43d 2e0d 5cbd ce01 a03d
00000220: c7f9 af3c 7d56 88bc 4f30 703c f67e eabd
00000230: ddea 5bbd 5df3 d43d be94 983d 88eb 393d
00000240: 9df3 113e 3550 97bc 7eb4 b4bd 02f4 32bd
00000250: 5030 c9bb 09c3 23be f41c 2d3e 4c62 813d
00000260: 1686 b63a 95be 6dbd a206 203d e4da 183d
00000270: 9047 463d dc63 2c3d 48d1 1c3c 7cad 73bd
00000280: cc8c f83c 4075 903c 87b3 633c cf47 2ebd
00000290: f99b 58bd c861 9b3d 6a4a 97bd 764e f73d
000002a0: 21d3 193b 9eef b03d 19a2 70bd 14cd 453d
000002b0: d34f 15be 9869 233d e112 563b 1c9e 083e
000002c0: 5a3a 96bd 38d5 86bd 982e b6bd 4b36 703d
000002d0: 1257 7cbc 6df7 423b 76fd c73a 5452 90bd
000002e0: 6a16 8d3c 8410 39be 5074 f23d c9b6 bdbd
000002f0: b53d 8b3d f08a d23d b388 ca3d 73a1 14be
00000300: ec1e af3c 02b4 383d 1195 37bd 73d7 05be
00000310: 1384 2a3e a441 723e 0730 38bd cc41 8d3d
00000320: fc72 f93d d397 fabc 74ea fa3c aab8 cc3c
00000330: 3bd0 82bd 839a 95bc e893 eabd daf6 2fbd
00000340: 33c9 5c3e fbc6 d43c 072d eabc 2259 6cbd
00000350: f46e 88bd a2f8 cc3d 13e1 a3bd a313 db3c
00000360: 013b a53d cb26 c3bc 36bf 11be 99ab 4f3c
00000370: 837f 24bd c1f5 62bd dcc3 0e3d 41ca 8abc
00000380: 881d 8dbc d2a6 db3c 9f0e de3d f818 ca3c
00000390: 5004 bf3d 53dc 1b3d 4269 adbd 4855 a03d
000003a0: b824 4d3d 4e3d bc3d 91ec 373e f5fc 8d3d
000003b0: 0cdc 063e 911d 023e 5ce6 0f3d 39a7 f33c
000003c0: 03e4 3abd d90a 993d f16f e83d 6309 84bd
000003d0: ab55 5cbd 7b32 223e 9ca9 84bb 0a5f ae3d
000003e0: 66ca da3d 02d4 563c ed73 e13c ae47 cc3c
000003f0: 7ed2 2b3d fcd4 61b9 f205 b5bd 8ddb d03c
-0.05084684 0.057478484 0.0931107 0.025682334 -0.17180122 0.13108748 -0.022700751 -0.096494816
0.068335846 -0.07357985 -0.037051976 -0.005024227 -0.10470732 -0.17527895 -0.011696076 0.09382912
-0.14132401 -0.007921025 -0.08305777 -0.08164562 -0.008469427 -0.12765291 0.16710432 0.13155283
0.026950879 0.024035515 -0.0015099536 0.012902488 -0.042109914 -0.038247436 -0.12790726 0.038416907
-0.06494184 0.029226506 -0.18646872 -0.01603349 0.0016914536 0.12166947 -0.0720882 -0.07445816
-0.023405729 0.101973996 0.09233937 0.042422146 -0.0130859455 0.07239881 0.12296167 0.025356939
0.074949086 0.011899523 0.040171582 -0.040344805 0.02377633 -0.0077744815 -0.047220238 -0.06811651
-0.04584139 -0.08576848 0.000112332986 0.05044191 0.08215175 -0.112422414 0.08266492 0.10524848
0.0004469718 -0.085629284 -0.11981388 -0.08284786 -0.07604131 -0.08457018 -0.14045437 0.1042839
0.025276957 0.19669223 0.18735997 0.010977005 0.06118644 0.023813473 0.022647396 -0.0063646934
0.07148146 -0.084228896 0.07975944 -0.015804611 -0.024756392 0.07327752 -0.044944745 -0.061596636
0.0031135085 -0.058516752 0.055211592 -0.1023879 -0.16942383 -0.03471725 -0.10228644 0.019277371
0.006619145 -0.105162315 -0.04000306 0.06395561 -0.08823302 -0.078180104 0.045202084 -0.14560013
0.11977442 0.075012736 0.030734982 -0.008185755 0.12640563 0.11953014 -0.025344426 -0.006165731
-0.028408758 0.12795557 0.05673312 -0.013227601 -0.04389893 -0.037267346 0.034395184 0.04387566
0.06786535 0.06525005 0.0018607198 0.11584468 0.002393515 -0.013291132 0.046365127 -0.0015428697
0.027808158 -0.035080004 -0.019979732 -0.06811333 0.1332108 0.09579816 -0.053723507 0.07812844
0.021481408 -0.016642803 0.014659955 -0.11449997 -0.05369078 0.1039798 0.07450245 0.045390636
0.14253087 -0.018470863 -0.08823489 -0.043689735 -0.0061397925 -0.15992369 0.16905576 0.06317577
0.0013925459 -0.05804308 0.039068826 0.037318125 0.04840809 0.04208742 0.009571381 -0.05949162
0.030340575 0.017634034 0.013897783 -0.04254895 -0.052883122 0.0758701 -0.0738724 0.12075512
0.002347179 0.08639453 -0.05874834 0.04829128 -0.14581232 0.039895624 0.0032665061 0.13341564
-0.073353484 -0.06583637 -0.08895606 0.058645528 -0.015401619 0.0029749528 0.0015258032 -0.07046953
0.017222602 -0.18072706 0.11838591 -0.09263379 0.06798879 0.102804065 0.098893546 -0.14514713
0.02137705 0.045093544 -0.044819895 -0.13070469 0.16651945 0.23657852 -0.044967677 0.068973154
0.12180135 -0.030589974 0.030629374 0.024990398 -0.06387373 -0.018262153 -0.11453992 -0.042960025
0.21561126 0.025973788 -0.028585924 -0.05770219 -0.06661788 0.100083604 -0.08001914 0.026742762
0.08067895 -0.023822209 -0.14233097 0.012675189 -0.040160667 -0.05541015 0.034854755 -0.016942145
-0.017225996 0.026812945 0.108426325 0.02467011 0.093269944 0.038051914 -0.08467342 0.07828766
0.050083846 0.091913804 0.17961337 0.06933013 0.13169879 0.12706591 0.035131797 0.029742824
-0.045627605 0.07472772 0.11349476 -0.06447103 -0.053792637 0.1583957 -0.0040485393 0.08514221
0.10683136 0.01311207 0.027521098 0.024936523 0.041948788 -0.00021537015 -0.088390246 0.025495315

layer_2.bias f4 [32]
00000000: f8b2 0ebd 7851 67bd b6aa 113d acab 223e
00000010: 65dd 603d a827 e93d e48f f33d 0cfb 61bc
00000020: 04ee dc3d a50a 8d3d ccce 5e3c 6e01 893c
00000030: e82b 62be e187 e53d 55f8 903e 1d9c c6bd
00000040: 201c c8bc 409a 4c3d 2587 1f3e d6eb dbbd
00000050: 0e4b f33d e676 823e 5959 82bd 0383 00bd
00000060: 9ebb 173d 4aa4 4ebd 233f 853e 5faa d2bd
00000070: c0d6 cabd 252e 7ebd 7f99 f73d d069 af3e
-0.034838647 -0.05647418 0.035563193 0.158858 0.05489864 0.11384517 0.11892679 -0.013792764
0.107875854 0.06886796 0.013599109 0.016724315 -0.22087061 0.112075575 0.28314462 -0.09697745
-0.024427474 0.04995179 0.15578897 -0.107383415 0.1187955 0.25481337 -0.06364698 -0.031374943
0.03704416 -0.050449647 0.26024732 -0.10286402 -0.099042416 -0.062055726 0.12089824 0.34260416

layer_3.weight f4 [1, 32]
00000000: de3c 803e abd2 3e3e 184a 313e db80 6dbe
00000010: 387d dc3f a941 113f 8742 463f e233 5dbe
00000020: 9d4c 4d3f 9f88 6ebe 2acf 7b3f 3fa0 813e
00000030: 3610 a53e 14e3 a03e 5b6e 7abe 8ee4 5abe
00000040: 29c0 683e b314 81be 0cfc 683f a932 e73e
00000050: fb5d 83be e7d9 1040 d6d2 7b3e 1233 1cbe
00000060: 8501 69be 011d e2be efd0 703f fd3e b03e
00000070: 300a 2bbe 6c28 4e3e e53a a93e d9af a8be
0.25046438 0.18635051 0.17313421 -0.23193686 1.7225714 0.56740814 0.7744526 -0.21601823
0.8019503 -0.23294304 0.9836298 0.2531757 0.3223893 0.31423247 -0.2445616 -0.21376249
0.22729553 -0.25211105 0.91009593 0.45155838 -0.2565764 2.2632997 0.24592146 -0.15253857
-0.22754486 -0.44162753 0.9406881 0.34423056 -0.16703105 0.20132607 0.33052745 -0.3294666
