checkpt/isolated/client_1_1.pth (torch, 61015 bytes, 5 tensors)

layer_1.weight f4 [64, 197]
00000000: 8014 b1bb f408 35bd a1dc d43c 6a56 6d3d
00000010: 8c58 e2bc 403b 6a3c 4661 52be fe6a 463d
00000020: d60e 56bd 9f12 933d 6d39 99bd 56a1 c63c
00000030: 736e 0b3d 0dfd 543c 36cc fbbd 4cba 043d
00000040: 772e 9bbc f1e9 003e 3ee3 f63d a82a 173d
00000050: cd47 623d 584a 35bc 76ef 62bd a887 83bd
00000060: 8e79 8abb d43e 5cbc 69be b6bc f0ce 0cbd
00000070: e7ab e2bd c20e 6a3c dc82 293b a411 a53d
00000080: 28cb a1bd 4a9e b0bc fd86 cd3d 8302 873e
00000090: 1c80 a8bd f014 973d 23ad 0cbd 3f6c 913d
000000a0: d261 343d 903b fbbd b1dc 56bd 78ce debd
000000b0: 9e8e 55bd 631b 2fbd bae5 3dbc 7cff 213c
000000c0: 3c38 b43c a83b 913d 0f44 ca3d 1e01 8cbd
000000d0: f8c5 6c3c 6062 e9bd 80c5 97bd 723b 09bc
000000e0: d6b7 eebc 8db0 3dbe 12db 813d ea55 68bc
000000f0: 07fe 0ebc 8c11 c8bc ee3a da3d 46b3 343d
00000100: 13e4 78bd 86e0 a63c 9d12 29bc 0019 c1ba
00000110: edf4 11bd 0283 c7bc e0ea d4bc 5cce 2cbd
00000120: 96d7 0b3e c4cf 0dbd c2ae 8f3d 1e43 7a3d
00000130: 8969 c33c a6f1 d73d 3dd9 023d f8f0 dabc
00000140: 0ce2 82be bc40 b5bd a1cb b93d a019 e73b
00000150: e8fa c33c 36ea 0fbd 613b 53bd 3ee2 0dbc
00000160: 3af2 82bd 2b06 40bd b522 0f3e 938b ef3d
00000170: f42a 403e a466 71be f655 5b3d 91ef c9bc
00000180: e274 5f3d 3a41 2dbd 0ae5 d33c edb0 003e
00000190: a07a 413c d3bd 24be 0737 433b 1097 d1bd
000001a0: 185f 323c 5c76 dbbc 4bc4 23bd 9eaa e4bd
000001b0: 092c 02bc d4c9 283d efcc 20bd 211f 2b3d
000001c0: 6e2a a73d 7b13 5bbc 5e14 97bc b1e1 2c3b
000001d0: 659a 85bd 397a eebd ddda 7c3c b133 13be
000001e0: 1b5b c83d 81eb 4b3d 2e60 1b3e 4f4e 1fbd
000001f0: 1450 4cbd 7f0f 9dbd 473d e9bb 1294 c1bb
00000200: 5679 033d 066d 803c 27db 15bd 604e f9bc
00000210: 08f2 68bd 40d8 093e 12a4 12bd 4198 88bd
00000220: 8080 9b39 6cc5 36bd fbc3 4bbc 2884 823d
00000230: aeca 903d f449 263d 730c f23d 793a 25bd
00000240: fe7d 343c a8be 0ebd bc97 003d b088 bc3b
00000250: 1ec3 843d 5b36 4abd 56d1 6a3e 6e5b d83c
00000260: e252 c3bd 5ee5 71bd d3a8 8fbc 4491 95bd
00000270: 4d6e 5ebd f036 383c 6354 80bc 731a 4fbd
00000280: 76d2 023e 324e 673d 6f8e a23c 84fe 8fbd
00000290: 818e 5e3d 2a42 c4bc 4baf 803d 52f3 753d
000002a0: 9911 f9bd ea89 883d dbb7 ebbc 3fe6 e03c
000002b0: 0302 453e ed3e a83d e93d d63c ea7a 80bd
000002c0: 6796 183e 893d dfbd 667d e2bc 6669 063c
000002d0: d789 da3d 3948 1cbd 7cb6 fb3c 8074 8d3b
000002e0: 469e ae3c 262a 45bd dd16 093d 6cbf 44bc
000002f0: aea9 123c a686 c53d 40fe 57b9 9944 58bc
00000300: 44ee 253c bfe0 dbbc 347c e9bd c55b b33c
00000310: 6278 e9bc 1bed 00bd e409 ebbd 2600 76bd
00000320: c862 2e3e 7f3f 613b 7983 8e3d 2490 79be
00000330: 1be2 ef3d caf8 803c 0256 bc3d 854e 2bbc
00000340: bcc8 39be 25f4 f3bb 78bd b8bd 5a84 e43c
00000350: 3cf8 463d af88 9ebd 1705 50be 1de0 243e
00000360: 5c61 923c 67bd a3bc 4e62 87bd 015a 433c
00000370: e9b0 963d 9320 a8bd ee5b b83d 3001 0abe
00000380: 94d3 c5bc 503c a23d 6334 5f3d 861d 013e
00000390: 1f11 0c3b 98d4 15be 0349 26bd 214b fc3d
000003a0: 9e96 24be 141a 9d3d 0c7a 3c3e ab82 813d
000003b0: 173d 02bd 7265 ccbd 0a6b b4bd 5ab8 2bbd
000003c0: e58f 1a3d d57c 953d a146 02bd 7663 393d
000003d0: 1e07 b8bc ed29 7a3a 8dbf 4abd e48a f83d
000003e0: ce26 d9ba 8e72 6bbd 7b6d 92bd baee d33d
000003f0: 8fc0 0abd 9095 c5bb 0e14 67bd bde5 2fbc
-0.005404055 -0.04419799 0.02598411 0.05794374 -0.027630113 0.014296353 -0.2054492 0.04844188
-0.052260242 0.07181286 -0.07481656 0.024246853 0.03404088 0.012999785 -0.122948095 0.03240423
-0.018943055 0.12589242 0.12055062 0.036905915 0.055244256 -0.011065088 -0.05540415 -0.06422359
-0.004225916 -0.013442714 -0.022307592 -0.03437704 -0.11067944 0.014285745 0.0025865352 0.08060005
-0.07900077 -0.021559853 0.100355126 0.26369104 -0.0822756 0.073770404 -0.034344804 0.071007244
0.0440386 -0.1226722 -0.05245656 -0.108792245 -0.052137963 -0.042750727 -0.011590416 0.009887572
0.02199947 0.07091457 0.098762624 -0.068361506 0.014451496 -0.11395717 -0.07410717 -0.008375989
-0.029140394 -0.1852438 0.063406125 -0.01418064 -0.008727557 -0.02442243 0.10655771 0.04411628
-0.060764384 0.020370733 -0.010319379 -0.0014732182 -0.03563397 -0.024354462 -0.025990903 -0.042188987
0.13656458 -0.03462197 0.07015754 0.061099164 0.023854034 0.10544138 0.031945456 -0.026726231
-0.25563085 -0.08850238 0.09072042 0.0070526153 0.023923352 -0.03513547 -0.0515703 -0.008659897
-0.06393857 -0.046880882 0.13978083 0.116965435 0.18766385 -0.2357431 0.053548776 -0.024650367
0.054554828 -0.042298533 0.02586605 0.12567492 0.011809021 -0.16088037 0.0029787438 -0.10233891
0.01088693 -0.026789837 -0.03998212 -0.11165355 -0.007945069 0.041208103 -0.03925794 0.041777734
0.0816239 -0.013371344 -0.018442329 0.002637964 -0.06523589 -0.11644406 0.01543304 -0.14375187
0.09783002 0.04978514 0.15173408 -0.03889304 -0.049881056 -0.07668971 -0.0071179005 -0.005907544
0.032098137 0.015676986 -0.036585953 -0.03043288 -0.056871444 0.13461399 -0.035801 -0.06669665
0.00029659644 -0.04462187 -0.012436862 0.06372863 0.07069908 0.04059787 0.11818781 -0.040338967
0.011016367 -0.034849793 0.031394705 0.005753599 0.06482528 -0.049368244 0.22931418 0.026410785
-0.09537293 -0.059056632 -0.017536556 -0.07303098 -0.05430441 0.011243567 -0.015665239 -0.050562333
0.12775597 0.056471057 0.019843308 -0.07030967 0.05433512 -0.02395733 0.062834345 0.0600465
-0.121615596 0.0666693 -0.028774193 0.02745354 0.19239049 0.08215127 0.026152568 -0.06273444
0.14901124 -0.10900409 -0.027647685 0.00820384 0.10670822 -0.038154814 0.030726664 0.0043168664
0.021315705 -0.0481359 0.03346907 -0.012008529 0.008951588 0.09644823 -0.00020598713 -0.013199949
0.010127608 -0.026840566 -0.11400643 0.021894345 -0.028499786 -0.03147612 -0.11476496 -0.060058735
0.1702987 0.0034370122 0.0695867 -0.24371392 0.11713048 0.015743632 0.09196092 -0.010455732
-0.1814298 -0.007444876 -0.09020513 0.027895141 0.04857658 -0.07740914 -0.20314442 0.16101117
0.01786869 -0.019987775 -0.06610547 0.011923314 0.07357962 -0.08209338 0.09001909 -0.13477015
-0.02414874 0.0792166 0.05449332 0.12608919 0.002137251 -0.1463188 -0.040596973 0.12319017
-0.16073081 0.0767099 0.18405932 0.06323751 -0.03179654 -0.09980287 -0.088094786 -0.04192386
0.037734885 0.072992004 -0.03180564 0.04526087 -0.022464331 0.00095429906 -0.049499083 0.12135866
-0.0016567351 -0.057482295 -0.07149788 0.10348268 -0.033875044 -0.006029792 -0.05641561 -0.010735926

layer_1.bias f4 [64]
00000000: ae76 1abd 1d94 d7bd 980d 82bd 6e38 d2bd
00000010: 1616 02be 7eae 98be fd73 9b3d c067 7fbd
00000020: 1623 423c 628e d6bc d635 82be 8f15 4e3c
00000030: 9077 89be 8229 32bd 940d 72bd d5ca 14be
00000040: 599b a7be a159 1abd f61f 943d cd6a c33b
00000050: e990 acbd 30dd 8fbd 92f1 17be 890e dd3c
00000060: a7d0 3bbe 3abd e93d 1ffd 70be 8d5e 423d
00000070: f7c5 1cbe 669a 68be 8513 7d3c 657f e43d
00000080: 22ac a9bd 7c6c 68bd 826a 6cbe 9c0c 85be
00000090: 8402 52be b69f 9cbd 1667 3dbe fc89 82bd
000000a0: b2f4 763d a684 b1bc d533 43bc 0403 c9bd
000000b0: 95e2 b7be a941 903c 4d0c 27be 4311 12be
000000c0: fad2 193d 8a68 21be 5fe5 e73d 0a2b a13d
000000d0: a036 30be 2082 273e d737 f43d a6fc 083d
000000e0: 32c5 aabd 9bbd 76be 5cb5 383d a97b e1bd
000000f0: e223 c23d 936e acbd cd1c 8dbe b097 b0bc
-0.037710838 -0.10526297 -0.06350249 -0.10264669 -0.12703738 -0.29820627 0.075904824 -0.062354803
0.011849185 -0.02619094 -0.254317 0.012578382 -0.2684903 -0.043496616 -0.05909498 -0.145305
-0.32735708 -0.037683133 0.072326586 0.0059636594 -0.08426077 -0.0702461 -0.14838246 0.02698447
-0.18341313 0.11413045 -0.23534058 0.047453452 -0.15309893 -0.22715148 0.015446548 0.11157111
-0.08284785 -0.056744084 -0.23087505 -0.25986183 -0.20508772 -0.0764765 -0.18496355 -0.06373975
0.060291953 -0.021669697 -0.011914213 -0.09815028 -0.35915056 0.017609434 -0.16313286 -0.14264397
0.03755472 -0.15762535 0.11323046 0.07869537 -0.17208338 0.16358232 0.11924713 0.03344407
-0.08338393 -0.24095766 0.045094833 -0.110099144 0.094795 -0.08419528 -0.27561036 -0.021556705

layer_2.weight f4 [32, 64]
00000000: 97d2 3a3c 6ff8 153c f15e a23d 9ee0 373e
00000010: 587d 7bbd b96d 663d 5b60 153e 2821 923d
00000020: d8d2 453e 5369 08bd dadf d93b 7e66 d23c
00000030: df78 15be 6e1c 95bd 5942 6dbd ce3f dcbd
00000040: 5a53 7fbd e7b5 19bd d557 05bd 6625 58be
00000050: 5211 12bd 1c87 23bd 3736 313e b835 a6bd
00000060: b48f 5d3d 845d 4bbe 45d7 cf3d 570b dabd
00000070: 7ea3 42bb 969a b6ba ef5a e7bd e2d3 bdbd
00000080: 5f91 16be a5d5 063d e82a 31bd 0fb4 893d
00000090: 562f 6b3c 15b7 933d 987a 593e 2c1c afbc
000000a0: 8aa9 943c 8fd9 72bc 9310 3cbe 24fe c83d
000000b0: 6337 a53c 3826 0d3e 7a9e 9abd d125 fdbc
000000c0: db70 593e 6210 c6bc f0c7 bc3c edab 9cbd
000000d0: 3900 133e a807 793d d63b 153a 4dd4 b8bd
000000e0: 771c fdbc 3683 95bd a7a7 513e 5e73 1ebd
000000f0: b0df 40bd c302 913d 663c 8ebd 93d2 48bd
00000100: fcaa dd3c 769c 253e 3a76 5bbd 8ab6 97bd
00000110: 7138 d43d 6cf3 0f3e 1f07 28be 5a79 f73d
00000120: efc4 bfbc 0b63 5e3d 80ea 7b3d cb14 8bbc
00000130: d515 4b3e 4863 fc3d 25ef 8bbc 2693 8e3d
00000140: a763 07be 8f77 2a3e ec8c 313d 3898 0d3e
00000150: 4c72 d33d b60e fcbc f3ca bd3d 026f 8abc
00000160: d9c7 95bd 4e57 1ebc 2bfa f8bd c0e9 f7bd
00000170: 68cd d0bb 6263 e3bd e84d 363e 0a08 1abe
00000180: 8d27 a33d 466f 383d 4674 04bd b57b 51be
00000190: 5357 85bd 8d75 b3bc 71cc 1dbd 5f4f 3bbc
000001a0: 5519 d03c 196f 913d b047 74bd 4cef d03c
000001b0: 697f 873d c6d5 0e3d f7a6 2ebe f7f5 8abd
000001c0: 2755 cd3c 3690 973d cad7 5c3d 0604 823d
000001d0: 2b80 adbd eea5 243d 7a87 5b3b 9869 b23c
000001e0: 69fa 93bd a563 5bbd b43d 95bd 9ee0 49bc
000001f0: aaf2 f83d fcd1 f73b 1632 363d 8ff2 8d3d
00000200: de61 823d ae31 9b3c 18df 24be db7c 43bd
00000210: ac76 263d ab97 ca3c 57a7 c5bb dcfa b33d
00000220: 110e c43d 5eac 4e3d 076d 3cbd 500e a83d
00000230: 207e cf3d fba8 b43c 9d2f f1bc b634 cdbd
00000240: 663e 923b 8b4a 2c3e 90cb a23d 5a4b 81bd
00000250: 9f35 89bd 8930 82bd 0043 a2bd 51ba 42bd
00000260: 6625 e83d 916b 3a3e c454 23be ac1c b9bd
00000270: d028 0abe 4a1b dbba 0197 153d 01fb 8ebd
00000280: 5010 733c b190 9dbd 59f4 303d 22ea 03be
00000290: f552 c23d 3340 c13d 387f cd3c 98fa 8ebe
000002a0: 6326 463c 49e1 953d 6f12 babd 957d d7ba
000002b0: d788 fc3d 96b6 b03c 4589 6b3d 95b2 8dbc
000002c0: babe 133e 8fd8 093e 6faf dcbd 91e7 6bbc
000002d0: 9720 333d 4b0f e2bd 07e1 f23d 116a 26bc
000002e0: 5081 9fbd 90f2 1f3c 4670 e3bd 8fd2 6dbc
000002f0: 329c 9b3d 02f7 593e ae26 ccbd cd8d 913d
00000300: 2e21 7d3e ee16 95be 6860 463e cfb8 71be
00000310: 295a fd3d 9456 96bd f40b 1b3c fc8c 113d
00000320: d820 be3e fc78 54bd d09d 3e3e 7040 cfbd
00000330: b128 94be 9ad4 6dbd 364a dcbd f93a b6bd
00000340: 10a8 8c3e 5406 f3be 6137 6c3d 059b 8e3d
00000350: c0f9 bf3d e7bb 1c3e a479 4bbe 6bcd 9cbe
00000360: 3366 6fbe 0eb7 573e df42 b43d 2d02 24bd
00000370: b5f0 93be 4e0a 323e a9cd 2cbd a7e7 80be
00000380: 10c2 813e 97e9 9c3d 827c 53be 0897 4bbe
00000390: 331a 12bd da4d 8dbe 0e7b 2a3e 1c08 f33d
000003a0: 473b 4d3e 410f 96be df9b 393d c818 1b3d
000003b0: c162 7c3e 40db 783e 71a3 67be e1bc 46be
000003c0: bf14 6f3e e590 9abd 6f9d 51bd f8e1 473e
000003d0: 51dc 6cbc c4fd 933e 40af 9d3e 21e0 843e
000003e0: b9d4 e6bd 9935 7abe 2577 323e f1b2 00bd
000003f0: f429 3bbe efde 56be 957a a43e 2bc5 e2bd
0.011402748 0.0091534695 0.07928265 0.17956778 -0.061398834 0.056256983 0.14587538 0.0713523
0.19318712 -0.03330357 0.0066489996 0.025683638 -0.1459689 -0.07280813 -0.057924602 -0.10754357
-0.06233535 -0.03752699 -0.032554466 -0.21108016 -0.03566105 -0.039923772 0.17305838 -0.08115715
0.054092124 -0.19859892 0.10148481 -0.10646694 -0.00296995 -0.0013931568 -0.11296641 -0.09268929
-0.14703892 0.03291859 -0.04325381 0.067237966 0.0143545475 0.072126545 0.21238172 -0.021375738
0.018147249 -0.014822378 -0.18365698 0.098140985 0.020168012 0.1378411 -0.07549758 -0.030901821
0.21234457 -0.024177734 0.023044556 -0.0764998 0.14355554 0.060798317 0.0005692815 -0.09024868
-0.030897362 -0.07300417 0.2047411 -0.03868424 -0.047088325 0.07080605 -0.06945114 -0.049028944
0.02705907 0.16172966 -0.053579547 -0.074078634 0.10362328 0.14057702 -0.16408966 0.12083693
-0.023409335 0.054293673 0.061502934 -0.016977688 0.19832547 0.12323624 -0.017081806 0.0696166
-0.13221608 0.1664717 0.043347284 0.13827598 0.10324535 -0.030768733 0.09267225 -0.016898636
-0.073135085 -0.00966437 -0.12157091 -0.12105131 -0.0063721426 -0.1110294 0.17803156 -0.15042129
0.07966528 0.045027994 -0.03233745 -0.20457347 -0.065107964 -0.021906639 -0.03852505 -0.011432498
0.025402704 0.07101268 -0.05963868 0.02550473 0.066160984 0.03487184 -0.1705588 -0.06785195
0.025065018 0.07400553 0.05391673 0.06348424 -0.08471712 0.040197305 0.0033497498 0.021778867
-0.07225496 -0.053561825 -0.072871596 -0.012321619 0.121556595 0.007562874 0.04448136 0.0693103
0.06366323 0.018944588 -0.16100729 -0.047726493 0.040640518 0.024730524 -0.0060319114 0.08788082
0.095729955 0.05045735 -0.046002414 0.08205855 0.10131478 0.022053232 -0.02944165 -0.100198194
0.004463005 0.16825311 0.07948983 -0.063132 -0.066996805 -0.063569136 -0.079229355 -0.047540966
0.11335258 0.18205096 -0.15950304 -0.09038672 -0.13492131 -0.0016716507 0.03652096 -0.06981469
0.014835432 -0.07693613 0.043201778 -0.12882283 0.09488479 0.09436073 0.025085077 -0.27925563
0.012094113 0.0731836 -0.09085547 -0.0016440625 0.12330788 0.021571439 0.057503957 -0.017297069
0.14428225 0.13461517 -0.10775649 -0.014398471 0.043732252 -0.11038073 0.11859327 -0.010157124
-0.07788336 0.009762421 -0.11105399 -0.014515533 0.07598151 0.21285632 -0.09968315 0.071071245
0.24719688 -0.29119056 0.19372714 -0.23605655 0.12370712 -0.07340732 0.009463299 0.035534844
0.37134433 -0.051873192 0.18614888 -0.10119712 -0.28937295 -0.05806408 -0.10756342 -0.08897967
0.27471972 -0.47465765 0.05767 0.069631614 0.09373808 0.15306054 -0.19870621 -0.3062547
-0.2337883 0.21065924 0.08801817 -0.040041137 -0.28894582 0.17386743 -0.04218832 -0.25176737
0.2534337 0.07661741 -0.20652965 -0.19881833 -0.035669517 -0.2759846 0.16648504 0.11866781
0.20042144 -0.29308513 0.045314666 0.03786543 0.24647047 0.24302387 -0.22620942 -0.19407989
0.23347758 -0.07547168 -0.05117553 0.19519794 -0.014456824 0.28904545 0.30797768 0.25952247
-0.112710424 -0.24434508 0.17428263 -0.03142065 -0.18277723 -0.2098348 0.32124773 -0.11072763

layer_2.bias f4 [32]
00000000: fffb ffbc 1306 adbb 6b42 283d 21f8 c6be
00000010: 73e1 61ba ea45 2cbe 830e b1bd f469 0b3e
00000020: a308 04bd e85e 53be 6a20 c83d cfef 3cbd
00000030: 90f3 42be e01a f4bd 65de bcbd 1928 183e
00000040: 369a 19bc bb06 da3d 6456 e63d b0f1 3d3d
00000050: 2b87 8f3e 0f5a d9bd 336b 593e d951 d1bd
00000060: f0dc e13d dc66 15be 1f35 a23e 4179 01be
00000070: 4b86 cb3e 43ba 32bd 5fe5 493e dbaa 0f3e
-0.03124809 -0.005280265 0.041078966 -0.38861182 -0.00086166634 -0.16823545 -0.08645346 0.13614637
-0.0322348 -0.20641673 0.097718075 -0.046127137 -0.19038224 -0.119191885 -0.09222106 0.14859046
-0.009375146 0.10645815 0.112469465 0.04637307 0.28032812 -0.106128804 0.212323 -0.10220689
0.110284686 -0.14590019 0.31681153 -0.12643911 0.39750895 -0.043634664 0.19716404 0.1403002

layer_3.weight f4 [1, 32]
00000000: 1d65 c1be b1f8 8e3e db88 a3be b325 a73f
00000010: 7f5d f03e 1efe 103f e08b 7f3e 7105 d53f
00000020: 2e22 5bbe 0310 0b40 8a0d e33e 5294 46be
00000030: 10d2 ac3e afff babe cede b33e dcb6 9dbe
00000040: c4ef 803e 34f0 05be 7e97 d83e b680 ad3e
00000050: 5940 adbe f010 aabe 20d6 adbe c746 91be
00000060: dd7a d33e 2de6 85be 1b15 0abf 42d4 f63e
00000070: b06a c2be af02 b03e 1426 9fbe 936b 95be
-0.37772456 0.2792411 -0.3194035 1.305838 0.46946332 0.5663775 0.24955702 1.6642286
-0.21399757 2.1728523 0.44346267 -0.19392517 0.33754015 -0.36523196 0.35130924 -0.30803573
0.25182927 -0.13079911 0.4230308 0.3388726 -0.33838156 -0.33216047 -0.33952427 -0.2837431
0.41304675 -0.26152173 -0.53938454 0.48208815 -0.3797202 0.34377047 -0.3108374 -0.29183635
