checkpt/isolated/client_15.pth (torch, 69799 bytes, 5 tensors)

layer_1.weight f4 [64, 197]
0	0xbc8c5c06	-0.017133724
1	0xbd7118c6	-0.058861516
2	0xbcf65b34	-0.030072786
3	0x3d215bfb	0.03939436
4	0xbd85a5fa	-0.06525798
5	0x3d85ebbd	0.06539104
6	0x3c3f43bc	0.011673864
7	0xbd2f1b0c	-0.042750403
8	0x3d41327c	0.047167286
9	0x3ba550f5	0.005045051
10	0x3d9351b7	0.0719332
11	0xbccf6632	-0.025317285
12	0xbd599e49	-0.053129468
13	0x3cbc66b6	0.022998195
14	0x3bff3c80	0.0077891946
15	0x3d8f9305	0.070104636
16	0x3d0dae51	0.03459007
17	0xbcd42778	-0.025897726
18	0x3d7d729c	0.06187688
19	0xbcc8ae60	-0.024497211
20	0x3d754644	0.059881464
21	0xbd3413b9	-0.04396412
22	0x3d464454	0.048405007
23	0xbd317ab0	-0.043329895
24	0x3cd409eb	0.025883636
25	0x3cedb155	0.029015223
26	0x3d8b8076	0.06811611
27	0x3c85b6bc	0.016322486
28	0x3c1c2c9d	0.009532121
29	0xbbc53c12	-0.006019124
30	0x3c2668b2	0.010156797
31	0xbc4d72aa	-0.012539545
32	0xbd5e6255	-0.054292995
33	0x3d1ac4a0	0.037785172
34	0xbc99e32c	-0.018785082
35	0x3d08511c	0.033280477
36	0xbd835444	-0.06412557
37	0x3d1274dd	0.03575598
38	0x3c28c621	0.010301144
39	0x3cb679fc	0.022274964
40	0xbcce9f2d	-0.025222385
41	0xbd8f7672	-0.070050135
42	0xbd4ba26c	-0.049715444
43	0x3ca0d1ac	0.01963123
44	0x3bc08389	0.005875055
45	0xbc34c5a3	-0.011033448
46	0xbcf835c2	-0.030299071
47	0xbbe1e3e1	-0.0068936204
48	0xbc8fb5a0	-0.01754266
49	0x3ce9bb8c	0.028531812
50	0xbd8a6e15	-0.06759278
51	0xbd8417e7	-0.064498715
52	0xbc98c51f	-0.018648682
53	0xbd8c5a34	-0.068531424
54	0x3c9f032f	0.019410698
55	0xbd8fe861	-0.07026745
56	0x3aa69c3f	0.001271136
57	0x3d9796b3	0.074017905
58	0xbd43b4b5	-0.047779758
59	0x3c821bd2	0.015882406
60	0xbce34563	-0.027743047
61	0xbd5ad3e7	-0.053424742
62	0x3c8f7024	0.017509528
63	0x3d31d588	0.04341653
64	0x3cf9cfb4	0.030494548
65	0x3d9060ef	0.070497386
66	0xbd38e56a	-0.04514066
67	0x3d91bad3	0.07115712
68	0xbd906c73	-0.07051935
69	0x3d1de1d4	0.038545445
70	0xbd7873b2	-0.06065721
71	0xbd3b910a	-0.045792617
72	0xbd242f8f	-0.040084418
73	0x3b19ecc0	0.0023487061
74	0xbc0c808d	-0.008575571
75	0x3cf94dd0	0.030432612
76	0xbce5d755	-0.02805678
77	0xbd97e3d5	-0.074165024
78	0x3ad8b109	0.0016532253
79	0x3c841ef0	0.016128033
80	0x3ca9aa0a	0.020710964
81	0xbc2ca6cf	-0.010537817
82	0x3c4da104	0.012550596
83	0xba9c7e80	-0.0011939555
84	0xbcbf1b1a	-0.023328353
85	0x3af1f867	0.001846087
86	0x3d09ec90	0.03367287
87	0x3cbbc24d	0.022919798
88	0xbaf5d8c0	-0.0018756613
89	0x3ce2396b	0.02761527
90	0x3cb65c93	0.02226094
91	0xbc46bb7c	-0.012129661
92	0x3d8c1d1e	0.06841491
93	0xbba07a57	-0.0048973965
94	0x3cd0cdf9	0.02548884
95	0x3c03369a	0.0080086235
96	0xbd02c69f	-0.0319277
97	0x3d5a5c91	0.053310934
98	0xbd0f4c17	-0.034984674
99	0xbd650712	-0.055914946
100	0xbd8442cd	-0.06458054
101	0x3d6ed1dc	0.058305606
102	0xbc8a8ce9	-0.016912894
103	0xbc32d0b2	-0.010914015
104	0x3d5d208e	0.053986125
105	0xbd3b83ca	-0.04577998
106	0xbd25e37d	-0.040500153
107	0xb9c13cff	-0.00036857274
108	0xbd8bebef	-0.0683211
109	0x3d69e16b	0.05709974
110	0x3ad416b8	0.0016181087
111	0xbd57392d	-0.05254476
112	0xbcea68a7	-0.028614355
113	0xbcaeacd6	-0.021322649
114	0xbcaa8fc7	-0.020820512
115	0x3c0fcd99	0.008777046
116	0xbd5bb07a	-0.053635098
117	0xbbe0e600	-0.0068633556
118	0x3c588dd5	0.013217409
119	0xba0883d8	-0.00052076345
120	0x3d8abba4	0.06774071
121	0xbb1b2d28	-0.0023678038
122	0xbd87dee8	-0.06634313
123	0x3b588ca0	0.0033042803
124	0xbd73d748	-0.05953148
125	0x3d8caa4d	0.0686842
126	0x3c62e778	0.013849132
127	0x3c4759f5	0.0121674435
128	0xbc75a3cb	-0.014992665
129	0xbc8dfe97	-0.017333312
130	0x3d855382	0.065100685
131	0x3c83b171	0.016075822
132	0x3d32d49b	0.043659788
133	0xbd0bdfc8	-0.03414896
134	0xbc6e50a0	-0.01454559
135	0x3ccc8f0c	0.024970554
136	0xbd834b0a	-0.06410797
137	0xbd46367d	-0.048391808
138	0xbd425ffd	-0.047454823
139	0xbd7fbc2e	-0.06243532
140	0xbd88ae40	-0.066738605
141	0xbd4e1b50	-0.050319016
142	0xbd784806	-0.060615562
143	0x3d161cc7	0.036648538
144	0x3d44aa5a	0.048014022
145	0xbd6e7e69	-0.058226023
146	0xbd1d1c09	-0.038356815
147	0x3d3cc18c	0.04608302
148	0xbc3dad6e	-0.011576993
149	0xbd86bf87	-0.065795
150	0xbc864034	-0.016388036
151	0xbc1ded79	-0.009639137
152	0x3c5c3caf	0.0134422025
153	0xbc581346	-0.013188189
154	0xbc1c819b	-0.009552385
155	0x3c88c9c1	0.016697766
156	0xbcceabc5	-0.02522839
157	0xbcd1d056	-0.025612038
158	0xbd807948	-0.062731326
159	0xbd6aabad	-0.05729263
160	0x3c3e47b5	0.011613776
161	0x3ce31ca9	0.027723627
162	0xbd2585db	-0.040410858
163	0xbd15a670	-0.03653568
164	0xbcf419b7	-0.029797418
165	0xbd8e8a71	-0.06959999
166	0x3d940177	0.07226842
167	0xbd4238e0	-0.04741752
168	0xbcc34566	-0.023836803
169	0x3d319b32	0.043360896
170	0xbcf9ad1d	-0.030478055
171	0xbd0656e7	-0.03279772
172	0xbd6c3a05	-0.05767252
173	0xbce00cc5	-0.027349839
174	0xbd0f12a0	-0.03492987
175	0xbd64823a	-0.055788256
176	0xbd7634cb	-0.06010894
177	0xbd3395cb	-0.043844026
178	0x3d749b1a	0.05971823
179	0xbb11654a	-0.0022185617
180	0xbca00a82	-0.01953626
181	0x3d0c4a98	0.034250826
182	0x3d405911	0.04695994
183	0x3b556f40	0.003256753
184	0x3d234022	0.039856084
185	0xbd83b415	-0.06430832
186	0x3c78069b	0.015138294
187	0xbd906ba0	-0.07051778
188	0x3d2e82a0	0.042605042
189	0x3a456946	0.00075306406
190	0xbd8a0f0d	-0.06741152
191	0x3c26b023	0.01017383
192	0xbca32324	-0.019914217
193	0xbcc14f33	-0.023597335
194	0x3d039e94	0.032133654
195	0x3d6ad63b	0.057333212
196	0xbd0f76b7	-0.035025325
197	0x3d4389d8	0.04773888
198	0x3d507c0e	0.050899558
199	0xbc7bca8e	-0.015368117
200	0xbd9212f9	-0.07132525
201	0xbd224bec	-0.039623186
202	0xbd5c1676	-0.053732358
203	0x3d7fc668	0.062445074
204	0x3d76492b	0.060128372
205	0x3d600503	0.05469228
206	0x3d69f98d	0.057122756
207	0xbd44007e	-0.047852032
208	0xbd682603	-0.056676876
209	0xbd0778a6	-0.033074044
210	0xbd8d3d6c	-0.06896481
211	0x3b19a252	0.0023442698
212	0xbd0e20a4	-0.034699097
213	0x3bae24a6	0.0053144274
214	0x3d34f050	0.044174492
215	0xbd38d014	-0.045120314
216	0x3d3c5412	0.045978613
217	0x3d218343	0.03943182
218	0x3d615df0	0.055021226
219	0x3d05f27a	0.032701947
220	0x3d778bd5	0.06043609
221	0x3c00c73a	0.007859999
222	0x3d805cf2	0.06267728
223	0x3c8f09e1	0.017460765
224	0xbc197074	-0.00936519
225	0x3b5f7ba0	0.0034100786
226	0x3d3b465a	0.04572139
227	0xbd1902c4	-0.037356153
228	0x3d8bbaaf	0.068227164
229	0x3c3de203	0.01158953
230	0x3d5aa052	0.05337555
231	0xbae733f3	-0.0017639383
232	0x3cca2078	0.024673685
233	0xbc268042	-0.010162415
234	0xbcd26f08	-0.02568771
235	0xbca80ce7	-0.020513965
236	0x3c00ea48	0.007868357
237	0x3ca0387b	0.019558182
238	0xbc9bcd27	-0.019018723
239	0x3d3dbff9	0.046325658
240	0xbd59ba30	-0.053156078
241	0xbd2f0f48	-0.042739183
242	0xbc6c900c	-0.01443864
243	0xbd64a55f	-0.055821773
244	0x3d5a69d5	0.053323586
245	0xbd5d9af7	-0.054102864
246	0x3d4064aa	0.046971
247	0x3c67de62	0.014152141
248	0xbd3f1461	-0.046650294
249	0x3c87c85b	0.01657503
250	0x3d7a3b8b	0.06109194
251	0x3cce6ede	0.02519935
252	0xbb30f332	-0.0027000424
253	0xbb71e516	-0.0036910227
254	0xbabcd954	-0.001440803
255	0xbcc7ea56	-0.024403732

layer_1.bias f4 [64]
0	0xbc859ea1	-0.016310992
1	0xbd130adc	-0.03589903
2	0x3b20707d	0.002448111
3	0xbd662340	-0.05618596
4	0xbd53bcc4	-0.051693693
5	0x3d994540	0.074839115
6	0xbd1075bc	-0.03526853
7	0x3d0a6693	0.03378923
8	0xbc9e2c6e	-0.019308295
9	0x3d4411c0	0.04786849
10	0x3cadf6ed	0.021235907
11	0xbd4a66ca	-0.049414434
12	0x3d38a5e1	0.04508007
13	0xbca85c6d	-0.020551885
14	0x3d9d1aac	0.07671103
15	0xbc726d20	-0.014796525
16	0x3d9995e6	0.07499294
17	0x3d4a8a7b	0.04944847
18	0x3cf89039	0.030342208
19	0x3d90d459	0.07071752
20	0x3c811eed	0.015761817
21	0x3c44ee53	0.012019712
22	0x3d9040ef	0.07043635
23	0x3d7ba544	0.061436906
24	0x3d2865c2	0.04111267
25	0xbd0f42fa	-0.034975983
26	0xbd367139	-0.04454157
27	0x3d6debee	0.05808633
28	0x3da02f99	0.078215785
29	0x3d562d02	0.052289017
30	0xbd54d9f3	-0.051965665
31	0x3d040791	0.03223378
32	0xbcf711b8	-0.030159816
33	0x3d25af4e	0.040450387
34	0x3c4666cb	0.012109469
35	0x3ce56326	0.02800138
36	0x3d2cd90a	0.042199172
37	0xbd1f0344	-0.038821474
38	0xbd6cb714	-0.057791784
39	0xbc6e82be	-0.014557539
40	0x3d3361fb	0.043794613
41	0x3d17bdff	0.03704643
42	0xbd52b5c2	-0.05144287
43	0xbc06a31a	-0.008217597
44	0x3d246a39	0.040140364
45	0xbb368279	-0.0027848764
46	0x3cc94d89	0.024573104
47	0x3d33c537	0.04388925
48	0x3c4dd753	0.012563544
49	0xbc332428	-0.010933913
50	0xbce39be6	-0.0277843
51	0x3d05dad7	0.032679405
52	0x3c9f6b58	0.019460365
53	0xbd34628a	-0.044039287
54	0x3d9994c2	0.074990764
55	0x3d3c0146	0.045899652
56	0x3d537723	0.05162729
57	0x3cd13f53	0.02554289
58	0xbc906900	-0.017628193
59	0xbd80464f	-0.0626341
60	0xbc92ef26	-0.0179363
61	0xbd5aa047	-0.05337551
62	0x3c483f3f	0.01222211
63	0x3d11d14f	0.035600003

layer_2.weight f4 [64, 64]
0	0x3c332593	0.010934251
1	0x3dbda615	0.09260193
2	0xbdf2b334	-0.118505865
3	0xbba1c19c	-0.00493641
4	0xbc6ba392	-0.01438226
5	0xbd897e76	-0.06713574
6	0xbc72a6da	-0.014810288
7	0xbddd8db7	-0.108180456
8	0xbdfb4748	-0.12269455
9	0xbc30b58a	-0.01078547
10	0x3cd187ad	0.02557739
11	0xbdad17da	-0.08451815
12	0xbca37341	-0.019952418
13	0x3d000a6f	0.03125995
14	0x3dd6c1ac	0.10486159
15	0x3c83c382	0.016084436
16	0x3dcd0270	0.100102305
17	0xbd2036b2	-0.03911466
18	0x3d394f1f	0.04524147
19	0x3c852d7f	0.016257046
20	0x3dd8d447	0.10587364
21	0x3dc7f97a	0.09764381
22	0x3c4cadb5	0.012492587
23	0xbdec9843	-0.11552479
24	0xbdc516d6	-0.09623496
25	0x3dc5bbff	0.09654998
26	0x3d77120e	0.060319953
27	0xbcdc1b12	-0.026868377
28	0x3d1d8b80	0.038463116
29	0x3c637941	0.01388389
30	0x3c8835cc	0.016627215
31	0xbd3642d6	-0.044497333
32	0x3c5c46e1	0.013444633
33	0xbdab6a0b	-0.083698355
34	0x3dcb7697	0.099347286
35	0x3c1b51bc	0.009479936
36	0xbd971f58	-0.07379025
37	0xbdb360cb	-0.08758696
38	0xbdb882b8	-0.090093076
39	0xbdea93af	-0.1145395
40	0xbc81afbe	-0.01583087
41	0x3d074ffe	0.03303527
42	0x3ce0525f	0.027383028
43	0xbdc07ce7	-0.09398823
44	0x3d0872b9	0.033312533
45	0xbdbd38fd	-0.09239385
46	0xbdf6ba7c	-0.12047288
47	0xbdf74ad5	-0.1207482
48	0x3debe211	0.11517728
49	0x3d2d1c40	0.04226327
50	0x3cb76587	0.02238728
51	0xbda243a4	-0.07923058
52	0x3df869e3	0.12129571
53	0xbde6b1cc	-0.11264381
54	0xbdbc3b09	-0.091909476
55	0xbc52854e	-0.012849165
56	0xbd3042a6	-0.04303231
57	0x3dd1b50a	0.102396086
58	0x3ced4d9a	0.028967667
59	0xbdb0003e	-0.08593796
60	0x3dda2614	0.10651794
61	0xbdd45925	-0.103685655
62	0x3dbf26f2	0.093336
63	0x3cb4c991	0.02206877
64	0xbb1601b9	-0.002288921
65	0x3d98f607	0.07468801
66	0x3c639ced	0.0138923945
67	0xbd4c5154	-0.049882248
68	0xbda96209	-0.08270652
69	0xbd986f6a	-0.074431255
70	0x3de3f575	0.111308016
71	0xbd95e0a3	-0.07318237
72	0x3d74421e	0.059633367
73	0xbdba30fe	-0.09091376
74	0xbda712c0	-0.08157873
75	0xbdfadc52	-0.12249054
76	0xbdf6913d	-0.12039421
77	0x3df49a98	0.11943549
78	0xbd423f37	-0.047423568
79	0x3d1f04ac	0.038822815
80	0xbdd6459a	-0.10462494
81	0x3d713b0e	0.05889421
82	0x3d5c8233	0.053835105
83	0x3db25ee4	0.08709505
84	0x3de363de	0.111030325
85	0x3bda4955	0.006661574
86	0xbb667c46	-0.0035169288
87	0xbd42f34e	-0.047595315
88	0x3d75d99a	0.060021974
89	0xbce54cdc	-0.027990751
90	0xbddf37ff	-0.10899352
91	0xbc3fe3a4	-0.011711989
92	0xbd5494d5	-0.05189975
93	0x3d9c0726	0.07618551
94	0x3d23bc4d	0.0399745
95	0xbc11acc9	-0.008891293
96	0x3d00e68c	0.031469867
97	0xbd3dc3e2	-0.046329387
98	0x3cabdcc6	0.020979296
99	0x3ccad706	0.024760734
100	0x3d1a0416	0.037601553
101	0x3d887ea2	0.06664778
102	0xbd136485	-0.035984535
103	0xbd829344	-0.06375745
104	0xbdbf6f34	-0.09347382
105	0xbcc59a81	-0.024121525
106	0xbd51f235	-0.051256377
107	0xbd9660dc	-0.07342693
108	0x3d861451	0.06546844
109	0xbdb5c10e	-0.08874713
110	0x3d7308a0	0.059334397
111	0xbbffd4d5	-0.007807354
112	0xbdd613e0	-0.104530096
113	0xbda1cfc1	-0.07900954
114	0x3dee6146	0.11639647
115	0xbd27084d	-0.0407794
116	0x3d2680cc	0.040650174
117	0x3d631ef0	0.055449426
118	0x3d942627	0.072338395
119	0xbd213fe3	-0.039367568
120	0xbd8f22af	-0.06989037
121	0x3d701162	0.058610328
122	0xbd87cc86	-0.066308066
123	0x3cee0187	0.029053463
124	0x3dd4a1e5	0.103824414
125	0xbda565a7	-0.08076029
126	0xbde99664	-0.11405638
127	0xbd855c27	-0.06511717
128	0xbda4e18c	-0.08050832
129	0x3dd41582	0.10355665
130	0xbda932bb	-0.08261629
131	0xbdd502ab	-0.104008995
132	0xbda733a5	-0.08164147
133	0xbdfec26c	-0.12439427
134	0xbd47b8e6	-0.048760317
135	0x3d03cb3e	0.03217625
136	0xbddad592	-0.106852666
137	0xbda53fb9	-0.08068795
138	0x3d4aeabd	0.04954027
139	0x3da43a62	0.08018948
140	0xbd374ae3	-0.044749152
141	0x3cf1d0bb	0.029518476
142	0xbdf0a2ea	-0.117498234
143	0xbdd201d4	-0.10254255
144	0xbc846be4	-0.016164728
145	0x3df73071	0.12069786
146	0xbc7a5939	-0.015280061
147	0x3b23ad61	0.0024975168
148	0x3d94b7c6	0.072616145
149	0x3d93df66	0.07220344
150	0xbd0e3bf8	-0.03472516
151	0x3dcb6b82	0.09932615
152	0xbda6478c	-0.08119115
153	0xbcc23ff4	-0.023712136
154	0xbca9a523	-0.020708626
155	0xbb88b7f8	-0.0041723214
156	0xbd8375fe	-0.064189896
157	0x3ca03d58	0.019560501
158	0x3d5dd083	0.05415393
159	0xbc60286c	-0.013681512
160	0x3af2f7c2	0.0018536972
161	0xbddb4cd2	-0.10708012
162	0xbd3b4f83	-0.045730125
163	0x3dd07061	0.101776846
164	0x3dfafa2a	0.12254746
165	0xbdea5b0f	-0.11443149
166	0x3c9370ee	0.017998185
167	0x3ccaa9b9	0.024739133
168	0xbdc88a92	-0.09792055
169	0xbd958360	-0.073004484
170	0x3d9b8377	0.07593434
171	0xbda2643a	-0.07929273
172	0x3e0117a2	0.12606671
173	0xbcf86fcf	-0.030326752
174	0x3d0e5d69	0.03475705
175	0x3d6b713d	0.05748104
176	0x3d358425	0.044315476
177	0xbc79df59	-0.015251004
178	0xbdeab007	-0.11459356
179	0x3de30ac9	0.110860415
180	0x3dd82fae	0.10555969
181	0xbdd34c87	-0.10317331
182	0xbce085c1	-0.027407529
183	0x3d8d00b5	0.068849005
184	0x3b7aed2d	0.003828834
185	0xbd7324a7	-0.059361126
186	0x3d6ff0b7	0.058579173
187	0xbd9cf05a	-0.07663031
188	0xbd5e0280	-0.054201603
189	0x3c6fe924	0.014642987
190	0x3d6ae4cd	0.057347108
191	0xbbe7a463	-0.007069157
192	0x3da03208	0.07822043
193	0x3c9bacab	0.019003233
194	0xbc746093	-0.014915603
195	0x3ddafabf	0.10692357
196	0x3d6ea81d	0.058265794
197	0x3dace5e4	0.08442286
198	0xbd25a696	-0.04044207
199	0x3d6d98cf	0.058007058
200	0x3d71e0e0	0.059052348
201	0x3dd3a28d	0.103337385
202	0xbd48afda	-0.04899583
203	0xbde788de	-0.11305402
204	0x3c23a3fc	0.009987827
205	0x3df0150a	0.11722763
206	0xbda75e2f	-0.08172261
207	0xbc48ccdb	-0.012255873
208	0x3dab4c96	0.08364217
209	0x3cb53f8b	0.022125026
210	0xbb8635c1	-0.0040957634
211	0x3d65c6a7	0.056097653
212	0x3b989d66	0.004657435
213	0x3d20ef12	0.039290495
214	0x3cabf665	0.020991514
215	0x3dc84416	0.09778611
216	0xbd80b766	-0.062849805
217	0xbdb430b7	-0.08798354
218	0xbdbdf070	-0.092743754
219	0xbcece6f3	-0.028918719
220	0x3d78d249	0.06074742
221	0xbc9fa141	-0.019486072
222	0xbdbf10f8	-0.093294084
223	0xbd9ba374	-0.075995356
224	0xbe01030e	-0.12598822
225	0x3d30f596	0.04320296
226	0x3d84b12b	0.064791046
227	0xbda3a4ec	-0.07990441
228	0xbd045002	-0.032302864
229	0x3de3791d	0.11107085
230	0xbda71835	-0.08158914
231	0x3d0aee43	0.03391863
232	0x3d20380e	0.039115958
233	0x3de0d526	0.10978155
234	0xbdd35f27	-0.10320883
235	0xbde12bc3	-0.10994675
236	0x3dd65807	0.10466009
237	0xbd8bfcd5	-0.06835333
238	0x3d39f468	0.0453991
239	0x3cec2c52	0.028829727
240	0xbdf5af1d	-0.11996291
241	0x3db9ca75	0.09071819
242	0xbd353896	-0.044243418
243	0xbd315a4b	-0.043299
244	0xb905d72c	-0.00012764026
245	0xbd38cd6b	-0.045117777
246	0x3db04891	0.08607591
247	0xb9d31980	-0.00040264055
248	0x3dde0a0e	0.108417615
249	0x3dc5cf96	0.096587345
250	0x3dd66a71	0.10469521
251	0xbdff6f28	-0.12472373
252	0x3c0594f1	0.008153186
253	0x3b1b9e8a	0.002374562
254	0x3dc576c2	0.09641792
255	0x3d4d0b0d	0.050059367

layer_2.bias f4 [64]
0	0xbd76f47c	-0.060291752
1	0x3b5e8ee8	0.003395969
2	0x3ddb813e	0.1071801
3	0x3dc25d11	0.09490407
4	0x3d90fb43	0.07079174
5	0x3da640e2	0.08117844
6	0x3daf42a7	0.08557635
7	0x3d906098	0.07049674
8	0xbc6a54b8	-0.014302425
9	0xbbb00933	-0.0053721904
10	0xbdd95c69	-0.10613329
11	0x3b5a551e	0.0033314894
12	0xbd7529e9	-0.05985442
13	0xbd83362d	-0.064068176
14	0xbda42268	-0.08014375
15	0xbd960021	-0.07324243
16	0xbd83d76a	-0.06437571
17	0x3e0a6a2a	0.13517061
18	0x3d849385	0.064734496
19	0x3d45a29e	0.048250787
20	0x3d870648	0.06592995
21	0xbdd84d30	-0.10561597
22	0x3d9dc9be	0.07704495
23	0xbd0a350b	-0.033741992
24	0x3db70486	0.0893641
25	0x3e0fa13b	0.14026348
26	0xbd40d91a	-0.047082044
27	0x3dbca933	0.0921196
28	0x3de17c02	0.11009981
29	0x3cfeab9d	0.031087691
30	0xbde915ad	-0.113810875
31	0xbae617bd	-0.0017554682
32	0x3c03191e	0.008001594
33	0xbceef849	-0.029171126
34	0xbd9861fe	-0.074405655
35	0x3d95744c	0.072975725
36	0xbc1a63fb	-0.009423251
37	0xbcc61f9f	-0.024185
38	0x3e0bc9c9	0.13651194
39	0x3d941fa7	0.072326
40	0x3ddaa1d9	0.10675401
41	0xbda5152a	-0.08060677
42	0x3bdf7731	0.0068196286
43	0xbdc0b1da	-0.094089225
44	0x3dc14539	0.09437031
45	0x3d913177	0.07089513
46	0x3dde8edb	0.10867091
47	0x3dce4166	0.100710675
48	0xbdc69460	-0.09696269
49	0x3c731e44	0.014838759
50	0x3c96317a	0.01833414
51	0x3d0fba21	0.035089616
52	0x3cd8f80b	0.026485464
53	0x3c958e09	0.018256204
54	0xbdfa10b8	-0.1221022
55	0x3c7bc173	0.015365946
56	0x3d33ae6e	0.04386752
57	0xbd0925b5	-0.033483226
58	0x3d2a69a3	0.04160465
59	0xbca425e7	-0.020037604
60	0x3db623d2	0.08893551
61	0xbd846fcd	-0.06466637
62	0x3dabc048	0.08386284
63	0x3d580459	0.05273852

layer_3.weight f4 [1, 64]
0	0x3d25e437	0.040500846
1	0x3d85b02a	0.06527741
2	0x3e0187dd	0.12649484
3	0xbdc8c58c	-0.09803304
4	0xbdfdaea5	-0.123868264
5	0xbd9175dc	-0.07102558
6	0x3d7b29d7	0.0613192
7	0x3e1a4c44	0.15068156
8	0x3c1a27a3	0.009408864
9	0x3e4a0640	0.19728947
10	0x3d800683	0.06251242
11	0x3d6d16c2	0.05788303
12	0x3da65ab5	0.0812277
13	0xbda89e6a	-0.0823334
14	0x3d591ec6	0.053007863
15	0x3d630176	0.055421315
16	0x3deb7759	0.11497373
17	0xbe3303f5	-0.17481978
18	0x3d1c1a6e	0.038111143
19	0x3e76122a	0.24030367
20	0x3d9c0a24	0.07619122
21	0x3dad9d7f	0.084773056
22	0x3e2fbfb3	0.17162971
23	0x3ccea96f	0.025227277
24	0x3dd2be20	0.1029017
25	0xbe1c775c	-0.15279907
26	0x3c85c284	0.016328104
27	0xbe3c45a3	-0.1838594
28	0x3d6d8475	0.05798765
29	0x3b920192	0.0044557536
30	0x3d3b032c	0.04565732
31	0xbd1535a0	-0.036428094
32	0xbde8f84a	-0.113754824
33	0xbd932898	-0.07185477
34	0xbcc74c37	-0.024328334
35	0x3dc8770e	0.09788333
36	0xbdb0518d	-0.086093046
37	0xbb5e54e7	-0.0033925117
38	0xbe2afdb1	-0.16698338
39	0xbe457657	-0.19283424
40	0x3e4bf302	0.19916919
41	0x3d04eefe	0.032454483
42	0xbd002128	-0.03128162
43	0xbdf0cc04	-0.11757663
44	0x3c951a98	0.018201157
45	0x3e2b62ef	0.16736959
46	0x3e08bdb3	0.13353615
47	0xbdeeb16c	-0.11654934
48	0x3d118dc0	0.035535574
49	0x3e0d34d0	0.13789678
50	0xbb87e01f	-0.0041465904
51	0xbd45043d	-0.048099745
52	0xbd30c2af	-0.043154415
53	0x3c59b11e	0.013286857
54	0x3d559a3a	0.052149035
55	0x3e7a703b	0.24456875
56	0x3e4e6abf	0.20157908
57	0x3c94eafd	0.018178457
58	0x3da2edb9	0.07955498
59	0x3d64ec76	0.05588957
60	0x3e747419	0.23872413
61	0x3dbaf627	0.09128981
62	0xbe0cb516	-0.13740954
63	0xbdaab4ca	-0.08335264
